real-data-forecast-res/section_3/pretrained_model/9699_pretrained_model.pkl (torch, 10703 bytes, 8 tensors)

init_ar_parameters f4 [18]
0.88711333 -0.08338823 0.16055398 -0.058846306 -0.07888745 -0.34095573 -0.009765146 -0.036950395
-0.1897625 -0.38478377 -0.123356715 -0.18169579 0.69934374 0.122887395 -0.112996824 0.16075613
0.21335278 -0.37258503
00000000: dc19 633f 73c7 aabd 4368 243e d308 71bd
00000010: be8f a1bd c091 aebe fefd 1fbc 4c59 17bd
00000020: 1a51 42be 6102 c5be 72a2 fcbd 760e 3abe
00000030: 3108 333f 63ac fb3d e16a e7bd 419d 243e
00000040: 2779 5a3e 77c3 bebe

init_redusial_params f4 [6]
-0.5942585 -0.0050890255 0.65164214 -0.22971036 -0.02578041 -0.54090565
00000000: 5321 18bf d7c1 a6bb 05d2 263f 3139 6bbe
00000010: 7031 d3bc cb78 0abf

lstm.weight_ih_l0 f4 [80, 3]
0.58718914 0.8100412 0.7143833 0.5352081 0.9831845 0.63894296 0.22892629 0.5677866
1.0705241 0.48607937 0.41990575 0.44587967 0.32836667 0.3892055 0.6334246 0.0017085074
-0.28123903 -0.16994902 0.8635798 0.86409557 0.607741 0.14583725 0.11216474 0.24201843
-0.01381858 0.19659749 -0.009206082 0.39531732 0.3380651 0.40203324 0.27163643 0.64221513
0.64833015 0.19509058 0.40853938 0.64729303 0.018680336 -0.37646464 -0.41650346 0.8569521
0.96477836 0.85447264 -0.2998822 -0.8813682 -1.556604 0.3742414 0.4140063 0.29681173
0.21683666 0.5943581 0.77712464 -2.3577085 -2.724083 -1.8268948 -0.059064295 0.29249567
0.14179985 1.8532553 1.6064868 0.5925604 0.39132622 0.3752197 0.14235176 0.7505018
0.65885156 0.51974225 0.6348182 1.2488996 1.1023414 0.5579616 0.46740404 0.32084358
0.35793054 0.23375511 0.80274135 -0.21759741 -0.33380315 -0.6219583 0.644819 0.50680774
0.7397832 -0.15418388 -0.13461679 -0.11008277 0.0855741 0.07812435 0.07434052 0.2889478
0.16335462 -0.05141488 0.363119 0.32358074 0.20585665 0.3217079 0.33441076 0.20583068
0.34463903 0.6622542 0.30667993 0.72674 0.33125108 0.2579211 -0.20540401 -0.13377322
-0.5833517 0.38290247 0.49358323 0.35724643 0.29952112 0.7180032 0.8465947 -1.6018429
-1.7410654 -1.3820945 -0.5943123 -1.4082813 -2.63446 0.56634635 0.1139453 0.20901346
0.9681375 1.1677488 1.1723436 0.6921348 0.77913415 0.8324803 0.30132914 0.75178784
1.073854 -0.7933707 -0.39324898 -0.24839555 -0.37023592 -0.4001978 -0.47019142 0.3368272
0.5863817 0.8922509 0.480964 0.6323106 0.23961096 -0.7402948 -0.3979954 0.34286577
-0.3386675 -0.33963683 -0.060269397 -0.15141305 -0.0025631536 0.16793539 0.6495855 0.6999569
0.2073724 0.34824842 0.46824637 0.5470894 -0.17085136 -0.06172945 0.16888586 -0.41261506
-0.5091984 -0.2564612 0.90982264 0.8094333 0.7152497 0.15956369 0.40958136 0.5067411
-0.355745 -0.38238594 -0.17313455 -0.31825373 0.082002215 -0.019953938 -1.070693 -1.2221847
-1.2532797 1.0187539 1.0683537 0.8418123 -1.1081096 -1.9456338 -4.151047 0.35610715
0.33170217 0.21988307 -0.60069925 -0.72325414 -1.0826643 2.1612365 3.956762 5.054635
-0.84175885 -2.2093475 -4.0481343 0.7188771 1.0088177 1.7784935 0.60514927 0.7615261
0.25413752 -0.52038735 -1.5924116 -2.3553803 -0.1805513 -0.018459663 -0.2548087 1.1808738
1.8559562 2.962357 0.99035513 0.82166845 0.847176 1.1436354 0.8718411 0.7492829
1.1823565 0.8170079 0.70555717 1.6138608 1.4271729 0.99244666 0.94876856 0.73159
0.70098656 0.67509896 0.010435937 -0.5347984 1.2264049 1.3098305 0.73500264 -1.3403567
-1.2321625 -1.0733621 -0.03626973 -0.18748564 0.088493876 0.66178036 0.7897529 0.46635145
00000000: 0752 163f dc5e 4f3f d3e1 363f 6603 093f
00000010: fbb1 7b3f c491 233f a76b 6a3e 765a 113f
00000020: ef06 893f 65df f83e e3fd d63e 574a e43e
00000030: ad1f a83e f145 c73e 1d28 223f ffef df3a
00000040: 90fe 8fbe 1e07 2ebe 9113 5d3f 5e35 5d3f
00000050: ea94 1b3f 5c56 153e a1b6 e53d aed3 773e
00000060: 5367 62bc da50 493e 1bd5 16bc 0867 ca3e
00000070: de16 ad3e 4dd7 cd3e ee13 8b3e 3668 243f
00000080: f7f8 253f d3c5 473e 132c d13e ffb4 253f
00000090: 8107 993c f9bf c0be f13f d5be 3661 5b3f
000000a0: b7fb 763f b8be 5a3f 298a 99be 59a1 61bf
000000b0: cd3e c7bf 929c bf3e a2f8 d33e b5f7 973e
000000c0: 6e0a 5e3e da27 183f a4f1 463f b2e4 16c0
000000d0: 6057 2ec0 b0d7 e9bf 67ed 71bd fec1 953e
000000e0: fb33 113e 7837 ed3f 5ca1 cd3f 0ab2 173f
000000f0: e95b c83e cc1c c03e a9c4 113e e320 403f
00000100: 7faa 283f d40d 053f 7283 223f f1db 9f3f
00000110: 8619 8d3f 92d6 0e3f 954f ef3e 9c45 a43e
00000120: ac42 b73e 805d 6f3e 7580 4d3f dbd1 5ebe
00000130: 3fe8 aabe a938 1fbf dc12 253f 27be 013f
00000140: 6f62 3d3f 61e2 1dbe fcd8 09be 1373 e1bd
00000150: 7941 af3d a9ff 9f3d d83f 983d f7f0 933e
00000160: 6f46 273e 6998 52bd bcea b93e 60ac a53e
00000170: 16cc 523e e6b6 a43e e337 ab3e 47c5 523e
00000180: 8774 b03e 7e89 293f 2705 9d3e a20b 3a3f
00000190: be99 a93e 3c0e 843e 6e55 52be d9fb 08be
000001a0: 8956 15bf cb0b c43e f1b6 fc3e 01e9 b63e
000001b0: d55a 993e 0fcf 373f 6eba 583f 3009 cdbf
000001c0: 3bdb debf 79e8 b0bf da24 18bf 9042 b4bf
000001d0: fe9a 28c0 13fc 103f 275c e93d a007 563e
000001e0: dcd7 773f cb78 953f 5b0f 963f bf2f 313f
000001f0: 5675 473f 6e1d 553f d047 9a3e 2b75 403f
00000200: 0c74 893f 581a 4bbf ee57 c9be 675b 7ebe
00000210: 908f bdbe bae6 ccbe eebc f0be 9d74 ac3e
00000220: 1c1d 163f 8e6a 643f ea40 f63e 1cdf 213f
00000230: 935c 753e f683 3dbf 0ec6 cbbe 1a8c af3e
00000240: d465 adbe e1e4 adbe 0bdd 76bd 060c 1bbe
00000250: 95fa 27bb 41f7 2b3e 3c4b 263f 6030 333f
00000260: 6e59 543e 9e4d b23e fdbd ef3e 0d0e 0c3f
00000270: a9f3 2ebe 05d8 7cbd 6af0 2c3e 4842 d3be
00000280: d45a 02bf e24e 83be 23ea 683f 0537 4f3f
00000290: 9b1a 373f aa64 233e a6b4 d13e c9b9 013f
000002a0: 3524 b6be 17c8 c3be 2f4a 31be 27f2 a2be
000002b0: c7f0 a73d 7176 a3bc 780c 89bf 8c70 9cbf
000002c0: 786b a0bf 8766 823f d0bf 883f 0381 573f
000002d0: 89d6 8dbf 870a f9bf 61d5 84c0 ad53 b63e
000002e0: ded4 a93e 0729 613e 6dc7 19bf 2f27 39bf
000002f0: be94 8abf b351 0a40 973b 7d40 92bf a140
00000300: 827d 57bf f365 0dc0 518a 81c0 5408 383f
00000310: f020 813f ada5 e33f 10eb 1a3f 60f3 423f
00000320: 501e 823e 1b38 05bf 25d4 cbbf 8dbe 16c0
00000330: 71e2 38be b838 97bc 4976 82be df26 973f
00000340: f98f ed3f 4297 3d40 ea87 7d3f dd58 523f
00000350: 87e0 583f a562 923f fa30 5f3f 01d1 3f3f
00000360: 7557 973f 6e27 513f 659f 343f fe92 ce3f
00000370: 9aad b63f fc10 7e3f 7fe2 723f 7b49 3b3f
00000380: db73 333f 49d3 2c3f 7efb 2a3c 8ce8 08bf
00000390: d6fa 9c3f 87a8 a73f 2229 3c3f cf90 abbf
000003a0: 80b7 9dbf ee63 89bf 928f 14bd 3cfc 3fbe
000003b0: 473c b53d 706a 293f 3f2d 4a3f 9ec5 ee3e

lstm.weight_hh_l0 f4 [80, 20]
0.29406852 -0.06433923 0.4424054 -0.14507027 -0.7831712 0.28612977 0.18488637 0.8762788
0.2706252 -1.1167392 -0.93035257 0.6098498 0.18400666 0.6018621 1.1373098 -0.2079501
0.18854588 0.94393796 0.6314566 -0.0007396834 0.2709792 0.51998734 0.022184977 -0.2274511
-0.21731895 -0.013673789 0.17538893 -0.3105659 -0.02779088 0.00435199 0.05330457 0.43301037
0.3690821 0.054561775 -0.24237163 0.35034534 -0.09512324 -0.65189767 -0.40817487 0.11727238
0.87312675 0.7026137 0.805496 -0.48934776 -1.1947987 0.37178558 0.1473962 0.63459486
-1.2043253 -0.28703654 0.45618427 -0.15093662 0.9443082 -1.1232468 0.84053504 2.0688293
-0.71809435 0.42380705 1.247146 0.90229946 -0.028655412 0.23464498 -0.14508183 1.0860673
-0.05662819 -0.1551647 -0.11546371 0.36690316 0.08229551 -0.7335039 0.41767672 -0.5763891
-0.108966716 -0.12075698 -0.17749418 0.16173501 -0.3401988 -0.043061573 -0.26961026 -0.004764141
1.080322 0.7023323 0.8049306 0.06881426 -0.60385597 0.16264449 0.18793216 0.61016685
-1.4005709 0.35932767 1.236463 0.09223739 0.38745397 -1.7881069 -0.43268028 2.7101598
-1.0225275 0.30654857 1.1268684 1.1590352 0.519716 0.24441588 0.33952537 -0.23019189
-0.27571756 -0.31245354 0.4631664 0.30954957 -0.19848338 -1.4853381 0.084628224 0.39709327
-0.5134462 -0.106746905 0.6391212 0.47458714 -0.07987635 0.9205176 0.9538811 0.1894485
0.15835215 0.5130441 -0.18506984 0.14058179 0.022262514 -0.13468346 0.17663567 -0.05248059
-0.27488974 0.120830104 0.37632602 0.17820035 0.19453426 -0.28462616 0.2725841 -0.06510016
0.077334344 -0.27349976 -0.555485 -0.102527715 1.616017 1.4729196 1.8611919 0.7979084
-1.4374069 -1.1820108 -1.0031648 0.7007044 -1.7127275 1.0699552 1.1669376 0.71938634
0.6526213 -1.8893874 -2.1205943 -0.9336604 -1.5933046 0.9708023 1.3857511 1.4136422
0.7534679 0.15817627 -0.04200471 0.8535139 -0.19960544 -0.09124847 0.08691357 0.10505046
-0.14709365 -0.07598236 0.1804406 0.5270389 0.055735864 -0.6575831 -0.82590026 -0.027061045
0.024378916 -0.39847845 0.01947174 0.2369066 0.28625605 0.47232884 1.2008226 -0.49159375
-1.252941 0.19220741 0.15639052 0.5043868 -0.2721983 0.6234498 -0.63552773 0.36872974
0.708003 -0.18957946 -2.587181 -0.29362583 -0.9815652 0.6028796 0.71378344 0.501629
0.102159336 0.53038245 -0.123352 0.9298289 -0.34278515 0.077642865 0.5459674 -0.14226687
-0.12713844 0.23504378 0.23827517 0.25586388 -0.053792723 -0.09492113 -0.7408692 0.44290215
-0.3360342 -0.34225222 0.055302758 0.1736789 -0.24631855 0.7999916 -0.21883231 0.93670565
0.16374378 0.19745992 0.5117453 -0.16008225 0.011243854 -0.23082729 1.0939895 0.84096646
-0.49154562 -1.6606888 0.33034047 0.20789078 -0.43106028 -0.8527246 -0.4391974 0.19765227
0.62186277 0.13838547 -0.14049397 1.0605403 0.2401084 -0.085130595 -0.23763028 -0.021256568
-0.009437406 1.1167723 -0.42021105 -0.42260244 0.58057284 -0.22708334 0.61597437 -0.3059694
00000000: 2690 963e 49c4 83bd f682 e23e 4d8d 14be
00000010: e87d 48bf 9a7f 923e da52 3d3e cf53 603f
00000020: 638f 8a3e 4ff1 8ebf 962b 6ebf 1e1f 1c3f
00000030: 3e6c 3c3e a213 1a3f 5e93 913f dff0 54be
00000040: 2c12 413e eba5 713f 24a7 213f 50e7 41ba
00000050: c9bd 8a3e e41d 053f 45bd b53c f1e8 68be
00000060: dc88 5ebe 0708 60bc 2899 333e 7e02 9fbe
00000070: b3a9 e3bc 239b 8e3b e555 5a3d 89b3 dd3e
00000080: 54f8 bc3e 2b7c 5f3d 4530 78be 7760 b33e
00000090: f9cf c2bd c4e2 26bf 4cfc d0be 802c f03d
000000a0: 3c85 5f3f 7ede 333f fc34 4e3f ca8b fabe
000000b0: 2aef 98bf ae5a be3e 08ef 163e cf74 223f
000000c0: 5527 9abf 74f6 92be fc90 e93e 218f 1abe
000000d0: 2fbe 713f 8dc6 8fbf 4e2d 573f b367 0440
000000e0: 08d5 37bf 3dfd d83e 7ba2 9f3f 19fd 663f
000000f0: c1be eabc c646 703e 5590 14be 4104 8b3f
00000100: f6f2 67bd 7fe3 1ebe 3d78 ecbd bbda bb3e
00000110: 8c8a a83d e9c6 3bbf b9d9 d53e 3c8e 13bf
00000120: f129 dfbd 6f4f f7bd 09c1 35be dd9d 253e
00000130: 8a2e aebe 5561 30bd 5b0a 8abe 831c 9cbb
00000140: fe47 8a3f 0dcc 333f ef0f 4e3f 7eee 8c3d
00000150: 4e96 1abf 478c 263e 4a71 403e e533 1c3f
00000160: e845 b3bf ccf9 b73e 6b44 9e3f f5e6 bc3d
00000170: 5e60 c63e b0e0 e4bf 4588 ddbe 4273 2d40
00000180: 2ee2 82bf eff3 9c3e 393d 903f 445b 943f
00000190: 1c0c 053f 2848 7a3e 45d6 ad3e 6cb7 6bbe
000001a0: da2a 8dbe e9f9 9fbe 2524 ed3e 487d 9e3e
000001b0: 3a3f 4bbe 8f1f bebf 9051 ad3d cf4f cb3e
000001c0: 3671 03bf 1f9e dabd 729d 233f 16fd f23e
000001d0: 3696 a3bd 0ba7 6b3f 8d31 743f cafe 413e
000001e0: 1127 223e dc56 033f f382 3dbe acf4 0f3e
000001f0: e05f b63c 76ea 09be fbdf 343e e3f5 56bd
00000200: 59be 8cbe c675 f73d cead c03e 277a 363e
00000210: fd33 473e 85ba 91be 2590 8b3e 3c53 85bd
00000220: 7861 9e3d 2908 8cbe 4434 0ebf 0dfa d1bd
00000230: a5d9 ce3f a188 bc3f 893b ee3f ba43 4c3f
00000240: f3fc b7bf 214c 97bf b467 80bf 5d61 333f
00000250: a83a dbbf 4bf4 883f 365e 953f b429 383f
00000260: 3112 273f 72d7 f1bf d1b7 07c0 5e04 6fbf
00000270: 68f1 cbbf 8086 783f 4b60 b13f 3af2 b43f
00000280: 46e3 403f f6f8 213e 210d 2cbd e37f 5a3f
00000290: 5e65 4cbe 7ae0 babd beff b13d b224 d73d
000002a0: b89f 16be a49c 9bbd 6cc5 383e 05ec 063f
000002b0: 4a4b 643d 5e57 28bf 336e 53bf 20af ddbc
000002c0: 4bb6 c73c 5e05 ccbe 3383 9f3c a597 723e
000002d0: 2790 923e 16d5 f13e 8eb4 993f 2db2 fbbe
000002e0: 5f60 a0bf 05d2 443e d624 203e 7e1f 013f
000002f0: 935d 8bbe 689a 1f3f f2b1 22bf 25ca bc3e
00000300: af3f 353f 1e21 42be 6094 25c0 2056 96be
00000310: db47 7bbf 5156 1a3f 83ba 363f c26a 003f
00000320: ea38 d13d 25c7 073f f99f fcbd 4409 6e3f
00000330: 8981 afbe 3903 9f3d 85c4 0b3f 68ae 11be
00000340: 9430 02be 51af 703e 68fe 733e 9700 833e
00000350: c255 5cbd 0266 c2bd 9ba9 3dbf 12c4 e23e
00000360: ad0c acbe af3b afbe 2585 623d e2d8 313e
00000370: ee3a 7cbe 40cc 4c3f 9415 60be f1cb 6f3f
00000380: 73ac 273e ef32 4a3e bd01 033f 9aec 23be
00000390: 2438 383c fd5d 6cbe d907 8c3f 9449 573f
000003a0: deab fbbe 7391 d4bf 6322 a93e 52e1 543e
000003b0: efb3 dcbe 294c 5abf 7bde e0be 5b65 4a3e
000003c0: 6632 1f3f ecb4 0d3e a7dd 0fbe c9bf 873f
000003d0: fade 753e f358 aebd 5a55 73be 4122 aebc
000003e0: 5a9f 1abc 65f2 8e3f e725 d7be 595f d8be
000003f0: 6ca0 143f 8988 68be 7fb0 1d3f 05a8 9cbe

lstm.bias_ih_l0 f4 [80]
0.70855564 -0.15422253 0.570638 -0.12127061 0.10418444 0.2684879 -0.13607603 0.6520552
0.29920292 1.2004857 0.32165062 0.035484012 -0.10595261 0.07801189 -0.46611837 -0.19440891
-0.12190506 0.29071033 1.1247174 1.361081 0.07069966 0.21486941 0.47908828 0.16186514
0.04426167 0.19483984 0.13884175 -0.12388131 0.31346813 0.075644866 0.10873641 0.012693061
0.3303477 0.12449564 0.20257759 0.14577807 0.113688424 0.025861468 0.014354442 0.67812705
0.6201332 0.16860199 0.72404146 0.4484815 -0.28000826 -0.18748552 0.04538918 -0.26109424
-0.39150515 0.45533448 0.112906255 -0.092785284 0.13216889 -0.2027173 -0.76097286 0.038448136
-0.40357834 -0.15566452 0.13247801 0.94132733 -0.30949503 -0.2317412 0.7244135 -0.51120824
0.16718689 0.16909298 -0.0047252164 0.36020982 -0.18275762 -0.74648076 0.48681754 0.20648402
0.7990342 -0.26503888 0.7423453 0.16999896 0.19984134 0.03620787 0.48993766 -0.15734373
00000000: e763 353f 83ec 1dbe 5515 123f ba5c f8bd
00000010: a75e d53d 3f77 893e 8457 0bbe 17ed 263f
00000020: 2031 993e 84a9 993f 64af a43e af57 113d
00000030: affd d8bd b3c4 9f3d 11a7 eebe 2113 47be
00000040: 5ca9 f9bd fcd7 943e bdf6 8f3f e737 ae3f
00000050: fcca 903d ba06 5c3e 0f4b f53e fabf 253e
00000060: ba4b 353d 1884 473e 882c 0e3e 7cb5 fdbd
00000070: e57e a03e b2eb 9a3d 32b1 de3d 8ef6 4f3c
00000080: 5523 a93e 92f7 fe3d 8070 4f3e d946 153e
00000090: 7ad5 e83d 6edb d33c e52e 6b3c bc99 2d3f
000000a0: 0dc1 1e3f 00a6 2c3e c85a 393f 5e9f e53e
000000b0: 3e5d 8fbe 34fc 3fbe 01ea 393d 25ae 85be
000000c0: 5d73 c8be 9a21 e93e 653b e73d 3606 bebd
000000d0: 4857 073e 2095 4fbe 1ecf 42bf cb7b 1d3d
000000e0: d2a1 cebe 8566 1fbe 51a8 073e d4fa 703f
000000f0: 2276 9ebe 914d 6dbe 2a73 393f 8bde 02bf
00000100: 0a33 2b3e b626 2d3e fdd5 9abb 6c6d b83e
00000110: d024 3bbe 5d19 3fbf 2640 f93e 8c70 533e
00000120: 818d 4c3f 2db3 87be 570a 3e3f 3514 2e3e
00000130: 35a3 4c3e b44e 143d 1cd9 fa3e b71e 21be

lstm.bias_hh_l0 f4 [80]
0.38311523 0.026242454 0.8942086 0.058848497 0.34647742 0.49682987 -0.27212453 0.6555927
0.44884074 1.39372 0.15390886 -0.28878972 -0.0093897935 0.0068327123 -0.1670945 0.07230878
-0.30383134 -0.054686464 1.0128722 1.185456 0.1577505 0.0020523947 0.30778795 -0.062158283
0.04602117 0.05615335 0.2566481 0.28846708 0.27719474 0.28217778 0.23839292 0.03812861
0.51897436 -0.036469504 -0.102780454 0.2875862 0.23694876 0.18283693 -0.05862154 0.87598526
0.59536767 0.18404165 0.65847844 0.3963922 -0.41813383 -0.05230045 -0.085966885 -0.38533932
-0.52590257 0.6505957 0.042555716 -0.02887535 0.020006485 0.06402105 -0.68195766 -0.05675733
-0.18088543 -0.27674195 0.15530623 0.90766627 -0.35197002 -0.2951963 0.7823683 -0.19567561
0.039253004 0.22997063 0.06224529 0.13721685 -0.20030624 -0.7429043 0.46533307 0.0796882
0.7892947 -0.30987102 0.9067531 0.047597334 0.025455765 0.34464836 0.3170075 -0.20561978
00000000: ae27 c43e 6afa d63c dbea 643f 1f0b 713d
00000010: 7d65 b13e 7c60 fe3e e853 8bbe ecd4 273f
00000020: 74ce e53e 6b65 b23f 499a 1d3e 3fdc 93be
00000030: a6d7 19bc f2e4 df3b d21a 2bbe a016 943d
00000040: c88f 9bbe eafe 5fbd cca5 813f 06bd 973f
00000050: 5989 213e 7881 063b 6296 9d3e af99 7ebd
00000060: b280 3c3d 0e01 663d 6167 833e f5b1 933e
00000070: 78ec 8d3e 9b79 903e 461d 743e bf2c 1c3d
00000080: 81db 043f 0c61 15bd 8f7e d2bd 803e 933e
00000090: b2a2 723e 9b39 3b3e 241d 70bd 9240 603f
000000a0: 046a 183f 6a75 3c3e 0b92 283f ebf3 ca3e
000000b0: a315 d6be ff38 56bd 680f b0bd 324b c5be
000000c0: 8da1 06bf 718d 263f e74e 2e3d ff8b ecbc
000000d0: a4e4 a33c 781d 833d c794 2ebf 607a 68bd
000000e0: 083a 39be 1fb1 8dbe 9908 1f3e d15c 683f
000000f0: 6a35 b4be f823 97be 4a49 483f 305f 48be
00000100: c2c7 203d 6c7d 6b3e ebf4 7e3d 9382 0c3e
00000110: 141d 4dbe fa2e 3ebf 2340 ee3e 9133 a33d
00000120: 380f 4a3f 6aa7 9ebe f920 683f 6cf5 423d
00000130: 9c88 d03c c075 b03e cf4e a23e fe8d 52be

add_trend.weight f4 [3, 20]
0.774423 0.92762995 0.9045271 -1.8067646 -2.4442651 1.8058467 -0.16324003 -1.0133301
-0.02545965 5.2580624 -0.599968 -0.36480266 3.2446191 -0.20687161 -6.069571 1.4145272
0.75035906 -2.8539793 -0.5801037 -0.11088471 -0.5152913 1.6602083 2.1045685 4.9096985
0.49790215 -1.7399857 0.30437848 -0.15496702 -1.4714063 -0.11517358 0.22202377 -0.86620754
-0.2070657 -1.9191264 0.8767083 1.4547813 -0.547412 0.34788516 2.0875783 2.0022986
-0.51041555 1.2485073 3.741577 6.015366 0.14125958 -2.1812286 1.2400393 0.5266342
-1.8605555 0.8549727 -0.20926255 0.9192531 0.5957403 0.08734563 3.0947196 0.713224
-0.67540085 0.7579549 -3.8641407 0.8133116
00000000: 9640 463f 2879 6d3f 178f 673f 1044 e7bf
00000010: d76e 1cc0 fc25 e73f 6528 27be cdb4 81bf
00000020: c290 d0bc 0c42 a840 8197 19bf 6ac7 babe
00000030: d7a7 4f40 27d6 53be ed39 c2c0 3a0f b53f
00000040: 8817 403f 99a7 36c0 ad81 14bf 8617 e3bd
00000050: 21ea 03bf b581 d43f 40b1 0640 401c 9d40
00000060: 08ed fe3e dab7 debf 7fd7 9b3e adaf 1ebe
00000070: 0b57 bcbf 20e0 ebbd 335a 633e c7bf 5dbf
00000080: 0809 54be efa5 f5bf f56f 603f 4636 ba3f
00000090: 3123 0cbf 011e b23e e29a 0540 a925 0040
000000a0: 98aa 02bf 16cf 9f3f ff75 6f40 e17d c040
000000b0: 5aa6 103e 4099 0bc0 9cb9 9e3f 80d1 063f
000000c0: af26 eebf 7edf 5a3f ec48 56be 2c54 6b3f
000000d0: 7082 183f 44e2 b23d e30f 4640 d995 363f
000000e0: 12e7 2cbf 5509 423f 154e 77c0 3035 503f

add_trend.bias f4 [3]
0.39537653 -0.03948045 0.59908986
00000000: cb6e ca3e 41b6 21bd f45d 193f
