forecast-res/section_3/pretrained_model/149_pretrained_model.pkl (torch, 10703 bytes, 8 tensors)

init_ar_parameters f4 [18]
00000000: c085 323f 58d1 18be c0d3 98be a6d3 33bf
00000010: 9613 003f b96d e33e d77f 1ebf 61bd aebf
00000020: ca39 bb3f 2c98 05c0 e569 743e c0b0 d0bf
00000030: 482a 32bf e884 24bf ecee a03e 7a63 1f3f
00000040: 261a 833f 4fcb 61be
0.69735336 -0.14923608 -0.29849052 -0.70244825 0.50029886 0.4441965 -0.6191382 -1.3651544
1.4627011 -2.0874128 0.2386852 -1.630394 -0.69595766 -0.642653 0.31432283 0.62261164
1.0242355 -0.22050212

init_residual_params f4 [6]
00000000: 8575 e8bf ff29 a7bf b16d 0e40 2f59 febe
00000010: 47b3 a9bf 9dcf 0dc0
-1.8160864 -1.3059691 2.225445 -0.49677417 -1.3257836 -2.2157967

lstm.weight_ih_l0 f4 [80, 3]
00000000: a543 8b3e df3f 863d 549c 223d 2f85 6d3e
00000010: afb5 ae3e b9b1 883d 4dd2 0a3d 514b ed3d
00000020: 6c17 543e 9f81 a23c 76e4 c93c e11c 303e
00000030: f127 76bc 60cf f0bc bfb8 f73d a0a5 b83d
00000040: b821 903e 24df c03d d4fd b1ba a1f4 40bd
00000050: fcd9 933e 22f0 4d3c 5bde 113e 94f5 f7bd
00000060: 656b e7bb 4417 af3d 73a6 a53e a8a9 393e
00000070: 8913 b63e bc85 443b d954 15bc 0cfb 963b
00000080: faa3 933e 05ff 073e 5515 b2bc 8f8b f33d
00000090: 9ede 9e3d bb6d 0e3c d466 ba3c d6db 253e
000000a0: 4ea8 b73e 4855 503e 7927 2a3e 9ba3 8f3e
000000b0: b7ef 913d 8f5b 893e dae2 ee3d a401 fabd
000000c0: 41aa b9be 2ebe 73be 6b83 a2be eac8 c4be
000000d0: 97d0 f5be 0bbc 36be 7378 773e 3a49 203e
000000e0: 9449 8b3e a4d1 a33e 6d14 913e f023 5f3e
000000f0: 619c a63e 98ca 5a3d d5c5 c63c 2902 563e
00000100: 2a92 5f3e 7b11 603e 1476 c63e 492f 6e3e
00000110: e8f3 903e 4517 a83e 2df7 1d3e 5b48 0b3c
00000120: 52f4 b23e 372b 153e 6c68 353d 3ef1 103e
00000130: 9de5 6f3e ec3b 123e b0a2 5abd 27e0 8cbc
00000140: 65a5 b53d 03cc 863d 45a1 b73d 2df5 043e
00000150: 8640 4e3d 6d5c fabc 46ff b43d 3323 a53e
00000160: 78ef a03e 5e42 823e 157c c73e 19f0 a13e
00000170: 7641 773e 11aa d83d ec50 9d3e 5ae1 bb3c
00000180: d95d e03e a692 903e 8f70 bd3e ccd3 d83e
00000190: 8c71 203e 71c6 2a3d 42d4 a03e 8212 b13e
000001a0: b429 a73d 7756 e8bc 181a fb3c 1b41 2fbc
000001b0: 0c8e e4be 5494 75be a6f0 99be 9152 c2be
000001c0: 20a6 0fbf ee0f 9abe ffad 763e 86ce 583e
000001d0: bef9 db3e 8e53 273e 5a96 fa3c 91ef 673d
000001e0: 1340 36be d7fa 613d 9a24 44be da6c ee3c
000001f0: 7745 c9bb 9e78 e8bb 119c b13e 5e65 443e
00000200: 093c 063e ce9f 1d3e 4193 953e 85a0 863d
00000210: e7a4 c83e 0268 703e 86a6 ac3e 7a22 b83e
00000220: ca45 5f3e 9403 24bc e019 06be 604d fdbd
00000230: a4af a5be 9cc8 43bd d611 07bd 1874 b7be
00000240: e2c9 85be 1f40 473d 5ea3 55be cbf0 cebe
00000250: 3c0d 80be b86b 01be 3db1 643e eb70 d93d
00000260: 7dc2 0f3e 9d51 87be acd4 b5be bebc 033d
00000270: 9646 99ba 70b4 933e cc32 1f3e 15f7 8e3e
00000280: c258 083e 5e3b 813d 9e45 8c3e abff b43e
00000290: 7b22 533e 9988 80be 282f cbba 3875 f23d
000002a0: e0bf aa3d a2eb 463d b3b2 e63b 874c 2bbf
000002b0: dd75 4ebf 63e5 63bf a530 963e 1346 3c3e
000002c0: fbbe a73e 2a78 a2be 5821 cebe e32f dfbd
000002d0: 077a 883e ab51 463e b90c 043d 7f14 aa3e
000002e0: ff21 4d3e 7836 8f3e 23cd b23e 4876 1f3e
000002f0: e52c e53d b3b4 843e be9c 013f fdbe 7e3e
00000300: 6aaf f53e 14e2 c13e e45d 753e 993e 983d
00000310: f5aa dd3e 4308 ad3e ffd6 813f 581b 933f
00000320: 7f72 633f 843b 6c3e 74ca 8a3e aed5 65bd
00000330: 6ef8 c23f 7428 2440 4085 3240 7c35 c73e
00000340: 23ae 843e eae7 2a3d 23dd 243e 0719 e83e
00000350: 35cb e63e 9121 3d3e e465 a83d 456d 603d
00000360: c5d3 f93d 8ac3 843e 15e2 4b3e b7a7 d93e
00000370: 7176 ed3e 1581 e73c 92c2 e73e d69e dc3e
00000380: 9506 193e f642 1e3f 4d39 c33e c191 cbbe
00000390: 8b10 d7be b813 13be 4ce1 b8be 8357 83be
000003a0: 1201 77be f5ec d5be aadf 0e3f 8f47 9a3e
000003b0: 1e66 973e 555e 903e 074a 783e 7839 963e
0.27200046 0.06555151 0.039699867 0.23195337 0.3412299 0.06674523 0.033891965 0.11586631
0.2071206 0.019837199 0.024645071 0.17198516 -0.015024171 -0.02939576 0.120957844 0.090159655
0.28150725 0.09417561 -0.0013579675 -0.047108296 0.28877246 0.012569459 0.14244978 -0.12107387
-0.007062363 0.085493594 0.32353553 0.18131125 0.3556178 0.0029986938 -0.009114468 0.004607564
0.28836042 0.13280876 -0.021738688 0.11891853 0.077573046 0.008693154 0.02275411 0.16197142
0.35870594 0.20345032 0.1661662 0.2805451 0.071258 0.26827666 0.11664362 -0.12207344
-0.36262706 -0.23803017 -0.3174089 -0.38434535 -0.48010704 -0.1784517 0.24167041 0.15652934
0.27204573 0.3199588 0.28335896 0.21791053 0.32541183 0.053415865 0.024264256 0.20899262
0.21833101 0.21881668 0.3876196 0.23260225 0.28311086 0.32830253 0.15426321 0.008501138
0.34952027 0.14567266 0.044289038 0.14154527 0.23427434 0.14280671 -0.053377807 -0.017196728
0.08869437 0.06581881 0.089663066 0.12984152 0.050354503 -0.03056165 0.08837752 0.32253417
0.314327 0.2544126 0.38961855 0.31628492 0.24146065 0.105793126 0.307258 0.022934604
0.438216 0.28236884 0.36999938 0.42349088 0.15668315 0.041693155 0.3141194 0.34584433
0.08162251 -0.028361542 0.03065209 -0.010696675 -0.44639623 -0.23982364 -0.30066413 -0.37953618
-0.5611286 -0.30090278 0.24089812 0.21172532 0.42963976 0.16340467 0.030589271 0.056624953
-0.1779788 0.05517086 -0.19154587 0.029104639 -0.006142314 -0.007094457 0.34689382 0.19179294
0.13108839 0.15392992 0.29213908 0.065735854 0.3918831 0.23477176 0.33720797 0.35963804
0.21803966 -0.010010619 -0.13095808 -0.12368274 -0.32360566 -0.047798738 -0.032975994 -0.3583076
-0.26130587 0.048645135 -0.20863101 -0.40418085 -0.25010097 -0.12638748 0.22333236 0.106172405
0.14039035 -0.26429453 -0.35513818 0.03216242 -0.001169401 0.288486 0.15546721 0.27922884
0.13315108 0.063101515 0.27396864 0.3535131 0.20618622 -0.25104216 -0.0015501725 0.11838764
0.083373785 0.04856456 0.0070403456 -0.66913646 -0.80648595 -0.8902189 0.29333988 0.18386106
0.32762894 -0.31732303 -0.40259814 -0.108978055 0.266556 0.19367091 0.032238696 0.33218762
0.200325 0.27971244 0.34922132 0.15572464 0.111902036 0.25919113 0.50629795 0.24877544
0.47985393 0.37867796 0.23961598 0.074338146 0.43294492 0.33795366 1.0143737 1.149272
0.8884658 0.23069578 0.27107584 -0.056111984 1.5232065 2.564969 2.789383 0.38907993
0.25914106 0.041725077 0.16099982 0.45331594 0.4507691 0.18469836 0.08222559 0.054791708
0.12198595 0.25930434 0.19910462 0.4251077 0.46379426 0.028259793 0.45265633 0.43089932
0.14943917 0.61820924 0.38129655 -0.3975964 -0.4200481 -0.14362991 -0.36109388 -0.25652704
-0.24121502 -0.41782346 0.55810034 0.3013272 0.29570097 0.2819697 0.24246989 0.2934072

lstm.weight_hh_l0 f4 [80, 20]
00000000: d893 f0bd 5389 ddbe 6871 533e f998 cf3e
00000010: 8c31 d93d 83db b43e 6cd3 dbbe 737c 0ebd
00000020: 28fa 7c3d c12b 8abc 4053 ca3e cba6 f8bd
00000030: 8e4d fb3d 7a1c b53e bb62 6a3e d94c 4abe
00000040: e49f 693d fd78 853e 550e 673e bbb1 89be
00000050: 8753 8dbe 9546 7b3c dccb 8a3e bfb8 a13e
00000060: 71a7 a43e f7e9 bb3e 0f86 e3bc 467f f6bc
00000070: 9854 043e 1ca1 a2be cb0c 723e 2113 97be
00000080: 323a 96bb 3348 27bd 0187 7bbd 447c 2ebd
00000090: bccb c0bc e8f2 023d f219 853e c8b8 c0bd
000000a0: 1d23 2abe c214 f9bd a5be df3d a8ba 1b3e
000000b0: 9782 963e c0a8 af3e 00a3 a23d 14eb 59bd
000000c0: 5308 4dbd 14bb 8dbe 70d4 993e 6122 5cbe
000000d0: 3427 45bd 6671 063e d817 21bd 24c2 b23d
000000e0: 6362 b4bd fdc1 7ebe 63ca d6bc 9ff2 a83c
000000f0: c59f ae3c af15 95bc d313 8f3e 719c d53e
00000100: b4a2 803e cc62 c63d 25f2 e7be 2683 1cbe
00000110: 09b0 b53d 1336 a2bd 45fd c93e a11b c5be
00000120: 8a49 cf3d da7f aa3d 8472 e53d 02d1 5dbe
00000130: 41da 443d 1dcc 3a3e 41ae fe3d 7828 44be
00000140: 1fee 2abe 6520 a3be 6924 a73e 93a2 2abd
00000150: 533e 043d 3000 623e 092b 02be 8fb6 0dbe
00000160: 7ded 3abe 14af 5bbc fefa 8a3e 819f 76be
00000170: 16fa 1e3c 19cb bc3e 4880 8abc c889 a9be
00000180: 950d 26be fdc6 be3d a8c7 efbb 3d34 993c
00000190: 6688 45be 2320 8ebd 6d6b 123e 0bb9 943d
000001a0: f419 a2bc 8fa1 d63d 0e64 6ebe c9d6 3dbe
000001b0: d446 3f3d 6ddd 01be 3e9b 95bc bdfe a2be
000001c0: 9e51 a83d 6406 99bc bb1d 2b3e 0a58 e7bd
000001d0: 0bb8 73be 05cc 63be 255d bfbc bc64 4abb
000001e0: 856e 2bbe f760 2cbe f188 773e 8571 fd3d
000001f0: ff26 6e3c d10a 843e 7995 ab3d d83a a1be
00000200: d968 05be 4d24 8ebe af84 5e3d 2885 99be
00000210: 8b83 883e 3b85 bb3e 0c27 833c 149b 67be
00000220: c17e 7dbe 8f69 9fbd df0b bf3d 919c 2bbe
00000230: b3d4 53be ae54 b9be 1064 b33e a0ce af3e
00000240: a899 043d b3de 253e 6b36 63bd cd24 13bd
00000250: 25a7 b4be 3bfe 80be 19c9 1d3e c1b3 2abe
00000260: 7c41 8c3e 9aa1 d53d 130a 8b3d 0be2 053c
00000270: 2afd c6bd 91b3 7cbe 63ec 813e 7965 a0be
00000280: 1ba7 8dbe 6c55 79be 63cd e33d ee0d 6f3e
00000290: bc8c 063e 9599 66bc 7178 12bd 27c8 0bbe
000002a0: 8d1c a0be c1eb 343d c46a a33d 0e9c 63be
000002b0: f3e6 5d3d c428 133e 585d 243e a448 90be
000002c0: b5e1 85be 05a2 27be a202 af3e 7eee 6b3d
000002d0: 10ce a0bd 3091 aebe b62a b63e faa5 943e
000002e0: ee42 aa3e 99c4 d63d 0f2b 30be 2087 40be
000002f0: 8318 9fbd 0ecc 60be 531b da3e 14f3 6bbe
00000300: dbe9 693d b090 ad3e ba9e 703e 79fe 7ebd
00000310: 7875 b83d 0725 9b3d 1611 1d3e 8226 1cbd
00000320: dc1a aebe 6296 a3bd 15b6 6a3d 113d 463e
00000330: 3de5 303d 8711 c03d 5300 f1bd d3e5 2dbe
00000340: c5cc 81be 5ab1 83be fa07 393e cc53 98be
00000350: c40e b73c 0309 4e3e 0b6c fe3d e44d 34be
00000360: 1204 44bd e637 c53d e08d 983e d819 1abd
00000370: ede6 a1be 3cc8 c8be 4ba0 bd3e a473 7d3e
00000380: 2613 7a3e a6cb 503e 0673 edbc 650d 48be
00000390: bfc5 9ebe 8ce4 90be c583 b03e b14f 98be
000003a0: 43e0 d13e 3aa7 b73e fb3d 57bc e39b 12be
000003b0: 7df2 3eba c494 5e3e 568a 4e3d e71e 3ebe
000003c0: 19c5 c23b a132 01bc 581e dc3d 6518 a83e
000003d0: 518e ae3e ab18 353e a3b1 92be e109 88be
000003e0: 26bc 08be cc96 74bc ce34 903e 815f 49be
000003f0: afaa c93e c146 533e 9891 a53e 68b2 ccbe
-0.11746949 -0.43268833 0.2064873 0.40546396 0.106051534 0.35323724 -0.4293474 -0.034786653
0.061762005 -0.016866567 0.3951664 -0.12141188 0.12270652 0.35373288 0.22889225 -0.19755878
0.05703725 0.2606887 0.22564061 -0.2689341 -0.2760279 0.015336652 0.27108657 0.31586263
0.32158998 0.3670194 -0.027773885 -0.030089986 0.12922895 -0.31763542 0.23637693 -0.29506782
-0.004584574 -0.04084034 -0.061408047 -0.042598978 -0.023534648 0.031969935 0.25996357 -0.09410244
-0.16614957 -0.12162162 0.109250344 0.15207922 0.29396507 0.34308434 0.07941246 -0.053202704
-0.050056767 -0.27681792 0.3004489 -0.2149749 -0.04813309 0.13129196 -0.03932938 0.08728436
-0.08807828 -0.24878688 -0.026219552 0.020623503 0.021316418 -0.018198816 0.27944812 0.41720918
0.25124133 0.09686813 -0.4530193 -0.15284404 0.08871467 -0.0792047 0.39451042 -0.38497642
0.10121448 0.08325167 0.11203483 -0.21661761 0.048059706 0.18241926 0.1243558 -0.19156063
-0.16692398 -0.31860653 0.32644966 -0.04165895 0.032286 0.22070384 -0.12711729 -0.13839172
-0.18254657 -0.013408441 0.27144617 -0.24084283 0.00970318 0.368737 -0.016906872 -0.3311293
-0.16216119 0.09315298 -0.007317502 0.018701667 -0.19290313 -0.06939723 0.14298792 0.07261857
-0.019787766 0.104800336 -0.23280355 -0.18538965 0.046698406 -0.12682123 -0.018262502 -0.31834975
0.08218692 -0.018679805 0.1671056 -0.11296089 -0.23800676 -0.22245796 -0.023359844 -0.0030882796
-0.16741379 -0.16833864 0.24173333 0.12375168 0.014535665 0.25789502 0.08378119 -0.31490207
-0.13028277 -0.2776207 0.054325756 -0.29984403 0.2666286 0.36625084 0.01600983 -0.22617751
-0.24755384 -0.077838056 0.09328436 -0.16758944 -0.20686607 -0.36197418 0.3503728 0.3433733
0.0323731 0.16198234 -0.05547182 -0.035923768 -0.3528377 -0.25193962 0.15408744 -0.16670133
0.2739371 0.10431214 0.06789031 0.008171569 -0.09716256 -0.24677874 0.2537566 -0.31327417
-0.27666554 -0.24348992 0.11123159 0.23345158 0.13139623 -0.014074703 -0.035759393 -0.13650571
-0.31271783 0.044170145 0.07979348 -0.22227499 0.05417533 0.1437102 0.16051233 -0.2818042
-0.26148763 -0.163704 0.34181696 0.05760049 -0.07851803 -0.34095144 0.3557946 0.2903288
0.33254188 0.10486717 -0.17203926 -0.18801546 -0.07768347 -0.2195284 0.42598972 -0.23041946
0.057107788 0.3389945 0.2349805 -0.062254403 0.090067804 0.07575422 0.15338549 -0.03812266
-0.34004867 -0.079876676 0.057302553 0.19359232 0.04318737 0.09378343 -0.1176764 -0.16982202
-0.2535154 -0.25721246 0.18069449 -0.29751432 0.022345908 0.20120625 0.12422951 -0.17607838
-0.047855444 0.096298024 0.29795742 -0.037622303 -0.31621495 -0.39215267 0.37036356 0.24751145
0.24421367 0.20390186 -0.028985512 -0.1953636 -0.31010243 -0.28299367 0.34475532 -0.297483
0.4099141 0.3586977 -0.013137336 -0.14317279 -0.00072840584 0.21736437 0.050424896 -0.18566476
0.005943906 -0.007885606 0.10747975 0.32831112 0.34092954 0.17685191 -0.2865115 -0.26570037
-0.13353023 -0.014928531 0.28165287 -0.19665338 0.39388034 0.20632459 0.32337642 -0.39979863

lstm.bias_ih_l0 f4 [80]
00000000: e133 993d a1b2 443e d05c 2cbd 4778 b83d
00000010: 6d2b 483d 743f 94bd 26dc 3e3e 72d1 8e3d
00000020: 4e79 b4bc 20c2 563e ecee 3e3e 22ca dd3e
00000030: a7c8 a23e e01d 873d 889c 743e 9252 e83d
00000040: b696 173e f193 433e e0e9 483e bda9 d23e
00000050: 4dd2 923e d3ac 0e3e 244a d83d 4c44 8b3d
00000060: b811 443e a752 78bb 8e62 653e 3102 8b3e
00000070: 3f25 3e3e a42d 113d 201b f33c 1a64 0c3e
00000080: 0975 2f3d fb21 773c 4d96 f73d 3ae8 7f3e
00000090: a019 7f3e 472a ad3e e2bf e33d 106c 103c
000000a0: 3bda edbc 42f8 a4be 79e5 813e bbbb 993e
000000b0: ebab db3d b844 993e c8ca 9bbe 5f59 94be
000000c0: 3c1a 16be af9a 96be 2252 893e a59e 39bd
000000d0: bd38 683e 989c 843e 7fc3 633c 11b3 34be
000000e0: 609a 943e c439 213d 8713 3a3e 43ca 54be
000000f0: 9c26 0bbe 9530 0e3e e3fa 853e c6f0 90bd
00000100: 910f bdbd 34e3 9b3e 965f 4dbe a398 bb3c
00000110: 44b3 ecbd 78d2 9c3d 35e3 fabd 380b c33d
00000120: f3c8 f43d 1282 d1bd 0f38 34bd 7bff 083e
00000130: bd7e 193e bfa3 f83d 8731 803e 7a9d 263e
0.07480598 0.19208767 -0.0420807 0.09007316 0.04886954 -0.07238665 0.18638667 0.06973542
-0.022030499 0.2097249 0.18645829 0.43318278 0.3179371 0.06597495 0.23887837 0.11343874
0.14803585 0.19099404 0.19620466 0.41145125 0.28676072 0.13933115 0.10561016 0.06800136
0.19147384 -0.0037891062 0.22400877 0.2715011 0.18568896 0.035443917 0.02967602 0.1371006
0.042836223 0.015083785 0.120892145 0.24990931 0.24912119 0.33821318 0.11120583 0.008814827
-0.029034724 -0.32220656 0.25370386 0.3002604 0.1072615 0.2993524 -0.30428147 -0.28974435
-0.14658445 -0.2941489 0.26820475 -0.04531731 0.22677894 0.25900722 0.01390159 -0.17646433
0.2902403 0.03936173 0.18171512 -0.20780282 -0.13588947 0.1388572 0.26167974 -0.07077174
-0.09231485 0.3044678 -0.20055994 0.022899931 -0.1155763 0.07657331 -0.122503676 0.09523624
0.119523905 -0.10229887 -0.043998774 0.13378708 0.14989753 0.12140607 0.25037786 0.1627101

lstm.bias_hh_l0 f4 [80]
00000000: b7e0 7e3d 1edd 983e f64d b63d 9d06 e53e
00000010: 94b2 593e f824 743e 466b 473e 35ba 853e
00000020: fcb7 6dbd 47a7 943e ed91 213e 4435 e03e
00000030: 40a9 833e b1be e83d a4cd db3e 2bb3 0d3e
00000040: 89af ddbd 0bb1 813e 0be7 c53d dbda 583e
00000050: 0155 9b3e bb40 bd3e 71a1 75bc 2a84 b53d
00000060: c640 f53d a883 c53d 7499 b73d 9955 77bd
00000070: 10de 923e e7b1 693e 9152 843d 8b95 303e
00000080: e438 9b3e b1da cc3e 2a58 9f3e ff74 4f3e
00000090: dfce 823e e0b8 c53d 5066 c13e 91b2 b33e
000000a0: d2a4 d1be 4a29 87be f41a 8a3e 0ae9 b03e
000000b0: 5357 723e ed9d 953e 0722 7fbe fb97 b5bd
000000c0: ab3b 813d 9fef e3bd b7fe e73d a614 c3be
000000d0: ef98 a73e 75ab 983d e23c d03e 2f12 a8be
000000e0: b4a9 4b3e c1d7 3f3e 8702 0fbc b2c9 38be
000000f0: 973c b73d 4a58 e43d d924 d03e 44d1 843e
00000100: 93f5 cdbd c580 e03d 0f56 5a3e 5642 453e
00000110: b70e 5a3c 15b9 f53d 1af0 533e 0852 bc3e
00000120: 517c ce3d 6150 143e 35e2 8a3e b8c5 363e
00000130: 2a0e 3d3e 6596 923e f37b ec3d 7875 3cbc
0.062226024 0.298562 0.089015886 0.44731608 0.21259528 0.23842227 0.19474515 0.26118627
-0.05803679 0.29033872 0.15778323 0.43790638 0.25715065 0.113644965 0.4293033 0.13837878
-0.10824496 0.25330386 0.096632086 0.21177237 0.3033829 0.36963448 -0.014992104 0.08863099
0.11975245 0.09644252 0.08964816 -0.060384367 0.28685045 0.2282177 0.06461061 0.17244546
0.30316842 0.40010598 0.3112195 0.20259474 0.25548455 0.09654403 0.3777337 0.35097173
-0.4094606 -0.2639869 0.2697369 0.34552795 0.23666124 0.2922205 -0.24915324 -0.088668786
0.06310209 -0.111296885 0.1132788 -0.3810169 0.32733867 0.07454578 0.4067145 -0.32826373
0.19888955 0.18734647 -0.00872863 -0.1804569 0.089471035 0.11149652 0.40653113 0.25940907
-0.10056605 0.10962061 0.21321891 0.19263586 0.013309172 0.11998192 0.2069706 0.36781335
0.10082305 0.14483787 0.27125707 0.17848861 0.18462434 0.28630367 0.11547079 -0.011502616

add_trend.weight f4 [3, 20]
00000000: 9c07 08bf d805 19bf e67f 96be ca8f b63e
00000010: 7c59 8f3e 49b9 5dbe 26ba 8e3e f48c 99be
00000020: 591e a03f 7a6e 6fbe 4a86 b23d cd41 833e
00000030: 3a5a 933c 9751 b03e 12d2 3a3e 3574 5ebe
00000040: 7ba4 c7bf 848a c63f 956c 0bbf 4052 1b39
00000050: bcb9 93be c3c3 8abe ff12 4a3e 3fce 823e
00000060: 1bb9 943e d65c 113e 723b 87be f78e cebe
00000070: b7c0 a73f 61c5 8fbe 9404 c33e 2f19 b0bc
00000080: 25c8 c83e d798 a43e b918 8f3e e3b0 c1be
00000090: 80f4 aabd 306b 32bf fce2 e13d 8583 aabe
000000a0: e8f3 5fbe 62bf ffbe d81b bd3e 5b6c e33e
000000b0: a9e8 e63e 0a75 d83e d999 61be ebed 8bbe
000000c0: 87a7 67bd 0ec0 d2be bd50 df3e 7146 febe
000000d0: a17b aa3e 6f4c ee3e bf07 973e 0f5c bebe
000000e0: 1d53 8a3d 420a 85bf 5ca8 d93e 2978 b1be
-0.5313661 -0.5977454 -0.29394454 0.35656577 0.2799796 -0.21652712 0.27876395 -0.2999035
1.2509261 -0.23381987 0.0871702 0.2563614 0.01798736 0.34437248 0.18244198 -0.21724017
-1.559707 1.5511022 -0.5446256 0.00014812592 -0.28852642 -0.2710248 0.19733809 0.25547978
0.29047474 0.1419557 -0.2641254 -0.4034345 1.3105687 -0.28080276 0.3808943 -0.021496383
0.39215198 0.32147858 0.2794855 -0.37830266 -0.08347416 -0.69694805 0.11029622 -0.33303466
-0.21870387 -0.499507 0.36935306 0.44418606 0.4509938 0.42276794 -0.22031344 -0.27329955
-0.05655625 -0.4116215 0.43616286 -0.49663118 0.33297446 0.4654269 0.29498097 -0.3717961
0.06754134 -1.0393755 0.4251126 -0.34661987

add_trend.bias f4 [3]
00000000: 971d dfbe 435f a63e 9be7 ce3e
-0.43577263 0.32494554 0.40411076
