real-data-forecast-res/section_0/pretrained_model/9699_pretrained_model.pkl (torch, 10703 bytes, 8 tensors)

init_ar_parameters f4 [18]
0	0x3f8c360b	1.0953993
1	0xbe4f2669	-0.20229496
2	0x3e1c6fdf	0.1527705
3	0xbd77a73a	-0.060462214
4	0xbe2244bb	-0.15846531
5	0xbea2c20d	-0.31788674
6	0x3da261f4	0.07928839
7	0x3da471f1	0.08029545
8	0xbe30625d	-0.17225023
9	0xbe94fa68	-0.29097295
10	0xbd9dd85c	-0.07707283
11	0xbd8bbf9f	-0.06823658
12	0x3f34a56a	0.705649
13	0x3d92f53c	0.07175681
14	0xbdab14a8	-0.08353549
15	0x3e7f2f32	0.24920347
16	0x3c11bf63	0.008895728
17	0xbf1fda5c	-0.62442565

init_redusial_params f4 [6]
0	0xbf2af8ae	-0.66785705
1	0x3c5bed2f	0.013423248
2	0x3f28f769	0.6600252
3	0xbe2027af	-0.15640138
4	0xbd294b7c	-0.041331753
5	0xbedaf33d	-0.427637

lstm.weight_ih_l0 f4 [80, 3]
0	0x3f886cb3	1.0658172
1	0x3fa8d505	1.3190008
2	0x3f7be101	0.98390204
3	0x3dca38e3	0.098741315
4	0x3ee09813	0.43866023
5	0xbd4c8b8d	-0.049937773
6	0x40001864	2.0014887
7	0x404f2024	3.2363367
8	0x4099830e	4.797248
9	0x3ec08afc	0.37606037
10	0x3ed79093	0.4210249
11	0x3f3cdad8	0.7377143
12	0x3f223da9	0.63375336
13	0x3f08be18	0.5341506
14	0x3f0c8b70	0.54900265
15	0x3f1ceaf2	0.61296
16	0x3f474772	0.7784339
17	0x3f726a41	0.9469338
18	0x3f1d76af	0.6150922
19	0x3f01498c	0.5050285
20	0x3e3462c1	0.17615797
21	0x3f5737ce	0.84069526
22	0x3fe9ccb2	1.8265593
23	0x40243378	2.5656414
24	0x3f43364d	0.7625473
25	0x3f9b43ce	1.2130067
26	0x3e8c9be9	0.274627
27	0xbe77ffa4	-0.24218613
28	0xbf812c61	-1.0091668
29	0xbf87b66e	-1.0602548
30	0xbe424295	-0.18970712
31	0x3e8256ad	0.25456753
32	0x3ea47422	0.32119852
33	0x3da28671	0.07935799
34	0xbd81a3bb	-0.06330057
35	0x3d66e02b	0.056366127
36	0x3debff79	0.11523337
37	0xbf7d351d	-0.9890917
38	0xbfba666c	-1.4562507
39	0x3ed9a33b	0.42507347
40	0x3eabadb4	0.33530962
41	0x3e65025d	0.22364183
42	0x3f0e7e64	0.55661607
43	0x3f11ae1e	0.56906307
44	0x3ebce466	0.36893004
45	0x3d47f282	0.048815258
46	0x3de64307	0.11243253
47	0x3e368acc	0.17826384
48	0x3ddcd1aa	0.10782178
49	0x3f1fb372	0.62383187
50	0x3f5d4ba1	0.86443526
51	0xbf0c397d	-0.5477522
52	0xbe9f667d	-0.3113288
53	0x3e2babe6	0.16764793
54	0x3e066840	0.13125706
55	0x3ed088fb	0.40729508
56	0x3df42d68	0.11922723
57	0x3e836922	0.25666147
58	0x3e46f20d	0.19428273
59	0xbd02550c	-0.03181939
60	0x3e64f8fb	0.22360604
61	0x3e7ecfdf	0.24883984
62	0x3e8d3d05	0.27585617
63	0x3e7820d7	0.24231277
64	0x3d4278f4	0.04747863
65	0xbd332afe	-0.043742172
66	0x3fae4179	1.3613731
67	0x401dfc19	2.4685118
68	0x404ee917	3.2329767
69	0x3ef678a1	0.48138908
70	0x3f073fe4	0.52831864
71	0x3f2e5487	0.6809773
72	0x3f11475c	0.5674951
73	0x3e97cee4	0.29650033
74	0x3f31c7d8	0.6944556
75	0x3eaa34f3	0.33243522
76	0x3f299d1d	0.6625536
77	0x3f2bc209	0.6709295
78	0x3ec23684	0.37932217
79	0x3c13c78a	0.009019742
80	0x3e980532	0.29691464
81	0x3fb0d47e	1.3814847
82	0x400e1863	2.2202384
83	0x402f71b1	2.7413142
84	0xbe83983e	-0.2570209
85	0xbe97ca15	-0.29646364
86	0xbe980d25	-0.29697528
87	0xbf1acb4b	-0.6046645
88	0xbf8efef3	-1.1171554
89	0xbfc218a8	-1.5163774
90	0xbe8f3f24	-0.2797786
91	0xbdbcf9d1	-0.09227336
92	0xbd81e90e	-0.0634328
93	0x3e36ace6	0.17839393
94	0x3c8114aa	0.015756924
95	0xbe252374	-0.16126806
96	0xbeab297d	-0.3343009
97	0xbf662ea4	-0.8991492
98	0xbfb253c0	-1.3931808
99	0x3ebf24c6	0.37332743
100	0xbb4ae849	-0.0030961207
101	0xbd962575	-0.07331363
102	0x3eab5949	0.33466557
103	0x3f148033	0.58008116
104	0xbf0a74d5	-0.5408452
105	0x3e1554e8	0.1458317
106	0x3ed3dd91	0.4137998
107	0x3eb14359	0.34621695
108	0x3df210d6	0.118196175
109	0x3f3fa0e0	0.7485485
110	0x3f782c0d	0.96942216
111	0xbf06a51b	-0.5259568
112	0xbe493e9c	-0.1965279
113	0x3f8ec860	1.11549
114	0xbecc1c3d	-0.39865294
115	0xbf2d8c83	-0.6779253
116	0xbdb391dc	-0.08768055
117	0xbd8b9d54	-0.06817117
118	0xbdb1adbb	-0.086757146
119	0x3de7b1a0	0.11313176
120	0x3f8f0aff	1.1175231
121	0x3f90a537	1.130042
122	0x3f9c156b	1.2194036
123	0x3e968b75	0.29403272
124	0x3edd47ee	0.4321894
125	0x3ed26f8e	0.41100734
126	0x3edc2984	0.43000424
127	0x3f2eb0d0	0.68238544
128	0x3effe81c	0.49981773
129	0x3cfd0dd3	0.030890381
130	0xbe3d6cb0	-0.18498492
131	0xbf06f927	-0.52723926
132	0xbe4293e2	-0.19001725
133	0xbf0cda97	-0.5502104
134	0xbef706c7	-0.48247358
135	0xbe9d1c46	-0.30685633
136	0xbf69863d	-0.91220456
137	0xbf985b0b	-1.1902784
138	0x3e379e34	0.17931443
139	0x3f00dd3c	0.50337577
140	0x3de7271d	0.11286757
141	0xbf084a3d	-0.5323828
142	0xbe18c996	-0.14920649
143	0x3f7c8975	0.9864724
144	0xbf468bb2	-0.7755691
145	0xbfa352ee	-1.2759683
146	0xbfc6689b	-1.5500673
147	0xbea24ac1	-0.31697658
148	0xbf768529	-0.96296936
149	0xbfa661b4	-1.2998567
150	0x3eecbac9	0.46236256
151	0x3f1daf52	0.6159564
152	0x3e136f5c	0.14397949
153	0xbd019aa2	-0.03164161
154	0x3dd5d99e	0.10441898
155	0x3bd63df8	0.006538149
156	0xbcbf1189	-0.023323791
157	0x3f278fa8	0.6545358
158	0x3fd58339	1.6680671
159	0xbe720efd	-0.2363853
160	0xbe9982cd	-0.29982606
161	0xbe2d3b77	-0.16917215
162	0x3e87c65b	0.2651852
163	0x3eb0e972	0.34553105
164	0x3ef0f150	0.47059107
165	0x3b322bf2	0.0027186838
166	0x3e885dad	0.2663397
167	0x3ede14f6	0.43375367
168	0xbe58b2bc	-0.21161932
169	0xbea0ae13	-0.31382808
170	0xbe5b67da	-0.21426335
171	0xbf71765d	-0.94321233
172	0xbf1674ec	-0.5877216
173	0xbe554499	-0.20826949
174	0xbf64eec0	-0.89426804
175	0xbf6cd6fe	-0.9251555
176	0xbf65d224	-0.89773774
177	0x3ca4823d	0.020081634
178	0x3def7c25	0.116936006
179	0x3e54ec04	0.20793158
180	0x3e321c00	0.17393494
181	0x3ea8b9f3	0.32954368
182	0xbe37faee	-0.17966816
183	0xbfd15167	-1.6352967
184	0xc0064047	-2.0976732
185	0xc03f9310	-2.993351
186	0xbf51d91a	-0.81971896
187	0xc07813ca	-3.8762078
188	0xc0fb942e	-7.8618383
189	0x3ff06735	1.8781496
190	0x40433499	3.0500853
191	0x40689f7a	3.6347337
192	0x3eebb5f4	0.46037257
193	0x3eb1a023	0.34692487
194	0xbe1ff9a3	-0.15622573
195	0x3ebe8587	0.37211248
196	0x3da561a4	0.08075264
197	0x3cd876eb	0.026423892
198	0xbeb18d53	-0.34678134
199	0xbdb77f80	-0.089598656
200	0xbecd6f2d	-0.40123883
201	0xbf468271	-0.7754279
202	0xc0035d22	-2.0525594
203	0xc0510468	-3.265894
204	0x3e5c0105	0.21484764
205	0x3f832e7c	1.0248561
206	0x3f8e1bf9	1.1102287
207	0x3ff931d5	1.9468333
208	0x401f9ff1	2.494137
209	0x4037356b	2.8626354
210	0xbda9a293	-0.08282962
211	0x3ef0e825	0.47052112
212	0x3f5b607a	0.85694087
213	0x3f9412b4	1.1568208
214	0x3f0d1c02	0.5512086
215	0x3d850b29	0.06496269
216	0x3f8b26ff	1.0871276
217	0x3fea2bb9	1.8294593
218	0x40136103	2.3027961
219	0x3fcba448	1.590951
220	0x3fba322c	1.4546561
221	0x3f57bceb	0.8427264
222	0x3f3ddb92	0.7416316
223	0x3f982a30	1.1887875
224	0x3f9817c4	1.1882253
225	0x3d87c7cd	0.06629906
226	0x3e03fe28	0.12889922
227	0x3dfd084d	0.12355099
228	0x3eda08b3	0.42584762
229	0x3f1ee33a	0.6206547
230	0x3e424117	0.18970142
231	0x3ecba859	0.39776877
232	0x4011dd5c	2.2791357
233	0x40a4606c	5.1367702
234	0x3f2f9486	0.68586004
235	0x3e543b82	0.20725825
236	0x3d525c4f	0.051357564
237	0x3bd87b94	0.0066065285
238	0x3ec5008f	0.3847699
239	0x3eb7166b	0.3575929

lstm.weight_hh_l0 f4 [80, 20]
0	0xbe0cadc6	-0.13738164
1	0xbd0601fc	-0.032716736
2	0xbe93b521	-0.28849128
3	0xbfa3e75b	-1.2804979
4	0xc000a1ef	-2.0098836
5	0xbfd3e226	-1.655339
6	0x3f347274	0.7048714
7	0x3ec8a948	0.3919165
8	0x3ec2440a	0.37942535
9	0xbe3ce3ee	-0.18446323
10	0x3ed2923d	0.41127196
11	0x3fdd0d8a	1.7269757
12	0x3eb97f6e	0.36230034
13	0x3e1850b7	0.1487454
14	0x3dd16138	0.10223621
15	0x3e83c391	0.25735143
16	0xbe2fc7c1	-0.17166044
17	0xbe442a2e	-0.19156715
18	0x3ef0dc10	0.47042894
19	0x3efc4bd7	0.4927661
20	0x3e1a935c	0.15095276
21	0x3ef461ce	0.4773087
22	0x3e9a81b7	0.3017709
23	0xbec9f219	-0.39442518
24	0xbf8ec075	-1.1152483
25	0xbeaeecdb	-0.3416508
26	0x3eaeb751	0.34124234
27	0xbd1c87b5	-0.038215358
28	0x3e2d5f7e	0.16930959
29	0xbc3afdc3	-0.011413041
30	0x3db57a9c	0.088612765
31	0x3f1bb467	0.6082215
32	0xbd66adb7	-0.05631801
33	0xbe0ad9c0	-0.13559628
34	0xbd795270	-0.060869634
35	0x3e9ee21c	0.31031883
36	0xbea8ba0e	-0.32954448
37	0xbe61cd04	-0.22050864
38	0xbdce2cbc	-0.10067126
39	0x3ea3f805	0.3202516
40	0x3e3d6ebc	0.18499273
41	0xbf88863e	-1.0665967
42	0x3ea5d8a7	0.32391855
43	0xc0d77aa7	-6.733722
44	0xbeeb760a	-0.45988494
45	0x3d29ff2f	0.041503128
46	0xbf5b9e19	-0.8578811
47	0xbfd57006	-1.6674812
48	0x3e791a20	0.24326372
49	0xc040339c	-3.00315
50	0xbf3fff91	-0.7499934
51	0xbd229d7c	-0.03970097
52	0xbf15a687	-0.58457226
53	0x3e263b7d	0.1623363
54	0xbd16f82c	-0.03685777
55	0xbf75a168	-0.9594941
56	0x3f79a8a1	0.9752293
57	0xc0038c52	-2.0554395
58	0xc053d16f	-3.3096578
59	0xbe99d5aa	-0.30045825
60	0xbed681b4	-0.4189583
61	0x3e8cdce5	0.2751228
62	0x3eb907fd	0.36138907
63	0x3f1769e1	0.59145933
64	0x3d3b974b	0.04579858
65	0x3dc43a25	0.09581403
66	0x3de69911	0.11259664
67	0x3e8780cb	0.2646545
68	0xbe50852b	-0.203633
69	0xbdc5abb2	-0.09651889
70	0xba57092f	-0.00082029676
71	0xbe2f1f56	-0.17101797
72	0x3dc25064	0.094879895
73	0xbe4ff551	-0.20308425
74	0x3c02f5fb	0.007993217
75	0x3e9d46c5	0.30718055
76	0xbe9ffd18	-0.31247783
77	0xbf0d61b4	-0.5522721
78	0xbe9da8ef	-0.3079295
79	0x3e372994	0.17886955
80	0xbdc9f399	-0.09860916
81	0x3e53ae73	0.20672016
82	0xbd2364b6	-0.039890967
83	0xbf1629d9	-0.58657604
84	0xbf87ddc2	-1.061455
85	0x3da9fa6b	0.082997166
86	0x3e9884c9	0.29788807
87	0xbd3d4862	-0.046211608
88	0x3dbb476a	0.091444805
89	0x3f4537a4	0.77038026
90	0x3f553c37	0.83295006
91	0x3f0b63ef	0.5444936
92	0xbeb6165c	-0.35563934
93	0xbe87d578	-0.2653005
94	0xbe0ef3f3	-0.13960247
95	0x3df56470	0.119820476
96	0xbed69f0d	-0.4191822
97	0xbf85375e	-1.0407522
98	0xbf5b8b4d	-0.8575943
99	0x3f22b045	0.63550216
100	0x3f278998	0.65444326
101	0x3eee3c2a	0.46530277
102	0x3dc0ec33	0.094200514
103	0xbf01cfc7	-0.5070767
104	0xbe80bbb2	-0.251432
105	0xbe9ad251	-0.30238584
106	0x3f1394dc	0.57649016
107	0xbe09c77b	-0.13455002
108	0xbe986608	-0.29765344
109	0xbe11438a	-0.1418592
110	0xbd1e5837	-0.038658347
111	0x3eebfa90	0.46089602
112	0xbde6a938	-0.11262745
113	0xbedbfd30	-0.42966604
114	0xbe147a49	-0.14499773
115	0x3ee18958	0.44050097
116	0x3dc7095c	0.09718582
117	0xbfa02171	-1.2510206
118	0x3e63afef	0.22235082
119	0x3ea72e0c	0.32652318
120	0x3e195cbe	0.14976785
121	0x3f209d42	0.62739956
122	0x3e9c55ac	0.30534112
123	0xbee4ef61	-0.44713882
124	0xbddbedd5	-0.10738722
125	0xbe7d064d	-0.24709435
126	0x3f07c503	0.5303499
127	0x3dbfa3c8	0.09357411
128	0xbefefd03	-0.49802408
129	0xbf04f5fa	-0.5193783
130	0x3f30e5b7	0.6910052
131	0x3e120c91	0.14262606
132	0xbec856c9	-0.39128712
133	0xbf138839	-0.57629734
134	0x3ec6bdf9	0.38816813
135	0x3eeaa52d	0.45829144
136	0xbe9f28d2	-0.3108583
137	0xbe811105	-0.25208297
138	0xbdab2862	-0.08357312
139	0x3e8577d0	0.26067972
140	0x3eb44407	0.3520815
141	0x3e2dc807	0.16970836
142	0xbf97836a	-1.1836979
143	0xc0291c42	-2.6423497
144	0x3d318156	0.043336235
145	0xbe86c8ac	-0.26324975
146	0x3dce1d1c	0.10064146
147	0x400f14b7	2.2356393
148	0xbe026c3d	-0.12736602
149	0x3d669e35	0.05630322
150	0x3ecc267a	0.39873105
151	0x3d3128c9	0.043251786
152	0xbecd3809	-0.40081814
153	0x3e1a1e61	0.15050651
154	0x3ed71495	0.4200789
155	0x3e63bcd8	0.22240007
156	0x3e777fcb	0.24169843
157	0xbfafe513	-1.3741783
158	0xc063bbe6	-3.5583434
159	0x3cfdb95b	0.030972173
160	0xbec3c512	-0.3823629
161	0x3ea12e63	0.31480703
162	0x3d8dbf89	0.06921298
163	0xbf744c95	-0.95429355
164	0xbf0d45ef	-0.55184835
165	0xbeabca35	-0.3355271
166	0x3f410a3c	0.7540624
167	0xbabc9a0d	-0.0014389172
168	0x3de44514	0.11145988
169	0xbea772bf	-0.32704732
170	0x3f0249ee	0.5089406
171	0x3ef1a611	0.4719701
172	0xbeb1a981	-0.34699634
173	0xbf2d74e4	-0.67756486
174	0xbe964540	-0.2934971
175	0x3f238436	0.6387361
176	0xbf5e58e7	-0.86854404
177	0xbef82f22	-0.4847346
178	0x3f4ff2f5	0.812301
179	0x3f357c0a	0.70892394
180	0x3e8d870d	0.27642098
181	0xbf0248ff	-0.50892633
182	0x3f9dafa2	1.2319224
183	0x3f6a3fea	0.91503775
184	0xbe8d6942	-0.27619368
185	0xbdb95a40	-0.09050417
186	0xbe14e13e	-0.14539048
187	0x40b13466	5.5376463
188	0xbd2bf5b4	-0.041982368
189	0x3f0cdb69	0.55022293
190	0x3be53774	0.006995136
191	0x3e7e10bd	0.24811073
192	0xbd070259	-0.032961223
193	0xbd3b8de7	-0.045789625
194	0xbd4500e0	-0.048096538
195	0xbd8fc1c6	-0.07019381
196	0xbeaf501f	-0.34240815
197	0x3ff41b5b	1.9070848
198	0x3eb663eb	0.35623106
199	0x3e872561	0.26395705
200	0xbe3a3e3e	-0.18187806
201	0x3f0b142c	0.54327655
202	0x3eaf9377	0.34292194
203	0x3f8704d2	1.0548346
204	0x3cd36c31	0.025808426
205	0x3e084e33	0.1331108
206	0x3ef551c6	0.4791395
207	0xbb2de2f3	-0.0026532977
208	0xbe883b33	-0.26607665
209	0x3eb33c14	0.35006773
210	0x3d8c0507	0.068368964
211	0xbdc5669e	-0.09638713
212	0xbeb53aba	-0.35396367
213	0xbe8ef525	-0.27921405
214	0x3e5dd9e5	0.21665151
215	0x3f205591	0.62630564
216	0xbf30c360	-0.6904812
217	0xbeb26e40	-0.3484974
218	0xbfce9b05	-1.6141058
219	0x3f25db50	0.6478777
220	0xbe0aeb66	-0.1356636
221	0x3f1f395f	0.62196916
222	0x3efd021a	0.49415666
223	0xbed85d15	-0.42258516
224	0xbdb867f6	-0.09004204
225	0xbd88c878	-0.066788614
226	0x3f1ff3f9	0.6248165
227	0xbe03008e	-0.1279318
228	0xbe88911d	-0.26673213
229	0xbf5ae602	-0.85507214
230	0x3f182641	0.5943337
231	0x3eb67ceb	0.3564218
232	0xbee75758	-0.45183825
233	0xbf1fc648	-0.6241193
234	0x3e941cc5	0.289282
235	0x3f109e19	0.5649124
236	0xbf3e7210	-0.74392796
237	0xbe839105	-0.2569658
238	0x3f0720c1	0.52784353
239	0x3ed02f31	0.40661004
240	0xbdf7f4d5	-0.12107245
241	0x3e3fee91	0.1874335
242	0x3f901008	1.1254892
243	0x3dcc3fbe	0.09973095
244	0x3eb2a5f9	0.34892252
245	0xbd81ef81	-0.0634451
246	0xbd1a11d6	-0.037614666
247	0x3f36566c	0.7122562
248	0xbd83ff0c	-0.06445131
249	0x3e943cb9	0.28952578
250	0x3efe94b6	0.49722832
251	0x3ded51d0	0.1158787
252	0xbeb5cfd8	-0.35510135
253	0x3ee8f1da	0.45497018
254	0x3efe77a1	0.49700645
255	0x3ddb3ed9	0.107053466

lstm.bias_ih_l0 f4 [80]
0	0x3e92a3f7	0.2864072
1	0x3ddee9bb	0.10884424
2	0x3ec75a31	0.38935998
3	0x3ef3e680	0.47636795
4	0x3e4ffee6	0.2031208
5	0x3e8fcfb8	0.28088164
6	0x3e69f9f5	0.22849257
7	0x3ec9b8e0	0.3939886
8	0x3f8bfeac	1.0937095
9	0x3f01c8e4	0.5069716
10	0x3e7123fd	0.23548885
11	0x3f37317f	0.715599
12	0x3e17fb37	0.14841925
13	0x3f0f6a6b	0.56021756
14	0xbda87125	-0.082247056
15	0xbde56f83	-0.1120291
16	0xbdccb14a	-0.09994753
17	0x3df4d9f0	0.11955631
18	0x3f3bca0d	0.7335518
19	0x3eae45ad	0.34037533
20	0x3b5749a2	0.0032850285
21	0x3e61ac20	0.22038317
22	0x3ed27756	0.4110667
23	0xbe826b3b	-0.25472435
24	0x3e079d95	0.13243707
25	0x3e587eb6	0.21142086
26	0x3f013bc5	0.50481826
27	0xbe1fd792	-0.15609577
28	0x3e2a63e5	0.16639669
29	0xbde23aec	-0.11046395
30	0x3dd3355f	0.10312914
31	0x3ea030f9	0.31287363
32	0x3ebdc9d4	0.37068045
33	0x3ea5f78e	0.32415432
34	0x3ee8f5c4	0.45500004
35	0xbc3085f6	-0.010774126
36	0xbdc66674	-0.0968751
37	0x3dc400c2	0.09570457
38	0x3e3eb393	0.1862319
39	0x3d7a0cd2	0.061047383
40	0xbe41809d	-0.18896718
41	0x3ea51fc8	0.3225081
42	0x3f53cec0	0.8273735
43	0x3e933217	0.28749153
44	0x3e879daf	0.2648749
45	0x3e095e19	0.13414802
46	0x3e26b359	0.16279353
47	0xbd9f3357	-0.07773464
48	0xbf0db106	-0.5534824
49	0xbe83d991	-0.25751927
50	0x3eb1da38	0.347368
51	0xbe7903d5	-0.24317868
52	0xbe862f26	-0.26207846
53	0xbf28a992	-0.65883744
54	0x3d2ff750	0.042960465
55	0x3eb3f569	0.3514817
56	0xbee4af8e	-0.44665188
57	0x3dac0047	0.083984904
58	0x3e204009	0.15649427
59	0x3e85601a	0.26049882
60	0x3efbcae9	0.49178246
61	0xbe66e15b	-0.22546904
62	0x3ee0ebdd	0.4392995
63	0xbec3c322	-0.38234812
64	0x3f34af51	0.7058001
65	0x3eb8ceaa	0.36095172
66	0xbe35d752	-0.1775792
67	0x3e4a4025	0.19751032
68	0xbda29d61	-0.07940174
69	0xbf18401e	-0.59472835
70	0x3e624e23	0.2210012
71	0x3ee55149	0.44788578
72	0xbe4cc17a	-0.1999568
73	0xbe74ccef	-0.23906301
74	0xbe8332a8	-0.25624585
75	0x3c965af3	0.018353915
76	0x3c79e6d3	0.015252787
77	0xbbfd5c6f	-0.007731966
78	0x3efb5a53	0.4909235
79	0xbd69cc84	-0.057079807

lstm.bias_hh_l0 f4 [80]
0	0xbd1fdfd7	-0.03903183
1	0x3e942093	0.28931102
2	0x3f3682a8	0.71293116
3	0x3f280f7c	0.6564863
4	0x3ee40cdd	0.44541064
5	0x3f025c93	0.5092251
6	0x3dbd5307	0.09244352
7	0x3ecb8886	0.39752597
8	0x3f9f25f7	1.2433461
9	0x3f3340c2	0.7002069
10	0x3d8abe11	0.067745335
11	0x3ec85beb	0.39132628
12	0x3e7add0b	0.24498384
13	0x3efa6305	0.4890367
14	0x3e5df9e9	0.21677364
15	0x3e1e66be	0.1546888
16	0xbe9051a7	-0.28187296
17	0xbe674365	-0.22584303
18	0x3f1f281e	0.6217059
19	0x3e28b3e8	0.16474879
20	0x3db901a0	0.09033513
21	0x3bf7f4e0	0.007567033
22	0x3e7585d7	0.23976837
23	0xbef51e7b	-0.47874817
24	0x3e096ac0	0.13419628
25	0x3d94f5ca	0.07273443
26	0x3f1f6452	0.6226245
27	0x3e8333c0	0.2562542
28	0x3e053f08	0.13012326
29	0x3dc4c020	0.096069574
30	0x3e6e5f5d	0.23278566
31	0x3ead36dd	0.3383092
32	0x3f0f2ec6	0.55930746
33	0x3e271b51	0.16319014
34	0x3e193bfe	0.14964291
35	0x3e062d78	0.13103282
36	0x3cd824ba	0.0263847
37	0x3e815f71	0.2526813
38	0x3de7f25d	0.11325524
39	0x3e848f30	0.25890493
40	0xbe5adcb1	-0.2137325
41	0x3ead0779	0.33794764
42	0x3f43060d	0.7618111
43	0x3e710cfd	0.23540111
44	0x3e01ca64	0.12674862
45	0x3e89e5f5	0.26933256
46	0x3d00c406	0.031436943
47	0xbe4ed3c0	-0.20197964
48	0xbf3018db	-0.68787926
49	0xbd7f06ba	-0.062262274
50	0x3e8dd523	0.27701673
51	0xbe379267	-0.17926942
52	0xbebf9c7a	-0.3742407
53	0xbec8c124	-0.39209855
54	0x3df9cee0	0.121976614
55	0x3e83366e	0.25627464
56	0xbe6555d0	-0.22396016
57	0xbd17ed76	-0.037091695
58	0x3e37a033	0.17932205
59	0x3e6846ec	0.22683305
60	0x3ee60b9c	0.44930732
61	0xbe93ee0a	-0.28892547
62	0x3efe9885	0.49725738
63	0xbd88d76f	-0.06681716
64	0x3f13eefe	0.5778655
65	0x3ed7fa0c	0.42182958
66	0xbde28704	-0.110609084
67	0xbcd0bc3d	-0.025480384
68	0xbdc68dbe	-0.09695004
69	0xbf1755c5	-0.5911525
70	0x3e4c4e14	0.1995166
71	0x3ea465fc	0.32109058
72	0xbe56baad	-0.20969649
73	0xbe915ae1	-0.28389648
74	0xbdbc1649	-0.09183938
75	0xbdd5170b	-0.10404786
76	0xbe22f399	-0.15913238
77	0x3e99f68d	0.30070916
78	0x3ea2cfed	0.3179926
79	0xbdd7c49d	-0.10535548

add_trend.weight f4 [3, 20]
0	0xbfe9a80c	-1.8254409
1	0xbf128112	-0.57228196
2	0x400cd479	2.2004683
3	0x4018f055	2.3896687
4	0x3f358671	0.70908266
5	0x3ed1125b	0.40834317
6	0x3f09df4d	0.53856355
7	0xc02fff8b	-2.749972
8	0xc005a79c	-2.088355
9	0x4078eeb2	3.8895688
10	0xbfe7f4cf	-1.8121585
11	0xbe809d91	-0.25120214
12	0xbf75eeca	-0.9606749
13	0xbf59894a	-0.8497511
14	0xbf33f758	-0.7029929
15	0x3fc7e3b3	1.5616363
16	0xbf8800c7	-1.0625237
17	0xc0c6b70f	-6.209846
18	0x3f218e12	0.6310741
19	0x3e0a2bb1	0.1349323
20	0x3eb4d577	0.3531911
21	0x403d66b3	2.9593933
22	0x3fadd52d	1.3580681
23	0x3ff0d553	1.8815101
24	0x3e8912e2	0.2677222
25	0xbe6e2443	-0.2325602
26	0x3f00249f	0.5005588
27	0x4017f08f	2.3740575
28	0xbeb5330e	-0.35390514
29	0x409558e2	4.6671
30	0x3f9298e3	1.1452907
31	0xbf2415dc	-0.64095855
32	0xbe84b817	-0.259217
33	0xbed4cd6e	-0.4156298
34	0x3f2b3422	0.66876423
35	0x3f858163	1.0430111
36	0xc051b980	-3.276947
37	0x3f3e8176	0.7441629
38	0x3f872952	1.0559485
39	0xbf698088	-0.9121175
40	0xbb258761	-0.0025257694
41	0xbf0130a3	-0.5046484
42	0x4090807f	4.5156856
43	0xbd8ad41e	-0.067787394
44	0xbfc34fb8	-1.5258703
45	0xbfcc062d	-1.5939385
46	0x3f4ad17f	0.79225916
47	0x408cfefc	4.406126
48	0xbf03ef7d	-0.51537305
49	0x40788622	3.8831868
50	0x3e332001	0.17492677
51	0x3fbfdd94	1.4989495
52	0x3ff44a77	1.9085225
53	0xbe9a2816	-0.30108708
54	0x3e19f571	0.15035035
55	0x3ec73016	0.38903874
56	0x3f0114fe	0.50422657
57	0x4083dda2	4.120805
58	0xc014e414	-2.3264208
59	0x3f905555	1.1276041

add_trend.bias f4 [3]
0	0xbe4b8fb0	-0.19879031
1	0xbe1d98e8	-0.1539036
2	0x3f8e02ef	1.1094645
