forecast-res/section_7/pretrained_model/49_pretrained_model.pkl (torch, 10703 bytes, 8 tensors)

init_ar_parameters f4 [18]
00000000: c9f5 9d3e a53a d5bc 5759 d8be a906 2cbf
00000010: 34ef 203f 6cc3 113f e82c 46bf ae53 a4bf
00000020: ab1e c43f 265f 09c0 08e5 503e 9930 d7bf
00000030: 5f2f 4cbf e200 1dbf 7266 953e e72b 183f
00000040: 8026 583f 34bb 4b3d
0.30851582 -0.02602894 -0.4225566 -0.6719766 0.62864995 0.56938815 -0.7741227 -1.2838037
1.5321859 -2.1464324 0.20399868 -1.6811706 -0.7975978 -0.6132947 0.29179722 0.5944199
0.84433746 0.049739078

init_residual_params f4 [6]
00000000: 8561 ddbf 2158 b0bf eabb 0840 b949 12bf
00000010: e5e4 bdbf 8975 06c0
-1.7295386 -1.3776895 2.1364694 -0.5714374 -1.4835478 -2.1009238

lstm.weight_ih_l0 f4 [80, 3]
00000000: 6f80 743e a8fe f63c 4bc5 14bc 9868 713e
00000010: e588 b13e 1ec4 bc3d d0c6 5d3d fad0 d53d
00000020: d27f 463e 8945 3ebc 4419 15bc 861e 213e
00000030: 6bc3 f7bb 7e35 493c 06ac 103e d493 c83d
00000040: 13f9 9d3e 8f5b fc3d 6b7e 873c bc02 50bd
00000050: cb9f 8e3e 1e50 05bd f9b3 0a3e 1a72 02be
00000060: e86d f5bb 46be 8e3d bf12 9e3e ef70 183e
00000070: ef38 af3e 84ff 81bb 6800 5f3c a2e5 2c38
00000080: 8b7e 8f3e edeb d13d 8cca 6abd f3df d83d
00000090: bb39 353d 44db 72bb 501c 723c e45b 033e
000000a0: 7d9a 9f3e 5f59 4a3e 322a 0a3e 3479 7f3e
000000b0: 78aa 1f3d a08d 753e 6274 ee3d d972 f3bd
000000c0: af0e f03c f060 fe3c 3f2f 4abe 070b 9dbe
000000d0: 286f 8bbe 2c5d 993d d90f 7a3e b6da 1b3e
000000e0: add2 6c3e 4439 8b3e 8dac 8d3e 9409 5a3e
000000f0: 67a2 913e a2c1 053d 3060 1a3c 0b47 5d3e
00000100: dfde 813e 40b4 813e 5a32 bf3e 8121 5e3e
00000110: cce3 883e d2c8 953e 9b69 103e 77a2 2f3a
00000120: dab0 c43e 8436 263e 8734 593d a816 273e
00000130: 362a 843e 8065 1c3e 2120 71bd b445 f0bc
00000140: b06a 993d 0c42 703d f81b aa3d 0820 fb3d
00000150: ccea 163d 8d51 30bd 058c 993d c9af 9e3e
00000160: dac8 9c3e 2b50 7b3e 685e c43e 117b 9c3e
00000170: d093 6a3e 59d7 8c3d 8aab 963e bdcb 493c
00000180: f0b1 d93e 1f16 8c3e 51e7 b83e 177d cd3e
00000190: 497f 1a3e 41d8 143d bc7e 903e f889 9f3e
000001a0: 9685 783d 71b0 02bd a929 ee3c fdd7 15bc
000001b0: fb39 29be bbdb 8dbc ea2f 40be 441b 8ebe
000001c0: e85d a6be 4114 b9bd cd76 6b3e c1f8 1f3e
000001d0: 2315 b43e a1ba 1f3e b8ae c93c 5a5a 523d
000001e0: 2594 16be 0649 ae3d a0c5 1fbe c0ed db3c
000001f0: e214 1fbc bfbe a4bc 2a2c b83e 1d9e 3f3e
00000200: d484 f73d e716 fd3d 0bb1 853e e5f0 1d3d
00000210: cd24 cb3e eb0f 873e 8ba4 bc3e 38a5 bb3e
00000220: fec9 723e 8232 073d eb80 19be e00e 01be
00000230: 8ad0 a3be 319c 7fbc f5a7 4dbb 0fa8 b4be
00000240: ce93 92be c717 9a3d ca88 40be ca9d bfbe
00000250: f67a 5cbe 421d f4bd a6e9 703e bc60 df3d
00000260: f8a8 0b3e 288c 70be 47ea a5be 8787 513d
00000270: 43db fcbc 7d88 813e 7c88 173e 4958 7c3e
00000280: 1bab cc3d fc0a 933c 9047 793e 249f a53e
00000290: e9f7 333e ae03 57be 688a 363b 0228 ef3d
000002a0: 80b6 de3d 03d5 a63d 1c5b 163d 7c8e a9bd
000002b0: 1622 b0bd 75d6 21be c9b2 a13e 3a69 383e
000002c0: 916d 913e ca68 90be 2508 bebe 1f7f d3bd
000002d0: 99c7 9e3d 1da1 7b3d 0f90 943c 3bb2 1f3e
000002e0: 227b 6b3d 5f8e 553e d5ba 893e 3c25 0e3e
000002f0: f56c 2b3e 34b9 3c3e cdb1 ea3e ee1a 8d3e
00000300: a23e a53e 5ff4 8c3e 8839 773e 9d15 2a3d
00000310: 254f d43e 2a5f b63e dd98 853e 0540 a63e
00000320: 07c6 9e3e 72ae 133e 8941 733e 9c5c c33c
00000330: 00b3 d63d 4e3a 983e 7543 123e 76bd cd3e
00000340: 1cdd b13e 7f8f 8f3e ff9e b93d b928 c13e
00000350: 6984 d83e 3163 683e a835 013e e112 f63d
00000360: 9e75 3d3e 2867 a43e 08da 923e 932b a93e
00000370: cee5 d33e 5933 923d f56c db3e b9fc dd3e
00000380: 1e78 863e b27d 8b3e afdc 993e 0e5a 57bc
00000390: a144 86be 1c28 4c3c 2e41 91be 18c6 57be
000003a0: 2cf7 8dbd 2955 2dbe 6c61 c23e dd69 5d3e
000003b0: c880 f33e 3052 833e 1731 7d3e 9d6c d13e
0.23877119 0.030150726 -0.009080241 0.23575056 0.34674755 0.09217094 0.05414468 0.1044025
0.19384697 -0.011613258 -0.009100262 0.157343 -0.0075611374 0.01228082 0.14128122 0.09793821
0.3085409 0.12322151 0.016539773 -0.050783858 0.27856287 -0.03254711 0.13545217 -0.12738839
-0.0074899085 0.069698855 0.30873677 0.14886831 0.34223124 -0.0039672274 0.013610937 4.1221858e-05
0.28026232 0.102500774 -0.05732207 0.1058959 0.04424451 -0.0037056962 0.014777258 0.12828022
0.31172553 0.19760655 0.13492659 0.24948579 0.03898093 0.23979807 0.11643292 -0.1188714
0.029303877 0.031052083 -0.19744585 -0.30672476 -0.27233243 0.07488474 0.24420108 0.1522015
0.23127241 0.27192128 0.27670708 0.21292716 0.28444216 0.032655366 0.009422347 0.21609132
0.2536535 0.25332832 0.37343103 0.21692468 0.26736295 0.29254776 0.14102785 0.00066999294
0.38416177 0.16231734 0.05302861 0.16317236 0.25813454 0.15273094 -0.05886853 -0.029330112
0.07491052 0.058656737 0.08306116 0.12261969 0.036845013 -0.043046523 0.0749741 0.30993488
0.30621988 0.245423 0.38353276 0.30562642 0.22907948 0.06877012 0.2942775 0.012316641
0.42518568 0.27360627 0.3611398 0.40134498 0.15087618 0.03633905 0.2822169 0.3115995
0.060674272 -0.03190655 0.0290726 -0.009145734 -0.16526024 -0.01731669 -0.18768278 -0.27755177
-0.3249352 -0.09037066 0.22994538 0.15622236 0.35172376 0.15598537 0.024619445 0.051355697
-0.1470495 0.08510022 -0.15602732 0.026846766 -0.009709569 -0.020110486 0.35971195 0.18712659
0.12085882 0.12357884 0.26111636 0.038559813 0.39676514 0.26379332 0.36844286 0.3664949
0.23709866 0.033007152 -0.14990585 -0.1260333 -0.3199504 -0.015601204 -0.0031380628 -0.3528447
-0.2862839 0.075240664 -0.18802181 -0.3742507 -0.21531281 -0.11919643 0.2352663 0.109071225
0.13638675 -0.23490965 -0.32405302 0.05115464 -0.03086627 0.25299445 0.14798158 0.24643053
0.09993573 0.017949574 0.24343705 0.32347977 0.17575039 -0.20997497 0.0027853493 0.11677553
0.10874653 0.081460975 0.036707982 -0.0827913 -0.086002514 -0.15804465 0.31581715 0.18008891
0.28403905 -0.28204948 -0.3711559 -0.10326981 0.07752914 0.061432946 0.018135099 0.15595333
0.057490475 0.20855092 0.26900354 0.13881391 0.16740783 0.18430024 0.45838776 0.27559608
0.32274348 0.2753019 0.2414304 0.04152452 0.41466632 0.3561948 0.26093188 0.32470718
0.31010458 0.14422014 0.23755468 0.02384787 0.1048336 0.29731983 0.14283545 0.4018361
0.34739006 0.28039166 0.09063529 0.3772638 0.4228852 0.22694089 0.12618124 0.120153196
0.18501899 0.32109952 0.2868197 0.33041057 0.41386265 0.071387 0.42856565 0.43356875
0.26263517 0.27244335 0.3005118 -0.013144029 -0.26224235 0.012460735 -0.2837004 -0.2107166
-0.0693191 -0.16927017 0.37964952 0.21622415 0.4755919 0.25648642 0.24725758 0.40903178

lstm.weight_hh_l0 f4 [80, 20]
00000000: 36b7 9cbd 9142 c8be 2a5f 2a3e d116 ba3e
00000010: ff80 863d efd0 a03e 5ff0 bcbe f333 d93b
00000020: 835e f63d 9ee8 da3c 1f92 b53e 39a8 a3bd
00000030: 962a a63d db79 a03e b00e 423e d618 18be
00000040: bd6c 173c 7a6b 1e3e a615 403e 1f8f 68be
00000050: d617 96be 74ae 8e3a a5ae 903e 4e55 a93e
00000060: 6ae9 ab3e ba26 c13e aef6 88bd 8af8 4ebd
00000070: 45ee bc3d 57b3 abbe d74c 813e 8d05 9ebe
00000080: 4393 113c b0bb c1bc b818 53bd a7f8 93bd
00000090: b169 1b3b 1558 a93d 1fba 913e 65c7 d9bd
000000a0: 8b65 4cbe bf8f 1dbe a866 103e 6d71 3d3e
000000b0: 2fef a63e b28a be3e 8a81 8c3b f389 bfbd
000000c0: d609 e3bd ded5 a1be c85c ad3e f7ed 7ebe
000000d0: cf33 80bc c7c7 223e 2719 8ebc 9f87 bc3c
000000e0: a0ee 30bd 0021 24be f85e 2d3b 957e 11bc
000000f0: fd84 683d 6c33 973c 3aa5 793e 16a4 c23e
00000100: 4ac5 5c3e 2234 7d3d cdc2 cdbe 9ab8 ecbd
00000110: aed4 0a3e 8e03 2cbd f3a9 b73e e03a b2be
00000120: 8a27 843d 366e 433d 3878 9d3d f1aa 31be
00000130: b7b4 fa3b a297 e43d d8ec ba3d a8f4 1ebe
00000140: 358d 34be 2c2b a8be 5f2d ac3e 6c0e 02bd
00000150: bd6c 293d 0d33 6b3e 8567 1cbe 2fc8 18be
00000160: aabc 4ebe 54e0 c2bc 2cbd 8f3e 5da4 80be
00000170: bf9d 9e3c 080c c13e ef92 19bc 672f b2be
00000180: 4d1c 12be a034 1b3e 74f9 6c38 ab36 213c
00000190: 564d 5ebe c951 bbbd fc68 253e fe2f c33d
000001a0: 41d4 d23a 5ea6 f93d 16d1 8fbe b8c0 5bbe
000001b0: 6b7f 6e3c f2f1 1ebe 81ec 203c f5cf adbe
000001c0: 53a6 d53d a8d2 d539 eb1e 3a3e 536d 21be
000001d0: 5150 52be f93e 0fbe 0c69 82bb 967c bebc
000001e0: 3226 3ebe 5e18 44be 44ae 873e 301c 153e
000001f0: fc76 093d 9ffe 8e3e f704 483d 322a acbe
00000200: 7574 40be e6ac 98be 8ac3 953d 510d a6be
00000210: 002e 933e c726 c43e c0b2 063d d9cb 83be
00000220: c6a8 4abe 54b0 be3c 1d5d df3d 3143 3fbe
00000230: 961c 26be fa86 a3be 3c31 9d3e 4a14 9a3e
00000240: 8947 0dbc 549a f53d 8115 863b a2d5 eb3b
00000250: 866d 90be 86b2 56be a88e e83d 4941 fabd
00000260: e23b 6d3e d0db 823d 5bc6 e53c 3f80 6c3d
00000270: f50e 1abe d58c a9be 757f 5d3e 2d85 8bbe
00000280: d5e6 9ebe 5bea 8dbe dbdb 0e3e 041a 893e
00000290: bb7b 263e e43b 7c3c 4e82 89bd 5762 2ebe
000002a0: 3777 acbe e24c 2f3c 94dd e43d 9234 81be
000002b0: 7283 b33d dad0 353e cfbb 473e a64e a1be
000002c0: 0580 84be a125 77be 1f69 bc3e b5b3 bb3c
000002d0: f54d 0dbd 13ae 96be 7709 a03e 93e3 7a3e
000002e0: 9889 943e 6340 823d ae96 b0bd 4335 12be
000002f0: cf1e 58bb d510 33be bdee c33e 9d62 3ebe
00000300: 5396 503c 1e87 8e3e 9b2e 483e 832c 7fba
00000310: 69d3 f13c d2fe a6bd 0295 ed3d 8da4 773b
00000320: 2a35 b4be ccd6 bbbd 49ca 973d c360 523e
00000330: 333c 673d 91be df3d 5499 12be 8269 3bbe
00000340: 2839 90be e286 8abe be97 453e b4f6 a0be
00000350: cf4a 103d 0a64 5a3e 0b05 0a3e c7bd 45be
00000360: e5dd 93bc f657 2c3e a74d 9f3e c4ca 4abd
00000370: 1f2a 8abe dbbd b0be 3ccf a73e bfc4 4c3e
00000380: a168 4c3e 29c2 263e 2303 5d3d 7bfa 12be
00000390: 5179 7fbe 3fff 6dbe 90a0 963e f96e 81be
000003a0: 9630 ba3e b04a a23e ae92 54bd 7334 8dbd
000003b0: e7f0 67bd 8ced c23d efc2 1b3c c011 11be
000003c0: 1eac 2c3d a663 f83c 1bbc 8e3d 4262 943e
000003d0: 047d 9b3e 7b6e 0f3e 8ebb 6abe 74ff 67be
000003e0: 6134 a7bd e4b3 c43c e40b 7a3e 4e67 21be
000003f0: dc1d b63e 6d15 2e3e de54 933e e887 b4be
-0.07652132 -0.39113286 0.16637865 0.36345533 0.06567573 0.31409404 -0.3690214 0.0066285073
0.120297454 0.026722249 0.35463044 -0.0799107 0.081135914 0.31342968 0.18950915 -0.14853224
0.009242234 0.15470687 0.18758258 -0.22710846 -0.2931506 0.0010885731 0.28258243 0.33072895
0.33576518 0.3772486 -0.066876754 -0.050529994 0.09225134 -0.33535263 0.25253937 -0.3086361
0.008885208 -0.023649067 -0.051537246 -0.07225161 0.002371412 0.082687534 0.28462312 -0.106337346
-0.1996061 -0.15386866 0.1410166 0.185003 0.32604358 0.3721519 0.004287903 -0.093524836
-0.110858604 -0.3160848 0.3385985 -0.24895464 -0.015649704 0.15896522 -0.017345978 0.023013888
-0.04319632 -0.16028214 0.002645431 -0.008880277 0.056767453 0.018457137 0.24379435 0.38015813
0.21559635 0.061817296 -0.40187684 -0.115586475 0.13557693 -0.041995578 0.35871848 -0.34810543
0.06452854 0.047712527 0.076889455 -0.17350365 0.0076509374 0.11161734 0.091272056 -0.15523016
-0.17631991 -0.32845438 0.33628365 -0.031752035 0.041363467 0.22968693 -0.15273865 -0.14920114
-0.20189157 -0.023788609 0.28074014 -0.251254 0.019362329 0.37704492 -0.009373411 -0.3480179
-0.14268608 0.15156794 5.6499106e-05 0.009839694 -0.21709189 -0.09146459 0.1615333 0.09530638
0.0016084985 0.12189935 -0.28089207 -0.21460235 0.014556746 -0.15521982 0.009822012 -0.3394772
0.104321145 0.00040783477 0.18175857 -0.1576436 -0.20538451 -0.13988866 -0.0039798077 -0.023252767
-0.18569258 -0.1914992 0.26500142 0.14561534 0.033560738 0.27928635 0.04883286 -0.33625942
-0.18794425 -0.2981941 0.07312687 -0.32432035 0.28746033 0.38310835 0.032885313 -0.2574146
-0.19790944 0.02327744 0.10906432 -0.18677975 -0.16221842 -0.31938916 0.30701625 0.30093604
-0.008623012 0.119923264 0.004091919 0.007197098 -0.2820856 -0.20966539 0.113553345 -0.122194834
0.23167375 0.06389582 0.028048685 0.057739493 -0.15044768 -0.3311526 0.21630652 -0.27250043
-0.31035486 -0.27717862 0.13951056 0.2677766 0.16258137 0.015395138 -0.06714307 -0.17029701
-0.33684704 0.010699483 0.11175075 -0.2523542 0.087653056 0.17755452 0.19505237 -0.31505316
-0.2587892 -0.24135448 0.3679895 0.02291284 -0.034498174 -0.29429683 0.3125722 0.24500875
0.29011226 0.06359937 -0.0862249 -0.1427813 -0.0032977348 -0.1748689 0.3826808 -0.18592305
0.012731153 0.2783746 0.19549029 -0.0009734111 0.029519754 -0.08154072 0.116006866 0.003778729
-0.3519681 -0.09171829 0.0741163 0.20544724 0.056453895 0.109250195 -0.14316303 -0.18301967
-0.28168607 -0.27056032 0.19296166 -0.3143822 0.035227593 0.21327224 0.13478486 -0.19310676
-0.018050143 0.1683043 0.31113932 -0.04950978 -0.2698526 -0.34519848 0.32775295 0.19996928
0.19961788 0.16285004 0.05395807 -0.14353363 -0.24948622 -0.232419 0.29419374 -0.25279978
0.36365193 0.31697607 -0.051897697 -0.068947695 -0.056626227 0.09517965 0.009506925 -0.14166927
0.04215633 0.030320954 0.06969472 0.28981215 0.30368817 0.14006989 -0.22923109 -0.22656041
-0.08164287 0.02401156 0.24418598 -0.15762064 0.35569656 0.17000361 0.28775686 -0.35259938

lstm.bias_ih_l0 f4 [80]
00000000: e5d0 b23c cc7d 613e 7be2 c2ba 5335 2f3d
00000010: 0b1c 803d 5ec6 36bd 3e20 783e e7f7 613c
00000020: 2e0c 743c 4876 133e 5bfd 4d3e 5337 bc3e
00000030: 5190 883e 4261 cc3c 54f5 393e 51c9 4a3d
00000040: 0aee ecbd 43c3 3dbe 7e27 413e ba64 bb3e
00000050: 3c75 7d3e 029b 153e 4953 063e 5917 023d
00000060: 3992 4f3e c8f1 0a3c 20d8 813e a603 673e
00000070: 3c52 293e 3f08 01bc 08c5 633d 020c c93d
00000080: f2d6 943a e1fa b3bc 2af4 ac3d 13df 723e
00000090: d798 e53c 7ced 403c ba25 e63d 0c27 8dbc
000000a0: 1754 ba3c b1ea a9be cd7a 943e eaff 803e
000000b0: 95d9 f33d 3ab2 a33e f156 a4be 8bf2 76be
000000c0: 45f8 34be f59b 78be 2c99 8d3e 9177 663c
000000d0: 75cc 383e 0444 613e d5e5 39bd e8de febd
000000e0: 4990 513e 71aa 23bc 49db 333e e426 2abe
000000f0: fbf9 713d 0bea 9a3e 3e35 873e 236b 683d
00000100: 2100 493d 66e2 a73e 125d 60bd 4d58 193e
00000110: 9216 1a3e 5e15 483e 4624 383d 61bc a53d
00000120: 6036 473e a06d 8a3d f74d de3d bbe3 8d3e
00000130: a84a 9ebe f8f7 9bbd 5aa5 e23e 4a23 973e
0.021828124 0.22020644 -0.0014868522 0.042775463 0.06255349 -0.04462277 0.2423105 0.013792015
0.014895482 0.1440059 0.20116179 0.3676096 0.26672605 0.02494872 0.18159992 0.049508397
-0.1156884 -0.18531518 0.18862721 0.36600286 0.24751753 0.14609912 0.13117708 0.031760547
0.20270623 0.008480497 0.25360203 0.22559986 0.16535276 -0.007875501 0.055607826 0.098167434
0.0011355563 -0.021970214 0.08445008 0.23717909 0.028026981 0.011775371 0.112376645 -0.017230533
0.022745175 -0.33186868 0.2899994 0.25195247 0.11906735 0.31971914 -0.3209758 -0.2411596
-0.17672832 -0.24278243 0.27655923 0.014066593 0.18046744 0.21998602 -0.0453852 -0.1244486
0.20465197 -0.009989367 0.1756412 -0.16616398 0.05907629 0.30256686 0.26407808 0.0567428
0.04907239 0.32789916 -0.05477626 0.1497509 0.15047672 0.19539401 0.044956468 0.08092571
0.19454336 0.067591906 0.10854714 0.27712807 -0.30916333 -0.07615656 0.44266778 0.2951911

lstm.bias_hh_l0 f4 [80]
00000000: d685 173c b542 a73e 6ab8 043e 4dcf cc3e
00000010: c4b5 673e 8849 883e b057 803e 2e2b 523e
00000020: 7ff0 acbc bd02 663e 5ca0 303e 76a2 be3e
00000030: cfe1 523e 24b9 943d 067a be3e 7478 983d
00000040: cd72 bebe 32ea fbbd 5462 b63d b650 2a3e
00000050: 513d 873e ceb7 c03e b441 2d3c 0e97 563d
00000060: e320 063e 78a4 de3d bf34 f43d 2bac d9bd
00000070: 8e74 883e f755 3d3e 4a6e b93d 7eb7 083e
00000080: 0fdf 853e f0e1 b93e 9eaf 8c3e df6b 423e
00000090: 04dd 0c3d 3e69 6bbe c0ff c13e ca5c a63e
000000a0: eb21 b7be bb1b 8cbe 49b0 9c3e 352d 983e
000000b0: 3a6e 7e3e 6e0b a03e 2e1d 88be e22e 24bd
000000c0: 23ff 063d 9779 75bd ce1a f93d 11ad a4be
000000d0: c3e2 8f3e 2b82 113d 10e2 b13e 6870 8dbe
000000e0: c10a e83d a64e 0d3e a586 72bc 5226 0ebe
000000f0: aba1 913e d0e7 8c3e 305f d13e cd1a c63e
00000100: 1234 273d da3e 083e 2fcf b73e d693 a33e
00000110: 9208 8f3e a588 743e 61b5 bf3e 4efe b43e
00000120: 0f10 343e 2224 a13e bcfc d83e ddc6 a43e
00000130: f382 8cbe e6bd b53d cc92 9d3e 87c3 f73d
0.009248218 0.3266808 0.12960973 0.40001908 0.22627932 0.266186 0.250669 0.20524284
-0.021110771 0.22461982 0.17248672 0.37233323 0.20593952 0.07261875 0.37202471 0.074448496
-0.3719696 -0.123005286 0.08905473 0.16632351 0.26413968 0.37640232 0.010574747 0.05239015
0.13098483 0.10871214 0.11924123 -0.106285416 0.26651424 0.18489824 0.09054239 0.13351247
0.26146743 0.3630519 0.27477735 0.18986462 0.034390464 -0.22989365 0.37890434 0.32492667
-0.35768065 -0.27364907 0.30603245 0.2972199 0.24846736 0.3125872 -0.26584762 -0.040083773
0.03295816 -0.05993041 0.12163316 -0.3216329 0.28102693 0.03552453 0.34742785 -0.27624822
0.11330176 0.13799533 -0.01480261 -0.13881806 0.28443655 0.2752061 0.40892935 0.38692322
0.040821142 0.13305226 0.35900256 0.31948727 0.27936226 0.23880251 0.3744307 0.3535027
0.17584251 0.3147288 0.4238032 0.3218297 -0.27443656 0.08874111 0.3077606 0.12097841

add_trend.weight f4 [3, 20]
00000000: 7aae 36be ff49 b0be d126 4dbe 0043 f63d
00000010: f697 f63c af82 53be f2d4 2f3e ee01 7abd
00000020: 71ee 01be 7e7a e7bd 7b09 41be f010 3c3e
00000030: 85bf 4cbd 2cce 5e3d 5891 48bc ec45 03be
00000040: eb63 2fbe 3b44 1ebd 4536 82be c4ca 0c3e
00000050: 9bfb 71be 08c3 73be e215 393e d973 563e
00000060: 836d 783e 592b fe3d 5822 63be 5e6b b0be
00000070: 007d 683e 6112 6bbe da06 b23e ba6a ae39
00000080: 7d5d bf3e 174c 8b3e 4f72 7a3e 777b 66be
00000090: 3457 60bd 9fe6 ea3c 851a 943d d38c 8fbe
000000a0: 0816 60be 34f6 fcbe e68e b03e 87e8 de3e
000000b0: f80d de3e 0092 cf3e fe8f e0bd d6c5 85be
000000c0: 4b58 40be 26dc c6be a4d7 dc3e 0fc0 f0be
000000d0: 8c98 a63e 00b0 e83e 4761 943e b86a 79be
000000e0: ef8f 26bd d5e0 babd 2b16 bd3e d306 a9be
-0.17839995 -0.34431455 -0.20034339 0.12024498 0.030101757 -0.2065532 0.17171076 -0.061036997
-0.12688614 -0.113026604 -0.18851273 0.18365836 -0.049987335 0.05439584 -0.012241684 -0.12819642
-0.1712796 -0.03863929 -0.2543203 0.13749224 -0.23631136 -0.23804867 0.18074754 0.2094263
0.24260525 0.12410612 -0.2218107 -0.34456915 0.22703934 -0.2295623 0.34770852 0.00033267384
0.37376013 0.2720649 0.24457668 -0.22508036 -0.054770663 0.028674422 0.07231621 -0.28037128
-0.21883404 -0.49406588 0.34484023 0.4353678 0.43370032 0.40541077 -0.10964964 -0.261275
-0.18783681 -0.38839835 0.4313327 -0.4702153 0.3253826 0.45446777 0.28980467 -0.24357116
-0.04066461 -0.091249146 0.36930975 -0.3301302

add_trend.bias f4 [3]
00000000: aa49 2abe 3d4d a33e 0edf c63e
-0.16629663 0.31894866 0.38842052
