real-data-forecast-res/section_17/pretrained_model/9699_pretrained_model.pkl (torch, 10703 bytes, 8 tensors)

init_ar_parameters f4 [18]
00000000: 6d42 30bf 2c97 1e3f 074d abbf 4165 303f
00000010: 44c1 1dbe 3027 0cbf cb7f 49c0 6a7f 043f
00000020: 11a0 01c0 6043 5d3d a00f dfbd d90f 30bd
00000030: 2774 dc3e 6fdb 0f3f 8aa9 0cbf aa90 0b3f
00000040: 3466 883e df3e d6be
-0.6885136 0.6194942 -1.3382882 0.689045 -0.15405756 -0.54747295 -3.1484249 0.5175692
-2.0253947 0.054019332 -0.10891652 -0.042983864 0.43057367 0.56194204 -0.54946196 0.54517615
0.26640475 -0.41844842

init_redusial_params f4 [6]
00000000: 44e5 143f f0d3 a63e 9ec1 3dbf 9aad 243e
00000010: f9e4 fd3c 94c8 f5be
0.5816233 0.3258357 -0.7412356 0.16081849 0.030992972 -0.4800459

lstm.weight_ih_l0 f4 [80, 3]
00000000: 546c c83e 6a4f da3e 168f dd3e 6904 c23d
00000010: 3a37 833d 77cb 50be 47a9 623e 77f4 dc3e
00000020: 5a5d d93e be3e e63e 61ab 013e 53eb 7d3e
00000030: a71e 663e 4358 df3e 7465 d93e 837b 853e
00000040: 12ff b43e 6917 d93e d354 dc3d b85c 9c3d
00000050: 3928 f53b 6e3c f93e c94b 7d3e 063f 883e
00000060: 0df7 363e 3c1e c23e ab84 753c 1d8d 713f
00000070: 6973 603f 4e88 083f d02b 463f e08f cd3e
00000080: 3e1b 323f 040b 313e d48c 093f 5738 ad3e
00000090: 40d3 953e 7017 243f 62ca 013f 71c2 243f
000000a0: e15b 793f 54da ae3f 91e7 483e 656a b43e
000000b0: bf85 293e 9106 373f 03ba 7b3f 0e51 8c3f
000000c0: 5e31 76be 46f6 dfbd 3548 97be a0d9 6c3d
000000d0: 237c a83f 9046 863f 3ad4 c33e 7c9c 87bc
000000e0: 5bc1 b3bd 26e1 133f a2ed 8a3e be09 993e
000000f0: 02d3 083e df62 8f3e 22bf b73e bd84 613e
00000100: 7294 6f3d 1c3d d8bd d051 143e ede6 af3e
00000110: d9b3 933e 96e5 ad3e eb7c d53d 7000 033e
00000120: 5523 b73e 0522 be3e e044 903e 0c20 803d
00000130: de1e 483d a394 093f e960 03be 9690 87be
00000140: ee54 aebe 6502 0c3e 5153 1d3e 8e56 303e
00000150: 1acd 883e 25e6 503e fcf9 193e ca03 533e
00000160: eac9 593e 4229 9f3e 593b b53e 80b1 f33e
00000170: b807 dd3e 7f6b 733e 42ee 163f 817f b73e
00000180: 7857 1c3f d1de 673e fec6 093e 261b 9c3e
00000190: dd53 7f3d efcc 6fbd 1f1e 123e 3f0d e43e
000001a0: 477c a73e bf09 833d a349 c1be 2ae1 2cbe
000001b0: e376 3dbd 6a01 323e 8955 d63f 19d0 9d3e
000001c0: 92cf 16be a6ed fcbe 313e ae3e ce2b 343e
000001d0: 32cd 3b3d e095 013f 9b7b 233f 6b42 bd3e
000001e0: 3eeb 9d3e 3110 203e 28c2 833e 99bc 1a3e
000001f0: ba36 bd3d e00b 02be 7e34 2d3e f2c6 4e3e
00000200: 9e19 973e 3200 193e e362 753e df28 b93e
00000210: 93c9 c4be 71c0 c8be 5bff 8cbe dd62 283e
00000220: 9526 d83e 64fe 113e 61c7 3e3f f506 583f
00000230: a641 723f 80fa 88be dc2d a3be a546 a6be
00000240: 2c32 af3e ac03 b93e dbf5 5d3e 1d6e 32bf
00000250: 2857 dfbe 862f 1bbf 3d62 0fbf 6561 bfbe
00000260: 64b5 58bd a3f6 9abe 4434 dfbe 0093 04bf
00000270: 643f 46be 45f6 cabe e543 9bbe d685 2e3f
00000280: 90fd 653f 871a 843f 8d4d c5be c626 91be
00000290: 69aa c4be f77e 41bf 0c0e 93bf 5d94 a3bf
000002a0: f40e 0d3e 73aa 023f 35e3 7c3e e845 f3bd
000002b0: 1df6 5dbc 34f7 a23e c8b9 08bf 0d6c b8bd
000002c0: 7868 ffbd f0e3 38be 5187 f7be 23e6 b1be
000002d0: 0e6e 043e 5d9a 983f 67b0 3340 a6fe 93bf
000002e0: b799 24c0 bbe0 82c0 2663 a03e 96ed c63f
000002f0: c7ce 8940 a99e 29bd 29d9 2dbf 5328 93bf
00000300: 687a bc3e 7b81 2d3e be81 cdbe 6454 b23e
00000310: ee6d 0abe 377f 0abf 0b7c 81bf e428 1fc0
00000320: f7cf 8cc0 0bee 313f 54cb cd3e 6335 65bd
00000330: 3388 593f 2a34 863f de3a 533f a01d 22bf
00000340: 2862 3dc0 7bdf 9fc0 043a 8f3f fa98 1a3f
00000350: 7c2c 8f3d 3f84 75be d3bb 323d c5e3 903f
00000360: 8e46 363f 9e8e c03e b605 a33d 7855 3d40
00000370: 3118 4640 1f73 5440 589e 1a3f a6d9 f53e
00000380: f0f7 893e ae17 9b3f 06ec ce3e fc78 b7be
00000390: d595 59c0 e87d 82c0 e2c3 82c0 4104 54c0
000003a0: 1773 96c0 9b65 abc0 fd99 e53e a3a9 8d3f
000003b0: e08c 0b40 bcf5 033e 1244 51be c3f0 20bf
0.39145148 0.42638713 0.43273228 0.094734974 0.06407018 -0.20390116 0.22134887 0.43155262
0.42454034 0.44969743 0.12663032 0.247968 0.2247263 0.43622026 0.42460215 0.26070794
0.35350853 0.42400673 0.107583664 0.07634872 0.0074816016 0.48678917 0.24735941 0.26610583
0.1786768 0.37913692 0.014985244 0.94355947 0.876761 0.53332984 0.774106 0.4014883
0.6957282 0.17289358 0.5373051 0.33832046 0.29262733 0.6409826 0.50699437 0.64359194
0.9740582 1.3660378 0.19619586 0.35237423 0.16554926 0.71494395 0.98330706 1.0962236
-0.2404227 -0.10935645 -0.29547277 0.05782473 1.3162884 1.0490284 0.38247854 -0.01655411
-0.08777114 0.57765424 0.27134424 0.29890245 0.13361743 0.2800512 0.3588801 0.22023292
0.058491178 -0.10558531 0.14484334 0.3435587 0.2884815 0.33964223 0.10424217 0.12793136
0.35769144 0.3713533 0.28177547 0.062561125 0.048857562 0.53742427 -0.12829937 -0.26477498
-0.3404917 0.13672788 0.15363814 0.17220518 0.2671898 0.20400293 0.15036768 0.20606914
0.2126843 0.31086165 0.3539684 0.4759636 0.4316995 0.23771475 0.589573 0.35839465
0.61070967 0.22643591 0.13454816 0.30489463 0.062335838 -0.05854505 0.14269303 0.44541356
0.32712004 0.06398343 -0.37751493 -0.16882768 -0.046255957 0.17383352 1.6744853 0.30822828
-0.1472762 -0.4940006 0.34031823 0.17594835 0.045849986 0.50619316 0.6386048 0.36964735
0.30843538 0.15631177 0.25734067 0.15111007 0.09238954 -0.12699842 0.16914555 0.20193079
0.29511732 0.14941481 0.23963504 0.36163995 -0.3843504 -0.3920932 -0.2753857 0.16443963
0.42216936 0.14257199 0.7452298 0.84385616 0.9463142 -0.26753616 -0.31870925 -0.32475773
0.34217966 0.36135614 0.21675818 -0.6969927 -0.43621182 -0.6061939 -0.56009275 -0.37378994
-0.052907363 -0.30266294 -0.43594563 -0.51786804 -0.19360119 -0.39641014 -0.30325237 0.6817297
0.8984003 1.0320596 -0.3853573 -0.28349894 -0.38411263 -0.7558436 -1.1488662 -1.2779652
0.13775235 0.51041335 0.24696048 -0.11878568 -0.0135474475 0.31829226 -0.5340848 -0.09004984
-0.12471098 -0.18055701 -0.48345426 -0.34745893 0.12932608 1.1922108 2.8076417 -1.1562088
-2.571882 -4.089933 0.31325644 1.5541255 4.3064914 -0.041411076 -0.67909485 -1.1496681
0.3681214 0.16943924 -0.40138048 0.3483001 -0.13518497 -0.54100364 -1.011598 -2.4868708
-4.4003863 0.6950385 0.4019419 -0.055959117 0.8497345 1.0484669 0.825117 -0.63326454
-2.959116 -4.9960303 1.118958 0.60389674 0.069909066 -0.23976229 0.043636154 1.131951
0.7120141 0.37608808 0.07960074 2.9583416 3.0952265 3.3195264 0.60397863 0.48017615
0.26946974 1.2116601 0.40414447 -0.3583449 -3.39977 -4.0778694 -4.0864115 -3.3127596
-4.701549 -5.356153 0.44844046 1.1067394 2.1804733 0.12886709 -0.20436123 -0.62867373

lstm.weight_hh_l0 f4 [80, 20]
00000000: a658 593e e33d eebd 11c8 de3c 7a32 1dbf
00000010: 738d 48bc b8d3 923e 94d4 0bbc 81d6 26be
00000020: 2cd4 143f 7249 fb3d 7089 a4bd 8031 b8be
00000030: 72eb af3d fe69 94be 6a4e f9be 55f6 fb3e
00000040: 39f9 cabe 19ac efbe 24ca 4bbd 2f24 c03c
00000050: ee7e 353e 052a c2bd 7876 3e3d 8dcf 533e
00000060: 9a6c a23e 16aa 8a3f 3a62 47be 9002 64be
00000070: 09a1 5b3e 883f b13e 5358 b73e f8c9 dcbe
00000080: 336c e1bd a29b 25bc 11cb 26bf 8298 bfbf
00000090: 8e9b 4e3d a9d1 f7bc f401 bebe 9d12 88be
000000a0: d8c9 b23e e8ae 0cbe e567 523e 56de 59bc
000000b0: becb 50be 9e94 30bd 488d 613e 6690 69be
000000c0: 6281 7c3e 8aa6 c6be c5e5 fe3d b220 59be
000000d0: 7e67 00bf d7bf 833e 9fe0 b2be d00f 85bd
000000e0: b8d7 7f3e 1205 4a3f d543 04bf fc5d 91be
000000f0: c561 083f 6132 dbbc adf9 e63e bc52 623e
00000100: db73 b3bd 9421 8c3e 1c43 a7be 59a3 513e
00000110: 6009 a63f f85b 0cbe 94d7 883e 0de9 62be
00000120: 896d a2bd a80c 11be 3d47 cabd 76ef b5bc
00000130: ade0 0f3f 7b2a a9be 6863 f43c 3306 8fbe
00000140: 1e60 21be 77f9 aebe b2bc 73bd dbbc 0fbe
00000150: 929e f1be d59a 893e 7445 1a3f c1f0 0bbf
00000160: bd03 14be fb1c eabe f0c0 89be c76f 8f3e
00000170: e9d0 26bf 4aa4 46bf 2454 adbe c8d4 40bf
00000180: db25 093f 674e 073f b85f 91bd 55e1 efbc
00000190: bc70 c73d 9cb4 69be 3b52 053e 3455 d8bd
000001a0: 8d87 e0bd 553a 2b3f 35b5 403d c535 5c3c
000001b0: 54d0 af3e 03b4 ebbe 9b71 eebe 8d19 63bd
000001c0: 2903 a0be 5913 2cbd 43ce 04bf 7193 9e3d
000001d0: 2e5d cc3e b2a8 253f c8f5 143e 50c3 05be
000001e0: d1e8 67bd 3dd8 0ebf 22b6 02be 8339 a13c
000001f0: 55c8 703e 8753 1ebe 8aa5 91be a183 0c3d
00000200: 5bb4 98bd 0052 0abf 42d4 913e af94 2abf
00000210: 977a 0cbe 3ca5 b43d 906b 02bd 2836 02be
00000220: 12ca 733e a10d 223f 5df8 0e3d 2d2a 0dbe
00000230: 501d 703e bd01 30be 21bb a63e e6a0 a93d
00000240: b724 95be 6fe8 0a3f 9135 843f 99f1 05bf
00000250: 13ef 4f3e 7d4f 1abf c9d4 383d 2500 883e
00000260: 7770 f7be 1149 2bbf 5734 a1be 5333 c93d
00000270: 886b 8a3b 46da 293f 373d 34be 1ff9 223d
00000280: 6857 153f 38ae 843e 213a 163e 6482 a5be
00000290: 7ee0 f23d 767a 923e ee10 a5be 3c7b 22bc
000002a0: 9d96 083f e8f5 1c3e 49de 39b9 df84 07bf
000002b0: 04cd bdbd 03da 3f3e 4c24 a2bd 2faf 37bc
000002c0: eb5f b1be 30e8 9cbd f437 d23e 6ae1 9b3d
000002d0: cde0 273e fb72 8a3e 45b0 9c3e 7e2b f83e
000002e0: 02d3 0ebd 4b51 d93e 0e03 25bf 60eb ca3e
000002f0: ea75 433f af91 883e 4dbb a6be f5e8 a8be
00000300: f146 213e a78d 01bf 6bc1 023e 01ce 1b3f
00000310: 7ad7 1ebe fcd7 d03e 41b5 72bd 9add 21be
00000320: 7a63 b33e 9861 c93e 41b4 443e 5f1c 9fbd
00000330: fe98 55bf de17 f33d f867 c13d a701 f43d
00000340: 140d 3c3f 0e5d 02be f95c a9be 4351 28bf
00000350: bd20 edbe 172e 5dbe 6847 533d 8311 c4bd
00000360: a914 2fbe 9704 26be 8a15 65bc 5c7a cabe
00000370: 3371 b03f c7dc 5ebe 7392 b73d 53c7 35bf
00000380: 711f ebbe fdf7 783f 29f8 61be 75f8 5abe
00000390: 6335 d33d fbea 93bd 2406 423e 865c fdbe
000003a0: 4222 0ebe 611f c2bc cc5f fdbd 62b1 24bd
000003b0: 2414 ebbe 95d5 fb3c 43bd 8a3c 46e0 f03d
000003c0: bbc6 143d c42d 3abe 4fc4 313e 59f5 cbbc
000003d0: ad24 8ebe 4bdf a93e a3c8 b53f 1860 4abf
000003e0: 87b1 0ebe bc8c aabf c4f5 97be 511c c23c
000003f0: 6ba4 55bf 94be 30bf ae95 c2be 08b1 3ebe
0.21225223 -0.11632898 0.027195008 -0.61405146 -0.012240755 0.28677154 -0.008534569 -0.16292764
0.5813625 0.12269868 -0.080340266 -0.35975266 0.085898295 -0.28987116 -0.48692638 0.49211374
-0.39643267 -0.46810988 -0.049753323 0.023454754 0.17724201 -0.09480671 0.0464997 0.20684643
0.3172348 1.0833156 -0.19471064 -0.22266603 0.21448149 0.34618783 0.35809574 -0.4312284
-0.110069655 -0.010107907 -0.65153605 -1.4968417 0.050441317 -0.030251341 -0.37110865 -0.265767
0.3491962 -0.13738596 0.20547445 -0.013297638 -0.20390221 -0.043110482 0.22026551 -0.2280899
0.2465873 -0.38798934 0.12446169 -0.21203879 -0.50157917 0.257323 -0.34936997 -0.064971566
0.24984634 0.78913987 -0.51666003 -0.28392017 0.53274184 -0.026757421 0.45112363 0.22101873
-0.08762332 0.27369368 -0.32668388 0.20472468 1.2971611 -0.13706958 0.26726973 -0.22159214
-0.079310484 -0.14164984 -0.09876869 -0.02220891 0.56202203 -0.33040223 0.029832557 -0.27934417
-0.15759322 -0.34174702 -0.059506126 -0.14036886 -0.47191292 0.2687594 0.6026223 -0.54664236
-0.14454551 -0.45725235 -0.26905012 0.28014967 -0.6516252 -0.77594435 -0.33853257 -0.7532468
0.5357339 0.5285401 -0.07098335 -0.029282251 0.09738299 -0.22822803 0.1301965 -0.10563126
-0.10963354 0.6688588 0.047047812 0.013440554 0.3433863 -0.46035776 -0.4657105 -0.05544429
-0.3125241 -0.04201064 -0.5187723 0.07742966 0.3991484 0.64710534 0.14546883 -0.13062787
-0.056618515 -0.55798703 -0.1276479 0.019680744 0.2351392 -0.1546155 -0.2844661 0.03430522
-0.07456275 -0.5403137 0.28482252 -0.66633123 -0.1371864 0.088205785 -0.03184086 -0.12715971
0.23807552 0.63302046 0.034904826 -0.1378562 0.23448682 -0.17188163 0.32564643 0.08282642
-0.29129574 0.54260916 1.0328847 -0.52321774 0.20306043 -0.6027754 0.045124803 0.2656261
-0.4832799 -0.66908365 -0.31485245 0.098242424 0.0042242445 0.66348684 -0.17601477 0.03978836
0.58336496 0.25914168 0.14670612 -0.32326043 0.11859225 0.28609055 -0.3223948 -0.009917077
0.5335482 0.15328181 -0.00017725783 -0.5293712 -0.09267619 0.18735509 -0.07917079 -0.011211201
-0.34643492 -0.07661474 0.41058314 0.07611354 0.16394348 0.27040848 0.30603233 0.48470682
-0.0348692 0.42444834 -0.64457786 0.39632702 0.763518 0.26673648 -0.32564774 -0.32990232
0.15749718 -0.5060677 0.12769096 0.6086121 -0.15511885 0.40789783 -0.05925489 -0.1580719
0.35036832 0.3933227 0.19209386 -0.07769083 -0.8343657 0.11869787 0.094436586 0.11914378
0.73457456 -0.1273081 -0.33078745 -0.65748996 -0.4631404 -0.21599613 0.05158177 -0.095736526
-0.17097725 -0.16212688 -0.013982186 -0.39546478 1.3784546 -0.21763907 0.0896348 -0.7100727
-0.45922425 0.972534 -0.22067322 -0.21383841 0.10312917 -0.07222553 0.18947655 -0.49484652
-0.13880256 -0.023696603 -0.123717874 -0.040208228 -0.45913804 0.030741492 0.01693595 0.11761527
0.036322337 -0.1818152 0.17360042 -0.024897264 -0.27762356 0.33178172 1.4201854 -0.7905288
-0.13934909 -1.3324199 -0.29679692 0.023695143 -0.83454007 -0.690408 -0.38004822 -0.1862222

lstm.bias_ih_l0 f4 [80]
00000000: fb5b 1f3f 313f e1bd bee7 79bd 3c4e 903f
00000010: 14ec e43d fa89 29be 1906 2f3e ee3d 213e
00000020: 9276 c93e 7fa5 be3e 6626 5f3f 267e 613e
00000030: 0f4d e23d 3ac0 793e 8d58 713e d075 b33d
00000040: 8b33 1e3e c124 3b3f fb98 493d 0d04 7d3e
00000050: e6c9 4f3e d272 003e ff7f 743e 13e7 bb3e
00000060: 0dc0 8dbd 23b6 b13e 4b65 2b3e b31c c43e
00000070: d414 163f 5408 fe3e f94e 983e 2a05 223f
00000080: 0f04 953d 1392 663e e207 9a3e c3e7 863e
00000090: f39e 433e 4895 e73e 7fd6 0d3f a57e 2f3f
000000a0: 758c 933e 2fd7 b63d b0d9 27be 966b 923e
000000b0: 5b92 95bd 6c85 5d3e 499b 753c bca9 04be
000000c0: f2bf ae3e cc5e dabc 46dc 643e d5b7 b4be
000000d0: 4e7b 02be 6a78 f5be 3d88 4f3d 6f7d 4c3e
000000e0: 37e6 6a3d 793f f5be 7b1c 4b3d 9b75 82bc
000000f0: 46f5 593e 4891 cebd c907 ee3c 6766 8b3e
00000100: cd50 aabc a93a 71bd 636e c33d 3572 1f3e
00000110: 17cb b23e 440e 98be a041 d83e d2de 313e
00000120: e1d7 c13d 86f1 0a3f 5bfa 443e 64bf 213e
00000130: c7dd 0bbb 729d db3e 19bc ab3c 612f 043e
0.62249726 -0.10998381 -0.061012022 1.1273875 0.11177841 -0.1655654 0.1709217 0.1574628
0.39348274 0.37235638 0.87167966 0.22020778 0.11049854 0.24389735 0.23568936 0.08762705
0.1544935 0.73102957 0.04921816 0.24708577 0.20291862 0.125438 0.23876952 0.36699733
-0.069213964 0.34709272 0.16737859 0.38303146 0.5862553 0.4961573 0.2974775 0.6328913
0.07276165 0.2251666 0.3008414 0.26348695 0.19103603 0.4523108 0.5540542 0.6855262
0.28818098 0.08927762 -0.16391635 0.28597707 -0.07303306 0.21632928 0.014990636 -0.12955374
0.34130818 -0.02665653 0.22349653 -0.35296503 -0.1274235 -0.4794343 0.050667036 0.19969724
0.057348456 -0.47899988 0.049587708 -0.01592522 0.2128497 -0.10086304 0.029056447 0.27226564
-0.020790482 -0.058893833 0.09542539 0.1557091 0.3492057 -0.29698384 0.42237568 0.17370155
0.09465004 0.54274786 0.19236128 0.15795666 -0.0021341906 0.4289356 0.020963715 0.12908699

lstm.bias_hh_l0 f4 [80]
00000000: 4f49 3e3f e3b4 8a3d 6c50 04bd 0291 8d3f
00000010: 0fe9 94be fb1d 5dbe 1cf3 85bd 1f1e 9f3e
00000020: 10cb 863d 236e 163f ee74 323f 9980 973e
00000030: 109d 13be e24e ea3d e85f 263e 3137 ee3c
00000040: 8be4 733e 85d7 3e3f fed0 4e3b 7882 cf3e
00000050: 288f 5d3e def2 d53d 48ba e93e 2dad d03e
00000060: bd24 f13d 438f ed3e 5a30 fbbd 6014 8f3e
00000070: 79c9 e83e aa52 9f3e bae4 143f 42d3 053f
00000080: 078d f83e 0cb9 0c3f 08ba 0d3e 6295 083f
00000090: d1cd 843e 56fe ca3e 285c f53e 6e17 3a3f
000000a0: 6017 813e b29e 843c c2af e23d 6e62 f73e
000000b0: 0b8a 52be 9354 493d 6827 38be 327d 4c3e
000000c0: d5a2 bd3e 2f12 f0bc 9813 2abe 084e 1bbe
000000d0: bdab 083e 9f92 e1bd c448 bebd 4178 0f3e
000000e0: 0d5a 32be b048 2cbf 2e3f 5a3e ad0d ab3d
000000f0: 7490 5a3e b40a 653d d220 15be 9d24 383e
00000100: 12ce fd3c 1acf bfbd 57b8 003d 0a2e 9c3e
00000110: 61e4 9b3e 1d7a 41be fd2d fd3e d2f1 1b3e
00000120: ee0d 193e ec05 f53e c662 093e 2ee0 d73d
00000130: f248 92be 2f95 503f 7af8 d33d 4769 a33e
0.7433061 0.06772783 -0.03230326 1.1059878 -0.2908406 -0.21593468 -0.0654051 0.31077668
0.065817 0.58761805 0.6970967 0.295903 -0.14415383 0.11440827 0.16247523 0.029079052
0.23817651 0.74547607 0.0031557675 0.40529227 0.21636641 0.10446714 0.45649934 0.40757123
0.117745854 0.46398363 -0.12265082 0.27945232 0.4546621 0.31117755 0.5816151 0.5227548
0.48545095 0.5496986 0.13840497 0.5335294 0.25938275 0.39647168 0.47921872 0.72692
0.25213146 0.016188953 0.110686794 0.48317283 -0.20560472 0.049152922 -0.17983782 0.19969633
0.37038293 -0.029305546 -0.16609037 -0.15166485 0.13346763 -0.11014294 -0.09291223 0.14010717
-0.17417164 -0.6729841 0.21313164 0.08352218 0.21344167 0.05591841 -0.14563301 0.17982717
0.030982051 -0.09365673 0.0314258 0.30503875 0.30447677 -0.18894239 0.4944915 0.15228966
0.1494672 0.4785608 0.13416585 0.10540806 -0.28571278 0.81477636 0.103501275 0.31916258

add_trend.weight f4 [3, 20]
00000000: e399 8abf 2b93 b13e abd3 603f f3b3 683f
00000010: 1bcb 95bf 8f65 453f fdd8 b5c0 93c5 a63e
00000020: fa96 d93f f334 bb3d b873 9cbf 2a9e 403f
00000030: 03b6 b8be 5b61 48c0 194b 1dbf 53d5 8b3f
00000040: 525a a53f 26a7 ac3f f45c 58bf d88f 8abf
00000050: fc62 c9bd cedf 50c0 80fe 26c0 ddd8 34be
00000060: e470 0940 b4da 5f3e ddb3 053f 8f73 cbbe
00000070: f7ee 4ec0 90fe 4e40 7d52 c4be e0ed ddbf
00000080: ce6b 2bc0 6e96 5dbf d2bc 1b3f 0113 88bf
00000090: 490e 943f 92d0 aac0 bb92 3ac0 d849 38c0
000000a0: ad23 f43e e40b 39c0 bccf c53f f3c4 953f
000000b0: 0c5b 653f 2cb3 b2be 704b ef3f 843e 67be
000000c0: c322 5fbf 556e 86bf 0e5a 1abe 53e9 cfbf
000000d0: d1a3 283f 3b25 b83f ee43 633e 3805 f8bf
000000e0: fb7f 1740 9802 bac0 3583 02bc c940 a5bd
-1.0828212 0.34682593 0.8782298 0.9089958 -1.1702608 0.7710809 -5.682738 0.32572612
1.6999199 0.09140959 -1.2222815 0.7524134 -0.36076364 -3.130942 -0.61442715 1.0924476
1.2918189 1.348851 -0.84516835 -1.0825148 -0.09833333 -3.26366 -2.6092834 -0.17660852
2.1475153 0.21860772 0.52227575 -0.39736602 -3.2333353 3.2342873 -0.38344184 -1.7338219
-2.6784549 -0.8655766 0.6083499 -1.06308 1.156686 -5.3379602 -2.9152057 -2.879507
0.47683468 -2.8913507 1.545402 1.1700729 0.8959205 -0.34902322 1.8694897 -0.22582442
-0.8716242 -1.0502421 -0.15073416 -1.624308 0.65874964 1.4386362 0.22193882 -1.9376593
2.3671863 -5.8128166 -0.0079658525 -0.080689974

add_trend.bias f4 [3]
00000000: b0e3 23bf ade7 9fbf 89ec cabe
-0.640193 -1.2492577 -0.39633587
