forecast-res/section_1/pretrained_model/149_pretrained_model.pkl (torch, 10703 bytes, 8 tensors)

init_ar_parameters f4 [18]
000000 69 6d 18 3f b8 54 eb 3e c5 2b e2 3e 4a d8 56 bf
       0.59541947 0.45963073 0.44174019 -0.8392378
000010 9e 91 ba be df 22 45 be 50 79 4c bf 34 8a 06 3f
       -0.36439222 -0.19251584 -0.7987261 0.5255463
000020 1e 63 a4 3e 62 62 9c be 8e b8 ab 3e 8c 4c 1f 3f
       0.3210687 -0.3054381 0.33539242 0.62226176
000030 f4 fc 78 3f b2 96 2a bf 73 7e 83 3f c6 71 ed be
       0.97260976 -0.6663619 1.0272964 -0.46375865
000040 fc 08 67 3f 79 d0 e8 3c
       0.90248084 0.02841972

init_residual_params f4 [6]
000000 f9 65 bc 3f 4a b4 a6 3e 5f e4 eb bf 4e 36 94 bf
       1.471862 0.32559425 -1.8429068 -1.1579072
000010 58 51 c9 3d 66 2f bb bf
       0.09829968 -1.462384

lstm.weight_ih_l0 f4 [80, 3]
000000 e9 9d 07 3e d5 1b 90 3e 9e 3b d6 bd 78 e3 04 3d
       0.13243832 0.28146234 -0.1046059 0.032443494
000010 33 31 a2 3d b5 42 4f 3e 06 51 5c 3e ce 05 c8 3e
       0.0791954 0.2024029 0.21515283 0.3906693
000020 c8 7d 21 3e 54 c5 84 3e bd f7 fb 3d e6 15 02 3e
       0.15770638 0.259318 0.12303112 0.12703666
000030 f1 25 bd bc 56 2f 13 3d 0a ca 47 3d 08 23 18 3e
       -0.023089381 0.035933815 0.048776664 0.14857113
000040 48 ff 9d 3e 98 97 d1 3e 21 f6 46 3d 2f 32 8d 3d
       0.30858827 0.4093597 0.04857457 0.068943374
000050 b5 6f 80 3e bd 2e c4 3e 1b 31 12 3e 7d 29 aa 3e
       0.25085226 0.38316908 0.14276545 0.33234778
000060 73 d9 2a 3c a2 33 12 3e 26 ce c6 3e f1 24 4f 3c
       0.0104278205 0.14277509 0.38829154 0.012643085
000070 83 7c 93 3d f1 b0 0e 3e 42 85 3a bc 90 a7 a0 3e
       0.07201483 0.13934685 -0.01138431 0.3137784
000080 87 61 b2 b9 d3 36 45 3d 4e 50 97 3c 4f 51 e4 bc
       -0.0003402347 0.048147988 0.01847091 -0.027870802
000090 52 23 c1 bd d3 b8 73 3e e5 0a 59 3e 08 ce 70 3e
       -0.09430565 0.23800974 0.21195562 0.23516095
0000a0 f3 64 24 3e b7 ad f2 3c a3 6f 83 3e 19 0a 65 bd
       0.16054134 0.02962385 0.2567111 -0.055917833
0000b0 64 95 03 bd a7 2f ec 3d 45 9d a9 3e b0 ed 9b 3e
       -0.032124892 0.115325265 0.331278 0.3045478
0000c0 1a e4 dd 3d a4 43 4b 3e da f2 a6 3e 58 02 e2 3e
       0.108345225 0.19850022 0.32607156 0.44142413
0000d0 52 0f 8e 3e 0f a7 33 3e 07 7b a4 3e 8f 80 99 3d
       0.27746063 0.17544197 0.32125112 0.07495224
0000e0 ae d0 83 3e a5 2b 01 3d e2 9d 3a 3d 64 a6 81 3d
       0.25745147 0.031535763 0.045560725 0.063305646
0000f0 01 bf 4f 3d 3d eb 84 3d a2 4a 25 be 6c 79 75 3e
       0.050719265 0.06490181 -0.16141751 0.239721
000100 24 91 8f 3e 60 03 fd 3d 7a 2f 50 3e 26 7d 44 3e
       0.2804042 0.12354159 0.20330611 0.19188365
000110 7e c6 9b 3e a8 82 c1 3e 30 92 03 bd 17 54 87 3d
       0.30424875 0.37794995 -0.032121837 0.06607836
000120 f5 09 76 3e 24 96 93 3e e8 34 a4 3e f6 38 c9 3e
       0.24027236 0.28825486 0.32071614 0.3930127
000130 41 c7 a4 3e 08 2a b8 3d 8a 3b 25 3e cb 86 15 3d
       0.3218327 0.08992392 0.16135994 0.0365055
000140 ad ec 2a bc f8 a7 c0 3e eb 43 99 3e 04 4e c9 bd
       -0.0104324045 0.3762815 0.2993463 -0.098293334
000150 46 6f 13 3e 0b a0 16 3e 17 45 26 3e 0a 76 c1 3d
       0.14397916 0.14709489 0.16237293 0.09446342
000160 ee 2b 86 3e 15 d5 4c 3d 12 22 43 3e c1 c0 83 3e
       0.2620539 0.0500079 0.19055966 0.25732997
000170 78 e5 9c 3e 16 d3 87 3e 22 72 d8 bc c8 fd 5e 3d
       0.3064382 0.26528233 -0.02642161 0.054441243
000180 c4 a4 30 3e b0 9b 36 3e 7f dd 09 bd 71 63 31 3d
       0.17250353 0.17832828 -0.0336585 0.043307725
000190 ba 64 c3 3e 04 f2 a0 3e 65 b8 52 3d 00 e2 be 3d
       0.38162786 0.31434643 0.051445384 0.0932045
0001a0 a8 22 8c bd aa 2c 3c 3e e9 cf 82 3c dc a1 f0 3b
       -0.06842548 0.18376413 0.01596828 0.007343514
0001b0 45 72 31 3e cb 5b 3d 3e 6a e6 74 3d 9e da a9 3e
       0.17328747 0.18492047 0.059790052 0.33174604
0001c0 7d e7 91 3c d2 ad b4 3e ef 54 97 3e 25 fb 92 3c
       0.017810578 0.35288864 0.29556987 0.01794202
0001d0 36 48 2d 3e 51 c9 31 3e 7e 70 19 3e 43 16 20 3e
       0.16922078 0.17361952 0.14984319 0.15633492
0001e0 95 cc 64 bd b1 9d 1f be b7 31 9b be fa 44 8d bd
       -0.055859167 -0.15587498 -0.30311367 -0.06897922
0001f0 dc bf c3 be 6c 44 82 be 69 0f 87 be ec df 9f be
       -0.38232315 -0.25442827 -0.26378945 -0.31225526
000200 34 73 8a be 42 74 c1 be 20 3b 72 be 58 a5 08 be
       -0.27041018 -0.3778401 -0.23655367 -0.13344324
000210 99 4f bf be 50 31 71 be a0 c1 54 bd 2a 01 17 be
       -0.37365416 -0.23553967 -0.051942468 -0.14746538
000220 25 12 45 be 8b 05 90 be 94 c6 7f 3e be 73 a8 3e
       -0.19245203 -0.2812923 0.24978095 0.32900804
000230 53 54 bd 3e f3 a8 82 bd 95 af 32 3c 21 74 58 be
       0.36978397 -0.06379881 0.01090612 -0.2113805
000240 64 95 84 be 8a 0a 67 be 0e 1b 30 bd b9 6a 55 be
       -0.25895226 -0.22562614 -0.04299455 -0.20841493
000250 3a 95 a0 be 37 37 bb be 0a ed 8c be bd 54 93 be
       -0.3136385 -0.36565563 -0.27524596 -0.28775588
000260 2d 8c 40 be 96 77 8e 3e 6b 4e 90 3e 62 e5 48 bd
       -0.18803473 0.27825612 0.28184828 -0.04904688
000270 55 26 3c 3e 0c 1d fb bd 60 95 a0 3d aa 01 27 be
       0.18373998 -0.122613996 0.07840991 -0.16309229
000280 61 ec 1a be 85 75 1f be 35 10 d7 be 89 9a bd be
       -0.15129234 -0.15572174 -0.42004552 -0.37031963
000290 e2 a8 2d be 7d 1a 62 be 54 f7 a1 be c8 b2 c4 bd
       -0.16958955 -0.22080417 -0.3163401 -0.09604412
0002a0 a7 3e cf be f2 e5 5c be ee c0 c5 b9 f1 8c 00 3e
       -0.40477487 -0.21572092 -0.00037718512 0.12553765
0002b0 bb 22 c9 3e 5f 7d 69 3e 28 1b c0 3c fe e6 c3 3e
       0.3928431 0.22801732 0.02345045 0.3826217
0002c0 e1 ca 6b 3e 17 a1 bd 3d fc 5f bc 3e b8 cc 8a 3b
       0.23026611 0.09259241 0.3679198 0.00423583
0002d0 7b 11 7f 3e 07 70 53 3e e2 8c 97 3e 21 f0 66 3f
       0.24909012 0.20648204 0.29599673 0.9021016
0002e0 58 ef fb 3e dc b2 8e be be 56 55 3e f5 ce 2a 3e
       0.49206042 -0.27870834 0.20833871 0.1668051
0002f0 01 6a 83 bd 78 3c 0c 3f cd f9 0c 3f a6 86 aa 3e
       -0.06416703 0.5477977 0.55068666 0.33305854
000300 f4 76 2a 3e 9d 94 92 3e c1 3f 9d 3c 3a d3 84 3e
       0.1664694 0.28629008 0.01919544 0.25942403
000310 2d a6 15 3e 0b e2 df 3d 01 d0 f5 3d c0 f3 6e 3e
       0.14614172 0.10931786 0.12002564 0.23335171
000320 e6 02 3c 3e 7a f2 f9 3e 63 7f f7 3d 28 e8 1e 3c
       0.1836048 0.48817807 0.12084844 0.009698905
000330 8c e9 62 3f c9 c8 98 3f dc 16 3c 3f 7f fd 06 3f
       0.88637614 1.1936275 0.7347238 0.52730554
000340 9a ff aa 3e 7a 41 4a 3d 99 c1 16 40 30 a6 1c 40
       0.33398134 0.04937885 2.3555663 2.4476433
000350 f1 1b 21 40 1a 7d 5f 3f 01 5b 57 3f bb 51 0c 3f
       2.5173304 0.87300265 0.84123236 0.5481221
000360 d1 7d 06 40 2c 64 0e 40 b5 ce 1c 40 64 a5 0a 40
       2.1014292 2.224864 2.4501164 2.1663446
000370 ac 07 14 40 79 ae 17 40 19 85 a5 3e e6 ab 73 3e
       2.3129683 2.370024 0.32328108 0.23796043
000380 a3 01 3f bc c2 8a a2 3e 1f ff be 3b fa 36 34 bc
       -0.011658105 0.3174649 0.0058287526 -0.010999436
000390 e1 94 5a 3e 78 ec 56 3e 35 9d 05 3e 3b cc 42 3f
       0.21345855 0.20988643 0.13048251 0.7609288
0003a0 4a 20 f5 3e 20 26 b4 3e 30 8b 0f 3f 7d f6 48 3e
       0.47876197 0.35185337 0.5607176 0.19625278
0003b0 bf db 66 3e 71 45 c6 3d 76 0f 1e 3e ba ac 91 3e
       0.22544764 0.09681214 0.15435585 0.28452092

lstm.weight_hh_l0 f4 [80, 20]
000000 cf b7 31 3d 1f 76 7a 3e b6 81 43 3d 83 88 cd 3d
       0.043388184 0.24459122 0.047731124 0.10035803
000010 6b 8c 23 3e 74 08 18 be e5 60 93 3d 89 0d a5 bd
       0.15971534 -0.14846975 0.071962155 -0.08059222
000020 37 19 6e 3d 19 25 8f 3d ba 77 9f be 0e eb c7 bc
       0.058129515 0.06989498 -0.31146032 -0.024404075
000030 1b e1 9a 3e a3 af 20 be b5 65 8e bc b2 b8 f3 3c
       0.30249867 -0.15692 -0.017382482 0.029751156
000040 29 cf f6 bd 49 e2 1c 3c b6 2f 09 be f1 09 88 be
       -0.120512314 0.009575435 -0.13397107 -0.26570085
000050 b9 aa 81 be 8c b8 86 bd a5 df b1 bd 3f 74 02 bd
       -0.25325564 -0.06578168 -0.08685235 -0.031849142
000060 b0 91 29 be c6 30 8e be d9 23 01 3e f4 b4 1e be
       -0.16559482 -0.27771586 0.12611331 -0.15498716
000070 95 bc 84 3a f9 e2 11 be 7c f3 89 be 80 55 c9 3d
       0.0010127003 -0.1424674 -0.26943576 0.09830761
000080 62 91 ba bc 65 7f 14 be b8 60 a8 be 59 33 cf be
       -0.022774402 -0.14501722 -0.3288629 -0.40468863
000090 f0 7f 03 bc e9 9c 6b 3d 4e 18 6e 3e 8f 79 85 3e
       -0.008026108 0.057522688 0.23251459 0.26069304
0000a0 57 60 19 3e 7b 02 bf be 77 d5 c8 be 8d 86 eb bc
       0.14978157 -0.3730658 -0.3922536 -0.028750682
0000b0 4f 79 0b be c2 36 0f bd 61 e2 fe 3d 26 eb 10 be
       -0.13620494 -0.03496433 0.12445522 -0.14152202
0000c0 69 43 87 be 70 25 63 be aa 16 a0 be 9b 9c 92 3e
       -0.26418617 -0.2218225 -0.3126729 0.28635105
0000d0 f9 3d 94 3e c2 c3 64 be eb 68 86 be 96 a7 b2 be
       0.2895353 -0.223403 -0.2625192 -0.34893483
0000e0 bf 50 2a bd 22 e0 42 3d d8 03 8b 3e 36 3c fb 3d
       -0.04158091 0.04757703 0.2715137 0.12267344
0000f0 14 13 37 3d 2b b4 14 be 2e b1 98 be 67 1f fc bd
       0.04469593 -0.14521854 -0.29822677 -0.12310677
000100 0f bf c4 bd aa 50 b8 be 43 e0 4a 3e aa 61 ab bd
       -0.09606754 -0.35999042 0.19812112 -0.08368237
000110 90 9c c4 bd 90 9e 58 be 69 6d b0 be 09 9b 15 3e
       -0.096001744 -0.21154237 -0.34458473 0.14609922
000120 2d dc 88 3e f2 dd 86 be 2f c5 c7 bd 9f cd 04 bd
       0.2673048 -0.26341206 -0.09754407 -0.032422658
000130 36 0b 8d be a3 c9 3e 3e 8b 95 76 3e 00 f6 34 3e
       -0.27547616 0.18631606 0.24080484 0.17671967
000140 3a ca 6d bc 07 bd 1b be 68 09 b7 be 96 e6 28 be
       -0.014513547 -0.15208827 -0.35749364 -0.16494212
000150 3f e8 48 bd aa a2 bb 3c 05 27 9e 3e 6e 3f 18 be
       -0.049049612 0.022904713 0.30889145 -0.14867947
000160 11 ff a2 bd 3e a8 94 be eb 2b c3 be 8e f3 a2 bc
       -0.07958806 -0.2903461 -0.38119444 -0.019891527
000170 a2 ec cc 3e 84 1b 01 bd 91 06 ac be 63 aa c0 bd
       0.40024287 -0.03152038 -0.3359876 -0.09407499
000180 a7 a4 20 bc 1b 27 cf 3e ba 72 cd 3e 7e 9c b2 3e
       -0.009804881 0.40459523 0.40126592 0.3488502
000190 be 3a 06 bd 3a b9 57 be 3e a5 76 3d 99 11 d9 3b
       -0.032770865 -0.21066752 0.06021618 0.0066244123
0001a0 75 05 59 be 66 37 88 3d 8e 44 61 3e a4 e5 93 3b
       -0.21193488 0.066511914 0.21998808 0.0045134593
0001b0 d7 b1 8c be 3b ab 71 bd c8 08 3a be a6 6e 96 3e
       -0.2747943 -0.05900119 -0.18167412 0.29381293
0001c0 9a 72 c7 3d 38 35 4e bd 6a 01 ab bd 19 c0 d6 bc
       0.097386554 -0.050343722 -0.08349879 -0.026214646
0001d0 68 82 3b be b2 e0 6e 3e 65 21 92 bd 5f 62 27 3e
       -0.18311465 0.23327902 -0.07135276 0.1634612
0001e0 de ce 76 bd 6a d1 cd be 4b e0 b3 be b4 fb 40 3c
       -0.060255878 -0.40198833 -0.3513206 0.011778761
0001f0 85 53 09 bc 53 f5 9f 3c 0c 3b a7 3e c1 f9 af be
       -0.008381729 0.01952616 0.32662237 -0.34370235
000200 22 4b ba be f4 15 58 be f8 4b a8 be 1c 5e a7 3e
       -0.36385447 -0.21102124 -0.3287046 0.32688987
000210 b0 cb 3a 3d eb a4 92 be f5 bb c6 be 8e 66 98 be
       0.045604408 -0.28641447 -0.38815275 -0.29765743
000220 7d 09 28 3d e5 fa b7 3e 1c 05 96 3e a0 6e a1 3e
       0.041024674 0.35933605 0.29300773 0.31529713
000230 59 11 96 3e ac 2a 7c be c5 92 ac bd fd 74 ad 3c
       0.2931011 -0.24625653 -0.084264316 0.021173948
000240 42 f1 90 bd 8b 9c 05 3d d5 a3 85 3e 9f 20 2b bd
       -0.07077266 0.032619994 0.26101556 -0.041779157
000250 82 3a 93 be dc 8d 9c bd 16 0a 2a be 70 7f 02 3e
       -0.28755575 -0.07644245 -0.1660541 0.12743926
000260 4d ce b1 3d c7 ba 9e be 7c 73 b5 be 5c ad 02 bd
       0.08681927 -0.31001875 -0.3543967 -0.03190361
000270 9a f0 d1 bb 65 91 22 3e c4 43 41 3d f2 ae ad 3e
       -0.006406856 0.15875776 0.047183767 0.33922535
000280 e2 a5 2c bd 2c b2 e0 bc e0 03 31 be 71 e2 06 3e
       -0.042150386 -0.027428709 -0.17286634 0.13172318
000290 4e 1f 0b bd ff 22 71 be 26 5f 96 3e 38 96 c4 3d
       -0.0339654 -0.23548506 0.29369467 0.095989645
0002a0 dd 9f c5 bd f1 f6 6c 3d ab c8 cc bd 00 89 14 3d
       -0.09649632 0.05785269 -0.09999212 0.036263466
0002b0 24 73 57 3e 3f 52 33 bd 84 a5 67 be 80 e1 13 be
       0.21040016 -0.043779608 -0.22621733 -0.1444149
0002c0 f1 d1 0e be 8f cd c8 3c b0 5c 0f 3e 1b 33 8f 3e
       -0.13947274 0.02451208 0.14000201 0.27968678
0002d0 af 63 16 3e 43 d0 b2 be 45 e6 43 be 6f 57 b7 bd
       0.14686464 -0.34924516 -0.1913081 -0.089522235
0002e0 8b ba 4d bd a7 06 d6 be 71 d4 13 3e 8c a2 ba be
       -0.05022673 -0.4180195 0.14436509 -0.36452138
0002f0 60 13 9a be 39 aa fb bd fb a6 ab be 2a 6c 91 3e
       -0.30092907 -0.12288327 -0.33525833 0.28402835
000300 da b1 cc 3e cf 9e 46 be 71 56 b4 be 6c 6f 90 be
       0.3997944 -0.19396518 -0.352222 -0.28210008
000310 51 63 0a be c4 85 0c 3d c6 e5 8e 3e c2 63 9c bc
       -0.13514449 0.034307256 0.27909678 -0.019090537
000320 82 3d c9 be d7 17 96 be 2f e2 14 be 62 d1 0d 3d
       -0.3930474 -0.29315063 -0.14539407 0.03462351
000330 3a a9 c9 be 45 28 b3 3d 5f 45 33 3d 64 d6 3e bd
       -0.39386922 0.08747915 0.04376733 -0.046591178
000340 b1 9e 00 bd 7d 54 9b be c7 b8 1e 3e ac 0e 70 3e
       -0.03140134 -0.30337897 0.15500174 0.23443097
000350 b4 3b 86 3e 5a db fb 3c 07 0d 81 be 17 51 a4 3d
       0.26217425 0.030744243 -0.25205252 0.08023279
000360 29 75 f5 bd 25 8e 58 3e 06 28 39 bc f8 66 5c 3d
       -0.11985237 0.21147974 -0.011301046 0.053809136
000370 be cb a1 be a5 d7 61 be bf 61 a5 bd 10 46 99 be
       -0.31600755 -0.22054918 -0.08075284 -0.29936266
000380 75 9d af bd 1f dd ba bc cd d3 14 3e 42 48 93 be
       -0.085749544 -0.022810517 0.1453392 -0.28766066
000390 45 cc a8 be b1 03 4b be 80 65 9a bd 16 90 b1 3e
       -0.32968345 -0.19825627 -0.07538891 0.3468024
0003a0 1b 32 93 3e ca df 22 be 98 0e 4b bd 75 38 b2 be
       0.28749165 -0.15905681 -0.049574465 -0.34808698
0003b0 65 90 9e be 3b 69 70 3e c7 28 25 3d f3 4e 65 3e
       -0.3096954 0.23477642 0.04032209 0.22393398
0003c0 4a 57 aa be 88 6a 28 be 7c 5b 82 be 23 fd 24 3d
       -0.3326972 -0.16446888 -0.25460422 0.040280472
0003d0 83 45 29 be de 40 d0 3d 90 b3 62 3e b0 8e 27 3d
       -0.16530423 0.101686224 0.2213881 0.04090756
0003e0 33 3d 90 bc 6b 71 0e be cc a9 c9 bc 03 82 e8 3d
       -0.017607307 -0.13910453 -0.024617098 0.11352923
0003f0 45 12 12 3e 54 9b 5e be 52 47 ed 3d 93 31 c9 bd
       0.14264782 -0.2173894 0.11585869 -0.09823909

lstm.bias_ih_l0 f4 [80]
000000 e8 5e 68 be d3 91 ed 3d d9 aa 47 3e 86 69 6d 3e
       -0.22692454 0.116000794 0.19498767 0.23184785
000010 e0 f9 15 3d 2b b9 33 bd 23 7d 98 3e 2f e9 89 3e
       0.036615252 -0.04387776 0.29782972 0.26935717
000020 4e 08 83 3e a9 0e 09 3e 00 da ce 3d 45 20 96 3d
       0.25592273 0.13384499 0.10100174 0.07330374
000030 6f 48 0f 3e 32 b2 b6 3d 66 89 ca 3e 74 da b6 3e
       0.13992475 0.08920707 0.39557952 0.35713542
000040 3f 5c cb 3e b5 10 ae 3e 80 1f 46 3e 1a c5 cd 3e
       0.39718816 0.3399712 0.19347954 0.4018944
000050 03 67 91 be ef 56 d5 3e 5d 2b dd 3e 38 51 cb 3e
       -0.28398904 0.41667888 0.43197146 0.39710402
000060 ea 19 9d 3d a7 07 69 3c 23 64 0c 3e fe b4 84 3e
       0.07670958 0.014223016 0.13710074 0.25919336
000070 4a de 1f 3e 38 13 99 3e b2 fe 5b 3e 1f 93 a1 3d
       0.1561214 0.29897475 0.21483877 0.07889389
000080 ae fc f4 bc 88 93 54 3e 77 4d 65 3e bb 52 91 3d
       -0.029905643 0.20759404 0.22392832 0.07095858
000090 7f 79 69 3e 74 53 47 3d 14 a6 49 3d cb 61 e6 3d
       0.22800253 0.04866357 0.04923065 0.11249121
0000a0 75 bb b8 3d b0 c9 c4 be e5 49 b0 be 01 6f d6 be
       0.090201296 -0.38435125 -0.34431377 -0.41881564
0000b0 23 90 33 be 8a db 97 be 1f 87 90 3e 13 21 bb be
       -0.17535453 -0.29659683 0.2822809 -0.3654867
0000c0 2a 69 47 be 3f 7d a6 be a4 c0 b1 3b 7c 6d c0 3e
       -0.1947371 -0.3251743 0.005424576 0.3758353
0000d0 3a 90 7f 3e 90 75 b6 bd 8f 5c e3 be d2 03 99 be
       0.24957362 -0.08909142 -0.44406554 -0.29885727
0000e0 99 d8 95 be 06 e6 32 3e 8a 40 a1 3e c1 04 9e 3e
       -0.29266813 0.1747056 0.31494552 0.30863002
0000f0 b4 64 63 bd 32 3e 99 be ad cb 31 3d 13 b0 83 bd
       -0.05551596 -0.29930264 0.04340713 -0.06430068
000100 00 94 0e 3e 59 cb 42 be ae 5a 07 3d bf 29 16 3d
       0.13923645 -0.19022883 0.033045463 0.036660906
000110 4a c3 0d bf 85 0d c5 3d c5 70 6a bf 8c 09 a0 be
       -0.5537611 0.09621719 -0.9157832 -0.31257284
000120 55 11 b9 be 85 88 34 bf 2a 2f 7d 3e 06 3a 95 3e
       -0.36146036 -0.7052081 0.24725023 0.2914583
000130 9d 0f 22 3e db a6 ca bd 22 cf 25 3d f3 65 b0 3e
       0.15826268 -0.098951064 0.04048074 0.3445278

lstm.bias_hh_l0 f4 [80]
000000 16 f7 46 be 25 09 a1 3d ea 4b 53 3e 31 bb c3 3e
       -0.19430193 0.07863072 0.20634428 0.38228753
000010 01 e9 58 3e 46 c1 94 3e cd d2 54 3e 33 07 8c 3e
       0.21182634 0.29053706 0.20783539 0.27349243
000020 f6 1d 38 3d d9 a0 6c 3e 52 54 43 be ce da 02 bd
       0.044950448 0.23108234 -0.19075134 -0.03194695
000030 ed 23 45 3d de 5b 59 3e d4 92 c2 3e 59 6e 78 3e
       0.048129965 0.21226451 0.38002646 0.24260844
000040 84 53 9c 3e 18 1d a3 3e 43 42 02 bc 22 6d 4f 3c
       0.30532467 0.31858134 -0.007950368 0.012660297
000050 f8 eb a6 be d3 a6 56 3e 38 9c 93 3d e4 41 e5 3d
       -0.32601905 0.20962076 0.07207531 0.11194208
000060 4a 40 17 3e 89 39 61 3e 71 fe 32 3e 3b 43 cb 3e
       0.14770618 0.21994604 0.17479874 0.3969973
000070 76 8a 7b 3e d1 e6 85 3d 05 71 c2 3c 38 f7 2f 3e
       0.24564537 0.06538165 0.023735533 0.1718415
000080 d5 63 74 3e ab b8 81 3d 2b 04 97 3d df bb 74 3d
       0.23866208 0.06334051 0.07373842 0.05974948
000090 4c 06 be 3e 39 cf 1e 3e 06 a3 fe 3c c4 f6 b3 3e
       0.3711418 0.15508737 0.031083595 0.35149205
0000a0 92 b0 cc 3d f3 1b 45 be 2c 65 bd be c4 c8 91 bc
       0.099946156 -0.19248943 -0.3699125 -0.017795928
0000b0 85 cf 9d be 51 fe 68 be a7 ff 57 3d 88 aa a2 be
       -0.30822387 -0.22753264 0.052734043 -0.3177073
0000c0 08 0f 68 be 8a 15 ae be 6c 64 6d be 3d 4e 00 3e
       -0.22661984 -0.34000808 -0.23182839 0.12529846
0000d0 5b 25 05 3e 26 c0 77 be 9a c3 66 be e2 68 9d be
       0.13002531 -0.24194393 -0.22535554 -0.30744082
0000e0 03 59 cb bd a0 f5 d4 3e a2 a9 4c 3e 82 22 ab 3d
       -0.09929087 0.41593647 0.19986585 0.08356191
0000f0 f7 26 a7 be 2b 36 fd be f2 40 4b 3e 2a 0e 2e bc
       -0.32646915 -0.4945539 0.19848993 -0.010623494
000100 02 bf 6c 3e 48 b8 df bd d4 f9 2b 3e d9 df 09 be
       0.23119739 -0.10923821 0.1679452 -0.13464297
000110 b7 94 90 be f6 95 25 3e 4a a7 8e bf bc 00 71 be
       -0.2823846 0.16170487 -1.1144803 -0.23535436
000120 0f 5b ca be 93 ae 1e bf 42 42 48 3d f4 10 53 3e
       -0.39522597 -0.6198513 0.048891313 0.20611936
000130 67 cf 26 3e dc 3b 1e be 27 25 ee bd 07 21 b0 3e
       0.16290055 -0.15452522 -0.1162818 0.34400198

add_trend.weight f4 [3, 20]
000000 b8 7a 8a 3c 6d 88 b1 be 75 09 1c be a4 15 35 be
       0.01690422 -0.34674397 -0.15237983 -0.17684036
000010 6b 62 60 be c0 ce 13 3e 18 da 43 3d 90 30 62 be
       -0.21912543 0.14434338 0.047815412 -0.22088838
000020 19 35 e9 3d 24 c9 c2 bd 89 f4 e8 3f c0 18 85 3e
       0.11387081 -0.09511021 1.8199626 0.25995445
000030 37 2e 89 bf 48 1b 24 3e 3c 62 a9 3d 84 0a 41 3d
       -1.0717229 0.16026032 0.0827069 0.04712917
000040 ea b0 3b bd 30 68 82 3e 1e 3f 27 3e d6 42 50 3e
       -0.045823015 0.25470114 0.16332671 0.20337996
000050 34 64 b4 3d c9 b6 a6 be d9 cf ab be bb 63 a2 be
       0.08808175 -0.3256133 -0.33557013 -0.31716713
000060 b3 8b 8d bd 59 87 95 bc c3 f6 57 3b 52 fb c2 bc
       -0.06911411 -0.018253015 0.0032953478 -0.02380148
000070 5f 88 21 3e 34 a2 a2 be c2 cc c3 be 29 22 06 3d
       0.15774678 -0.31764376 -0.38242155 0.03274742
000080 3e 87 20 3f 4a 28 41 bf 28 89 88 be fa b2 ac be
       0.62706363 -0.754521 -0.26667142 -0.33730298
000090 48 b7 b7 be 26 4e d3 3e 0d 60 c1 3d 43 4a 2f 3e
       -0.3588202 0.4127056 0.09442148 0.17118172
0000a0 1d 8c ee bd 49 75 f7 bd 03 6b 8f be 76 81 ad be
       -0.11647818 -0.12082917 -0.2801133 -0.33887833
0000b0 0d 37 82 be 44 e2 09 bf c8 ef ba 3e 15 1b b9 be
       -0.25432625 -0.5386088 0.36511064 -0.36153474
0000c0 d6 c8 fb be 3f 8b 90 be 93 b7 99 bf 95 c6 ee 3e
       -0.49176663 -0.28231236 -1.2009147 0.4663588
0000d0 a8 33 6c 3f 74 37 2a bf 6e c1 b5 be 65 28 00 be
       0.9226632 -0.66490865 -0.35499138 -0.1251541
0000e0 0d 9f 1d be 28 55 4e 3e 38 32 c2 3e 60 43 a0 3e
       -0.15392704 0.20149672 0.3792894 0.31301403

add_trend.bias f4 [3]
000000 58 19 9f bc 13 73 e6 3d 86 ad ab 3e
       -0.019421265 0.112524174 0.33530825
