forecast-res/section_18/pretrained_model/7999_pretrained_model.pkl (torch, 10767 bytes, 8 tensors)

init_ar_parameters f4 [36]
000000 cb 40 3f 3f 20 50 18 be e9 94 c1 bd 07 e7 4a be
       0.7470824 -0.14874315 -0.094522305 -0.19814692
000010 fb 44 ce 3e fd 49 13 3e 3d 14 88 3d e6 2e 67 3b
       0.40287003 0.14383693 0.06644485 0.0035275756
000020 ed 9b 7c 3e 0f 1c 35 be 93 67 85 3e bc c8 0c be
       0.24668856 -0.17686485 0.26055583 -0.13748449
000030 14 17 5d bd 4c 6f c0 3c ca 35 8a 3e dc 8d 9b 3e
       -0.053977087 0.02349057 0.26994163 0.30381668
000040 3a 21 49 3d 0a 97 56 be 03 30 03 be 86 6c 9d 3d
       0.049103953 -0.20956054 -0.12811284 0.07686715
000050 6c 3f 8a be 41 76 a9 be 1c 93 0b bf fd 4f 0e bf
       -0.27001512 -0.33098033 -0.54521346 -0.555908
000060 69 9f 3c 3f 86 b9 f5 3d 55 33 83 3e 65 42 4b 3e
       0.7368074 0.119982764 0.256251 0.19849546
000070 96 de 0b be 6a 08 17 3e be ca 56 bd cd 46 16 3d
       -0.13659129 0.14749303 -0.052439444 0.036688615
000080 c0 38 a2 3e 12 ae a4 be c4 91 ec ba 40 fc d9 bd
       0.31683922 -0.32164055 -0.0018048813 -0.10643816

init_residual_params f4 [6]
000000 85 68 e9 3e 7a fe 81 3e e0 f3 05 3f 00 a1 ba 3e
       0.45587555 0.25389463 0.5232525 0.36450958
000010 c6 2b e8 bd 36 72 15 bf
       -0.11336474 -0.583774

lstm.weight_ih_l0 f4 [80, 3]
000000 ea b8 7f 3e da 1c 30 3f 3d 35 11 3f 18 da 51 3f
       0.24972883 0.68794024 0.5672186 0.8197341
000010 42 1d c1 3f 32 88 01 40 e9 37 0a be 39 5c 91 3e
       1.5087054 2.0239377 -0.1349789 0.28390673
000020 a9 11 06 3e a5 22 2f be a0 ab be 3f b9 79 79 40
       0.13092674 -0.1710306 1.4896126 3.8980544
000030 9c f5 c8 bc 19 b3 8b bd 55 dd fb 3d 6c cf 08 3c
       -0.024531178 -0.068212695 0.12298075 0.0083502345
000040 72 ef d4 3d 29 5d 5a be 41 22 2a 3f 6a c8 3f 3f
       0.10397233 -0.213246 0.6645852 0.7491518
000050 56 6e 87 3f be 2d 05 3e 78 b4 ff 3c 50 1a 04 bf
       1.0580547 0.1300573 0.031213984 -0.5160265
000060 7e 94 eb 3d d7 03 82 3e 4a a3 31 3f 1e e6 1e 3f
       0.11502932 0.25393555 0.69389784 0.6206988
000070 14 ea c6 3e c8 5a 49 bc 43 35 c4 be 78 a1 23 bf
       0.38850462 -0.01228971 -0.38321885 -0.63918257
000080 15 42 09 bf 7d 57 5a 3e 51 ab 74 3e 27 f3 60 3f
       -0.5361646 0.21322437 0.23893477 0.8787102
000090 8a 07 b4 be 7d 59 39 bf a4 a7 81 bf e5 d7 04 3d
       -0.35162002 -0.72402173 -1.0129285 0.032432456
0000a0 8d e2 40 be e5 22 d5 be af 8b a1 3e 6a 42 12 3f
       -0.18836422 -0.41628185 0.31551883 0.5713259
0000b0 03 b4 c6 3e f0 c4 07 3f be ce 54 3f 37 79 69 3f
       0.38809213 0.5303488 0.83127964 0.91200584
0000c0 00 a0 d5 3e b7 46 17 3f dc fe 43 3f 46 8c 58 be
       0.41723633 0.5909228 0.7656076 -0.2114726
0000d0 44 d2 33 be e5 47 86 3d d2 47 30 3e 6d e2 73 be
       -0.17560679 0.065566815 0.17214897 -0.23816843
0000e0 42 5f 38 3f 9e 8b 13 3f d3 6c 37 3f 7a f9 1a 3f
       0.7202035 0.57634914 0.7165043 0.6053692
0000f0 d5 56 ce 3e 85 a9 1b 3f 38 4d ae 3e c6 7b d1 3e
       0.40300623 0.6080554 0.34043288 0.40914744
000100 7e c2 73 3f b5 fe ad 3f 85 32 d9 3e 61 9c 2d 3e
       0.95218647 1.3593355 0.42421356 0.16954185
000110 37 96 d5 3d ef f5 a0 bd ea 61 12 bf 12 25 24 bf
       0.10429042 -0.07859408 -0.57180655 -0.64119065
000120 43 8d 1d 3e 50 5d 48 3d 01 69 0d 3c c1 7d db bc
       0.15385918 0.048917115 0.008630992 -0.026793363
000130 3a d0 06 3b da dc 85 be a0 d0 35 3f 73 f4 92 3f
       0.002057089 -0.2614506 0.7102146 1.148085
000140 04 33 b0 3f fd ee 46 be b6 22 ce be db 78 05 bf
       1.3765569 -0.19427104 -0.40260857 -0.52137536
000150 5f bd 65 3e 41 44 b5 3e 40 94 8e 3e 32 8d f0 3e
       0.2243552 0.35403636 0.2784748 0.46982723
000160 0a bb b1 3e b7 8b 75 3e e3 de 86 3d 39 20 6a be
       0.34713012 0.23979078 0.06585481 -0.22863854
000170 73 85 e3 be b7 0a 93 bd ba cf 13 3f 42 63 32 3f
       -0.4443775 -0.07179778 0.5773884 0.69682705
000180 c1 80 ab be 92 c2 5d bf d3 3b 8a bf eb ff 4a bc
       -0.3349667 -0.86625016 -1.0799507 -0.012390117
000190 f2 79 02 bf 92 55 3e bf 4c e8 09 3f 11 a4 17 3f
       -0.50967324 -0.7434932 0.5387008 0.5923472
0001a0 6d 3a 8c 3e 94 f7 0a be 95 5f a3 3d a6 79 0c bf
       0.27388325 -0.13571006 0.07977215 -0.5487312
0001b0 fc ae 9d 3e b2 b5 52 3f d1 14 71 3f 7f 9e 0d 3e
       0.30797565 0.82308495 0.9417239 0.13829993
0001c0 c4 82 a7 3e 03 07 a1 3e 10 19 fd bd 91 dc ce be
       0.32716954 0.31450662 -0.12358296 -0.40402654
0001d0 34 2e c5 3e 4a e5 cb 3e db 48 8d 3e 20 b6 97 3e
       0.38511813 0.3982337 0.27594647 0.29631138
0001e0 c2 a5 58 3e 64 ac 21 3f 55 c1 27 3f d5 d6 69 bd
       0.21156982 0.6315367 0.65529376 -0.057089645
0001f0 87 31 b1 be cd 31 4c bf 3a 4b 01 3e 06 a0 83 3e
       -0.346081 -0.7976349 0.12626353 0.25708026
000200 5f 38 44 3e bf 82 97 be c8 63 c3 bd 3c 4f fc 3e
       0.19162129 -0.2959194 -0.09540516 0.492792
000210 7d fe 7a 3e c0 cb e8 3c 20 fc 81 3e 89 d4 a1 3e
       0.24511142 0.028417468 0.2538767 0.31607464
000220 85 8a 68 3d 17 64 9f be b1 0b 80 3f 7e 1f a6 3f
       0.056772728 -0.3113105 1.0003568 1.2978361
000230 c0 21 85 3f 2f 80 2c 3e 82 8a f8 bc 85 6f 16 bf
       1.0400925 0.16845773 -0.030339483 -0.58763915
000240 61 ae 4b 3d 85 9d d4 3e 65 9f 66 3e 37 07 95 be
       0.049726848 0.41526428 0.22521742 -0.29107067
000250 bd 01 43 bf 7d 18 a1 be af c6 14 3e d0 72 a3 3e
       -0.7617453 -0.31463996 0.14528917 0.31923532
000260 c3 b6 06 3f 46 54 ae 3e 89 86 a0 3d 40 96 36 3f
       0.5262262 0.3404867 0.078381605 0.71323013
000270 62 3b 37 bf 67 c9 5b 3e 17 5c da 3e b6 c8 2d 3e
       -0.71574986 0.21463548 0.42648384 0.16971096
000280 7d 61 2d 3f e3 9a 53 3f 01 ee 4a be fb a0 bd bd
       0.6772688 0.82658213 -0.19817354 -0.0925922
000290 68 3d 6b be 03 cb 51 be 18 61 e7 bd 43 5e ef be
       -0.22972643 -0.20487599 -0.11297816 -0.46751603
0002a0 bf 37 75 3e 9a 73 b2 3e 2c 14 39 3f eb d8 a7 be
       0.23947047 0.34853822 0.72296405 -0.32782683
0002b0 b8 fd ad 3e fa ab d9 3e e3 50 2d 3e d8 bb fc be
       0.33982635 0.4251402 0.16925387 -0.49362063
0002c0 70 97 cc be d5 d9 94 3d da b1 1e 3e 2e c0 09 3f
       -0.39959288 0.07268111 0.15497532 0.5380887
0002d0 18 d7 02 c0 0b 58 36 c0 f2 d4 4e c0 ad 92 32 bf
       -2.0443783 -2.8491237 -3.2317472 -0.6975506
0002e0 b3 c6 7b bf fe 24 2f bf 8d 05 8e c0 17 50 9b c0
       -0.98350066 -0.6841582 -4.4381776 -4.8535266
0002f0 52 c2 93 c0 b3 c9 b9 3d 9a 27 d9 3f ff 29 77 40
       -4.6174707 0.09071674 1.696521 3.8619382
000300 da e5 15 3e e3 ee c2 be e5 76 64 bf cb 5e d1 bd
       0.14638463 -0.3807288 -0.8924392 -0.102231584
000310 f7 a4 9c bf 75 0d 52 c0 a6 b8 52 c0 59 2a 91 c0
       -1.2237843 -3.2820714 -3.29252 -4.5364194
000320 68 36 9e c0 f8 b6 13 3e 49 57 27 3e 36 94 1d be
       -4.9441414 0.14425266 0.1634189 -0.15388569
000330 25 de ab 3d ba 1b a4 3e 7b 39 8a 3e af 28 8c 3e
       0.0839198 0.32052404 0.2699698 0.2737479
000340 65 ed 2d 3f 23 cc e6 3f 2b 45 77 bf 50 bd 89 bf
       0.6794036 1.8031048 -0.96589917 -1.0760899
000350 9b 64 9c bf 6f 93 98 3e 99 a7 99 bf c1 03 18 c0
       -1.2218202 0.29799983 -1.2004272 -2.3752291
000360 c4 26 56 be 8b 26 0c bf b7 45 9b bf c2 b6 fd be
       -0.20913225 -0.5474631 -1.213065 -0.49553496
000370 4a 19 0a bf 1c b9 3f bf 42 88 63 3f 7a 68 e0 be
       -0.5394484 -0.7489183 0.8887979 -0.4382971
000380 4f e9 cf bf ac 9c 0b 3d fc 60 70 be 9d b9 4c bf
       -1.6243075 0.03408496 -0.23474497 -0.79970723
000390 e8 c9 06 bf bd 56 a4 be 16 aa fb be fb bc 2b 3f
       -0.52651834 -0.32097426 -0.49153203 0.67085236
0003a0 f1 4f dd bf c4 de 64 c0 99 2f 65 be f8 48 d1 be
       -1.7290021 -3.5760965 -0.22381438 -0.40875983
0003b0 80 80 16 3d c6 b5 97 bd 5f 51 27 3f ca f3 19 40
       0.03674364 -0.074077174 0.6535854 2.4055047

lstm.weight_hh_l0 f4 [80, 20]
000000 b6 4f a4 3d a8 ad a3 be 79 d8 99 be a2 99 33 3c
       0.08023016 -0.31968427 -0.30047968 0.010961922
000010 74 7f 26 3e 47 8e a5 3e 66 41 cc be 37 26 e8 3d
       0.16259557 0.32335111 -0.39893645 0.11335414
000020 cd df 89 3e de 77 7a bf ee 5d b6 3d f1 d1 9f 3d
       0.2692856 -0.9783915 0.089046344 0.07803715
000030 63 fb 60 3f 38 69 55 3d a4 23 2f bf e5 93 49 3f
       0.87883586 0.052102298 -0.6841376 0.78741294
000040 f7 aa 41 3e 88 3c ce 3e e4 f1 71 3d 22 6d 45 bf
       0.18912874 0.40280557 0.059068576 -0.7711965
000050 70 80 1a 3e 87 1c 37 3d dc 68 8a 3d 4d 7f 03 3e
       0.15088058 0.04470494 0.067582816 0.1284153
000060 15 9e 04 3f 19 62 e3 3e d2 32 fc bd 1a 84 a0 3e
       0.51803714 0.4441078 -0.12314381 0.31350785
000070 97 f7 db 3e 82 74 56 bf 8d bd da bd 7b e0 b3 3e
       0.42962334 -0.83771527 -0.10680685 0.35132203
000080 01 3e a8 be 4c d9 fb be 0b 38 81 bf 5a cd 5b 3e
       -0.32859805 -0.49189222 -1.0095228 0.21465054
000090 46 38 a8 3e de 58 47 bf e1 e3 06 3f 82 3a 37 3e
       0.32855433 -0.77869976 0.52691466 0.17893413
0000a0 95 ed 81 3e 03 56 19 bf cf 5b 7c 3e 43 88 63 3d
       0.25376573 -0.5989687 0.24644397 0.05554987
0000b0 dd 90 39 3f 69 55 05 3f 8d f8 87 3f d0 fb 8f 3e
       0.7248667 0.5208345 1.0622727 0.28121805
0000c0 31 7a 52 3e 53 47 87 be 7b 98 28 be 94 39 34 3f
       0.20554425 -0.26421604 -0.16464417 0.7040036
0000d0 13 11 70 bf 1f 32 89 be 90 89 05 bf 96 dc 13 bf
       -0.93776053 -0.26796052 -0.5216303 -0.5775846
0000e0 be b2 45 3e 13 21 f9 be 2a 41 f2 bb 7f 01 74 3f
       0.19306466 -0.48658046 -0.007393022 0.9531478
0000f0 1e ac b3 bd 6c aa 83 3e c1 f7 b7 3f 7b 6a da be
       -0.08773063 0.2571596 1.4372483 -0.42659363
000100 ec cc 7d bf c8 70 af bf 64 9e 94 3f 07 39 4f be
       -0.9914081 -1.3706293 1.1610837 -0.20236598
000110 9a b0 5b 3c cb b0 43 3d c6 c4 46 3d 33 71 03 3f
       0.013408804 0.047776025 0.0485275 0.51344603
000120 13 0e 2e 3e c6 49 f5 bd 66 bf a9 bd aa 64 b4 bd
       0.16997556 -0.11976962 -0.082884595 -0.08808263
000130 65 be 73 bd 02 4f d1 be fa 8d 05 bf 5f 1c cc 3d
       -0.059507746 -0.4088059 -0.52169764 0.09966349
000140 bd 3e ca 3e f9 72 f4 be 2f 49 48 3e 9a 41 a7 3d
       0.3950099 -0.47743967 0.19559167 0.081668094
000150 0a 30 b3 3c 2e b6 a3 3e de 26 83 3e 38 f8 ac 3d
       0.021873493 0.3197493 0.2561559 0.084457815
000160 bc 3d 06 3e a7 60 bd bd fb 75 51 be 3e 58 a2 3e
       0.13109487 -0.092469506 -0.20455162 0.31707948
000170 2c bf 83 be 0c 6a f8 bd aa 0a 51 bf 74 76 e5 3b
       -0.2573179 -0.12129602 -0.816569 0.007002646
000180 fe 73 84 3e 84 31 fa be 04 01 9d 3d 15 44 f3 3d
       0.25869745 -0.48865902 0.07666209 0.1187822
000190 08 9e 91 3d 33 3a 3d bd 6d 05 c6 be 92 97 8c 3d
       0.0711022 -0.04619808 -0.38676015 0.06864847
0001a0 b6 71 2f be 39 3f 10 3d 8e 9a 99 be e3 fb 26 bc
       -0.17133221 0.035216544 -0.30000728 -0.01019189
0001b0 8e 10 28 3e a4 76 d3 bd 3c 91 ea be 8e 12 d1 bd
       0.16412565 -0.10325363 -0.4581393 -0.10208617
0001c0 7c b3 a6 3e 2c 6b ea be d2 40 a0 be 76 5c d4 3d
       0.3255881 -0.4578489 -0.31299454 0.10369198
0001d0 e7 5d fc 3c b6 6e 36 bf 3c 28 12 3d 07 2c 1c 3e
       0.030806495 -0.7126268 0.0356829 0.1525117
0001e0 76 64 76 3d ab a8 67 be 93 ca 4c bf 70 7e 92 bd
       0.0601544 -0.22622935 -0.79996604 -0.07153022
0001f0 f7 c1 80 3e b0 8b 88 3d 36 6f 73 3d b2 45 6f be
       0.25147983 0.06667268 0.05943223 -0.2336643
000200 94 46 e8 3d ba 5e 0d bf d2 d0 9e be 16 b8 c0 3d
       0.11341587 -0.55222666 -0.31018692 0.094101116
000210 58 3f 3a bf 5d 2c 5b 3d 11 d0 1a bf 35 0c a7 be
       -0.72752905 0.053509105 -0.60473734 -0.326265
000220 a4 a4 cd 3d 3f 2a f2 be 06 ff 89 bc a5 0e e0 3e
       0.10041168 -0.47297856 -0.016845237 0.43761173
000230 4c a1 85 3e e8 07 50 bf 62 4a 40 3f 6c f3 c1 3d
       0.26099622 -0.81262064 0.751135 0.09470257
000240 f2 36 97 3e 1d cf 7b 3e b9 30 3f 3e e8 94 a4 3e
       0.29534107 0.24590726 0.1867093 0.32144856
000250 1f c3 42 3e 6b 3b 34 bf ac ad 98 be 03 0c ac 3d
       0.19019745 -0.70403165 -0.2982 0.084007286
000260 5c ce 6b be 2d a2 cf bd 32 9d 12 bf 1e e8 1c bf
       -0.23027939 -0.101383545 -0.5727111 -0.6129168
000270 db d2 7b 3e d7 6b c9 be 8d 01 11 3e 6c 1e 43 3f
       0.24592154 -0.39340088 0.14160748 0.76218295
000280 28 46 ba 3d 29 fa 20 be 1c af 82 3e 14 d1 ab 3e
       0.090954125 -0.15720429 0.25524223 0.3355795
000290 a0 a4 49 be b2 d9 43 3d dd 99 ba bd 71 12 aa 3e
       -0.19691706 0.047815032 -0.09111378 0.33217195
0002a0 4a 33 23 3e 7b 86 13 be ac ea a9 be b8 82 1d 3f
       0.15937534 -0.14406769 -0.33186853 0.61527586
0002b0 e7 f6 c1 3d cc bd 9e be d9 7e df be 3d fe 40 3d
       0.09470921 -0.3100418 -0.43651465 0.04711746
0002c0 2d 55 bf 3d 5b 7e e5 be 22 af 03 3f 3c 20 6e 3c
       0.09342418 -0.44822964 0.51439106 0.014534052
0002d0 11 fd 93 3f 50 a1 78 bf 11 67 03 3f f2 3e 35 3f
       1.1561605 -0.97121143 0.5132914 0.7079917
0002e0 cd 87 61 3f 48 d6 47 3f 8f 21 8b 3f df ca 4f 3f
       0.8809784 0.7806134 1.0869616 0.8116893
0002f0 5e 16 83 3f c7 39 24 3f 52 39 3f bf 9e 49 d1 3e
       1.0241201 0.6415066 -0.7469684 0.40876478
000300 90 9e a7 bf f6 b0 62 bf 93 f6 ce 3e a6 11 84 bf
       -1.3095264 -0.8855127 0.40422496 -1.0317886
000310 5c f9 84 3f 80 83 12 3e 18 c4 69 3f 1c 11 a4 3f
       1.0388598 0.14307976 0.9131484 1.2817721
000320 57 67 b7 3e 0c 4c cb be 3a e8 8c 3f cf 8d 43 3f
       0.3582103 -0.39706457 1.100837 0.7638826
000330 99 6f 1f be 4a 80 1d be 47 c1 1d 3f 12 ff da bd
       -0.15569915 -0.1538097 0.6162304 -0.10693182
000340 c8 9e 5b be 19 c3 ce bd f4 90 29 bf d6 2b 86 be
       -0.21447289 -0.10095806 -0.66236806 -0.2620532
000350 aa dd f8 be 13 90 de 3c 53 af c0 3c b4 27 51 be
       -0.48606616 0.02716831 0.023521101 -0.20425302
000360 c0 da f0 3d f0 d9 07 3c 8f bd d7 3d 3e c7 1a 3f
       0.11760473 0.008291706 0.10534202 0.6046027
000370 4d 92 86 be 15 ec 2a bf bb 2d 74 be 7d bd 60 3e
       -0.26283494 -0.6676648 -0.2384557 0.21947284
000380 91 6d 2c bc ba 4b 72 3e 56 75 9e bd 16 37 d5 be
       -0.01052417 0.236617 -0.07737224 -0.4164359
000390 1d 0f 2e be 4c 25 46 bf 1d 45 65 be be f1 61 be
       -0.16997953 -0.7740066 -0.22389646 -0.22064874
0003a0 09 78 25 bd b8 38 cc bd 17 ab c4 be b7 92 e4 be
       -0.040397678 -0.09971756 -0.3841178 -0.44643185
0003b0 66 fa db 3e ef 74 8e be 5d 70 4d 3e 8f 95 48 3f
       0.42964476 -0.27823588 0.20062394 0.7835321
0003c0 c5 98 90 3f 03 46 9a 3d 50 fc 3c 3d f0 0e 1c 3f
       1.1296622 0.07532885 0.04613906 0.6096029
0003d0 77 ff a0 bd e7 71 1a be a7 98 b0 3e 90 10 9e be
       -0.07861226 -0.15082513 0.34491464 -0.3087201
0003e0 e5 2e f1 bd 09 a5 c0 3e 13 9b a4 3d e2 01 d3 3e
       -0.117765225 0.37625912 0.080373906 0.41212374
0003f0 08 8c 95 bf 80 3b 88 3d b8 43 43 3f 07 4c f9 bd
       -1.1683359 0.06651974 0.76275206 -0.12172704

lstm.bias_ih_l0 f4 [80]
000000 1b 13 12 3d 9e 12 94 3e 10 a4 1d 3f 17 a5 53 be
       0.03566275 0.28920454 0.61578465 -0.20668446
000010 47 fc 0b 3e 2b fb fb bd f4 f8 e6 3d 09 d7 9f 3e
       0.13670455 -0.12303766 0.11277953 0.31218746
000020 12 f5 18 3e 70 5a c4 3e fa 51 0e 3f e8 45 a4 3e
       0.14937237 0.38350248 0.55593836 0.32084584
000030 a5 e2 c5 3e 5b 39 65 3e 56 28 94 be 9d b2 0e 3f
       0.3864948 0.2238516 -0.28937024 0.5574129
000040 fb 56 61 3e 24 d4 b9 bd c4 e2 d3 3e f2 e0 58 3f
       0.22005837 -0.09073666 0.41383946 0.8471824
000050 d8 56 8a 3d 73 35 22 3d 46 ea 05 3d 8d 67 bf bc
       0.067548454 0.039601754 0.032694124 -0.023364807
000060 1b db b0 3d 9e a3 e3 bd 73 ee 04 bd 53 da 8c 3e
       0.08635541 -0.11115192 -0.032453965 0.27510318
000070 3d 7d 60 3e d2 4b 99 3e 5f b6 fa 3d 5c 68 a1 3d
       0.21922775 0.2994066 0.12241816 0.07881233
000080 58 27 90 bd b6 f4 cd 3c 3a 39 52 3d 98 94 1e 3d
       -0.07038754 0.025141101 0.051324107 0.03871593
000090 18 47 9c 3e c9 0a ed 3c 1e 56 eb 3d 21 80 40 be
       0.3052299 0.028935807 0.11491035 -0.18798877
0000a0 bf 28 c4 3e 9f c9 be be 2d 84 d5 3e 42 27 24 3e
       0.38312337 -0.372632 0.41702405 0.160306
0000b0 b6 2d 1e bd 18 79 9e 3e 26 d0 ee 3d 0a ac 4a 3e
       -0.038617812 0.30951762 0.11660795 0.1979219
0000c0 d8 1f 3c 3e a6 bc dc 3d 08 ce c1 be 25 e0 42 3e
       0.18371522 0.10778169 -0.37852502 0.19030817
0000d0 8e 0b 1e bf df db 72 be 42 d5 df bd 1a a8 9e be
       -0.6173638 -0.23716687 -0.109293476 -0.30987626
0000e0 1e 4b a6 3e 34 d5 0b 3e 9e d7 a2 3e 09 ad a7 3e
       0.32479185 0.1365555 0.31805128 0.32749203
0000f0 78 a3 0c bd 18 32 6f be 63 ad 44 be c1 0b 60 bd
       -0.034335583 -0.23358953 -0.19206767 -0.05469871
000100 bb 4c 1b be 2d bb 21 3f 43 94 2a be 6b 52 17 3e
       -0.15165989 0.6317623 -0.1665812 0.14777534
000110 90 b0 2e 3e 1c f6 06 bf 8e c0 73 be d6 9c c9 be
       0.17059541 -0.52719283 -0.23803923 -0.3937747
000120 6c 34 6f be b7 8b 7a be 10 fe b6 be 45 f0 4c be
       -0.23359841 -0.2446736 -0.3574071 -0.2001353
000130 5c 89 af bd bd be 48 bd 57 ad b9 3e 7d 85 9d be
       -0.08571121 -0.049010027 0.3626506 -0.30765906

lstm.bias_hh_l0 f4 [80]
000000 75 18 bd 3c 5a 96 ca 3e 9c 33 3f 3f ed 2b 1a 3e
       0.023082951 0.39567834 0.74688125 0.15055819
000010 02 d2 99 3e ae 46 40 3e 15 17 f8 3d 32 ee 00 3f
       0.30043036 0.18776962 0.121137775 0.5036346
000020 49 2c e8 3d be a0 ed 3e bd fa 06 3f 07 b1 a6 3e
       0.11336572 0.464117 0.52726346 0.32556936
000030 45 c3 a6 3e dd 04 8b 3e 08 a4 ca bd 19 15 15 3f
       0.32570854 0.27152148 -0.09894568 0.5823532
000040 38 5e 14 bd b9 dd e8 bc a0 e7 a0 3e 9c c2 25 3f
       -0.036222667 -0.028426038 0.31426716 0.64750075
000050 d8 61 ac 3d c3 30 8a 3e 5f 09 b4 bd ba 3c 33 bb
       0.084171 0.26990327 -0.0879085 -0.0027349428
000060 1b c4 6f 3c 38 ec 32 bc 7e d1 2a be d0 95 68 bd
       0.0146341575 -0.010920577 -0.16681477 -0.056783497
000070 02 0a a4 3e 0e ff fb 3e 1f 21 21 3e 75 cb e9 3d
       0.32038885 0.4921803 0.15735291 0.114157595
000080 ac 80 42 3e 36 01 d2 3e 72 73 77 3e 3d de 0c bc
       0.18994397 0.4101655 0.24165133 -0.008597908
000090 29 89 9f 3e 4a d6 59 be b4 4b c3 3e b3 dd 1d 3e
       0.31159332 -0.21273151 0.38143694 0.15416603
0000a0 d3 d2 30 3b a8 fa a0 be c1 b9 dd 3e ea 81 52 3e
       0.002698113 -0.31441236 0.4330578 0.20557371
0000b0 ed eb b9 3d 4e d2 9a 3e 80 db 2f 3e bc 49 cc 3e
       0.090782024 0.30238575 0.17173576 0.39900005
0000c0 2a 6c c9 3e ff cd 94 3e 47 90 08 bf 43 e1 14 be
       0.39340335 0.29063413 -0.5334515 -0.14539056
0000d0 4e 4d 04 bf 81 df d7 be 9f 29 91 3e ae 60 ec be
       -0.5168046 -0.42162707 0.28352067 -0.4616751
0000e0 5e 0b 6f 3e 82 af 91 3e c5 ab 02 3e 5e ad b5 3e
       0.2334418 0.28454214 0.12760837 0.3548383
0000f0 0a 9c 43 3e 37 9b 85 be 10 66 41 bd 06 0c 8d 3e
       0.19102493 -0.26094982 -0.047216475 0.27548236
000100 b3 bf 23 be ed b3 df 3e 56 21 7d 3e b4 90 a2 3e
       -0.15991096 0.4369196 0.24719748 0.31751025
000110 92 55 99 3e d5 b2 f7 be 31 42 bb 3d be 36 f8 bd
       0.29948097 -0.48378626 0.091434844 -0.12119816
000120 43 2d 81 be 69 77 21 3b d2 a5 2c bd 02 2a 1f be
       -0.25229844 0.0024637824 -0.042150326 -0.15543368
000130 4d d5 50 bd 85 56 ed 3d 74 35 69 3e f7 b7 f6 be
       -0.05098467 0.11588768 0.22774297 -0.4818723

add_trend.weight f4 [3, 20]
000000 6d c3 ed bf e4 94 ce be ba 06 24 40 da ed 81 40
       -1.8575264 -0.4034797 2.5629106 4.0602846
000010 a8 07 44 3f 9a 28 de bf a4 ff 6a 3d 7b c3 7e bf
       0.7657418 -1.7356141 0.057372704 -0.9951703
000020 e0 b9 cf 3d 6a 5e 21 c0 a9 8f 54 3f 94 1a 91 3f
       0.10142875 -2.5213876 0.8303171 1.1336236
000030 24 c3 14 40 46 7a 81 3f 7f 85 cc bf df d0 27 be
       2.3244104 1.011544 -1.597824 -0.16388272
000040 c0 90 61 be fa d5 06 c0 06 9c a5 bf be 07 ec 3e
       -0.22027874 -2.10681 -1.293824 0.46099657
000050 47 24 1d be dd 86 9b bf 37 98 0d bf 0b 01 1f c0
       -0.1534587 -1.2150532 -0.55310386 -2.4844387
000060 8d 84 62 3f 18 5a a2 3e f0 a2 4a 40 ca 16 d9 3e
       0.88483506 0.3170936 3.166195 0.424002
000070 f7 48 41 3e d1 de 8e be de 21 ad bf 9d e6 a3 be
       0.1887549 -0.2790437 -1.352596 -0.3201188
000080 a2 b1 4c 3f f2 ec 83 bf ca eb 14 3c 8c da 57 3f
       0.79958546 -1.0306685 0.00908942 0.8431785
000090 4e fc 46 3f 76 8d ab bd 93 22 f5 3e 72 76 dc be
       0.77728736 -0.08376591 0.4787794 -0.43059117
0000a0 c6 11 2a 3f b9 c0 30 bf d5 ad e8 bf ed 9d 95 bf
       0.6643337 -0.6904407 -1.8178049 -1.168882
0000b0 8b 01 34 3f d3 19 78 be 86 4d ef 3f 01 3a 84 3f
       0.70314854 -0.24228601 1.8695533 1.0330201
0000c0 07 0e 25 3f cc 70 47 bf 76 7a 34 bf dc 45 95 3f
       0.6447453 -0.7790649 -0.7049936 1.1661944
0000d0 cd 8c 20 bf 12 2e 26 bf 3f 63 a2 bf 09 ba 85 bf
       -0.62714845 -0.6491405 -1.2686538 -1.0447398
0000e0 a7 d2 32 3f e1 35 b6 bf f1 b6 5c 3f b2 b0 7f 3f
       0.6985268 -1.4235193 0.86216646 0.9987899

add_trend.bias f4 [3]
000000 12 2a ca be 11 c6 da be ce c0 f3 3e
       -0.39485222 -0.42729238 0.47608036
