real-data-forecast-res/section_5/pretrained_model/9699_pretrained_model.pkl (torch, 10703 bytes, 8 tensors)

init_ar_parameters f4 [18]
00000000: 0ffb 963f e59c 90be 78f9 933e 58dc 613d
00000010: 54fd 6fbd f351 88be d147 95bd c445 ad3c
00000020: 837e 31be 0de9 89be fb5e 07be e7d7 9cbd
00000030: 63ba 353f d2bc 9a3d ac35 0bbe 19d5 e23e
00000040: bce8 c13d 6428 26bf
1.1795367 -0.282447 0.28901267 0.055141777 -0.058591202 -0.26625022 -0.072890885 0.02115143
-0.17333417 -0.26935616 -0.13219826 -0.076583676 0.7098753 0.07555546 -0.13594693 0.44303206
0.09468219 -0.6490538

init_redusial_params f4 [6]
00000000: 141e 25bf d44b dcbd 8f53 283f 3b04 05be
00000010: ee98 98bd 6219 abbe
-0.6449902 -0.107566506 0.657525 -0.12989895 -0.07451044 -0.33417803

lstm.weight_ih_l0 f4 [80, 3]
00000000: 82e0 733e 0a37 953e 7944 c23e 026d 3e3d
00000010: b2e9 303f 0afd 1f3f e455 303d 6b78 fb3d
00000020: d0e6 743e 20a7 c33e 353a 5b3d b9c4 303e
00000030: 040e 8a3e d2ac 4d3e b6da 813e 0d63 5b3d
00000040: b6b6 493d 76ff 483e 4ebb 093f cbcf b43e
00000050: 2c89 463e 11b4 bf3d f3f2 643e 7178 863e
00000060: 6078 bc3d 7713 633e b92c 19bd da22 103f
00000070: ce1c ea3e a084 d43e d543 1a3e 5bf7 e13e
00000080: 0850 e43e b27b 443f 6ba4 bf3e fad0 0f3f
00000090: 003e f63e f081 0a3d b16e 1d3d 32a4 013f
000000a0: 1ae5 123f 70d5 0e3f c935 0bbe a473 4ebf
000000b0: 6b3d edbf cf66 3dbe 9bc0 9ebd ba23 b83d
000000c0: 511a a4bd 8d4e 0f3c 9ea4 e63a 757c 8c3f
000000d0: 02e2 0c40 1278 5d40 c65b 25bf da59 42bf
000000e0: 8173 09c0 7c59 0f3f 8436 0d3f a214 db3e
000000f0: 628c ce3e 476d c63e 722f 333e 65b4 153e
00000100: 5dc9 873e c856 c83e c0ba d43d cf46 6c3e
00000110: 673a e2bd ec91 273f 0d00 5f3e 6e01 df3d
00000120: 87eb 7f3e 128e f7bc 3669 c63e e11f c53d
00000130: a985 513e 3170 9a3d 7b35 703e c5b9 963c
00000140: 0496 ba3e 8a9a b63e 603a a73e 33f4 b03e
00000150: 6352 bf3d f271 da3c adef 34bd 56ac d33e
00000160: 99a1 6c3e 25a5 cabb fdec 803e c5c8 6e3e
00000170: 3f3f 103e fd5f 003f 9a10 1a3f 2ae1 2c3f
00000180: f809 713e a0eb a83e a13f 9c3d d565 083f
00000190: d1b9 9c3e 1f84 ae3e 10f4 cfbd c2cd 0ebf
000001a0: 0aa2 e8bf 5caa 7c3e 4032 f93e 8ef4 fb3e
000001b0: 4094 8dbd c8d3 993e c7f3 bc3e 9fe6 f7bd
000001c0: 8521 b23c cea3 5dbe 3ab7 cfbf 38b5 95c0
000001d0: 1c4f d1c0 81d5 aa3e f996 a83e e989 143f
000001e0: d6a9 f83e 9513 8d3e df4b e13e b88e cf3d
000001f0: d101 0c3e a27c b53e 57f0 bf3d 73b5 2f3e
00000200: 805f af3c 8295 01bf 1712 03bd 35b4 80bd
00000210: 786f 6ebe c793 5ebe 22ed 03be 0982 25bd
00000220: d6bc a7be db5d d1be 7688 6e3e 1bd5 bf3e
00000230: 182f 573d e978 463d 576f dc3d 69eb 143f
00000240: 96e9 32bf c229 debe 5a49 2abe 596d fcbe
00000250: 1a15 31bf 8e9e ccbe 79ae a23e b232 0a3f
00000260: 3ec3 133e 3aa3 253d 1e75 913d 4ec4 9a3e
00000270: 90e2 d63b 830b 56bd 5f61 0e3d 8621 a1be
00000280: 069d 20bf 38d6 0ebf 71e9 823e 91d7 253e
00000290: 1a8b 493e 720e 0fbe 1757 4e3e 0b0e cf3e
000002a0: 8686 73be 4f6d 9cbe 535d f1bd af06 b1bf
000002b0: ad3c 86bf 3d5e 14bf 6af6 83bf 02cc 7bbf
000002c0: 9203 42bf 1947 483e 29a2 973e 5882 d03e
000002d0: 4bab 0e3e 7b79 a93e cc06 9dbd 3c90 b03d
000002e0: 480c 98be 8cb6 acbf 541e efbe 7645 ab3f
000002f0: 8209 7540 36f4 0340 815d 5940 871e 8340
00000300: 5e86 d53e 657b e13e b5e8 e63d 6cf7 c03e
00000310: 166a a53e 0ec6 f43e 5265 a83e a46f 173f
00000320: 6031 043e d462 4dbf c9eb 53c0 bce7 cdc0
00000330: 97a6 df3e 1e7a 603f d126 ea3e ab42 0f40
00000340: 40b0 3740 2194 4d40 8f97 3f3f 1333 473f
00000350: 4b82 5c3f 52bf 933f 5edd 223f feaf 3d3c
00000360: 3246 ac3f 37cd e53f 5207 0540 cad8 0140
00000370: 7b93 1940 4e73 e93f 1377 8e3f d048 1f3f
00000380: ade3 5f3e 5dab 5f3e c636 4bbf 48d8 0dc0
00000390: 79fb 3f3f 60aa 513f ebec a03e 92b2 9d3e
000003a0: 45eb de3f 33ae 4d40 443b ee3e d33d 5f3d
000003b0: 2eaf dfbd ac79 b23e 6d60 ef3e 76b6 1a3e
0.23816112 0.29143554 0.37942865 0.046490677 0.6910659 0.6249548 0.04305066 0.12278827
0.23916173 0.38213444 0.053522307 0.17262544 0.26963818 0.20085457 0.25362176 0.05356126
0.049246512 0.196287 0.5380143 0.35314783 0.19388264 0.09360517 0.22358303 0.26263765
0.09202647 0.22175394 -0.037396166 0.5630318 0.457251 0.41507435 0.15064938 0.4413403
0.4459231 0.76751244 0.37430128 0.5617825 0.48094177 0.033815324 0.03843564 0.5064117
0.5738083 0.5579443 -0.13594736 -0.80645204 -1.8534368 -0.1849625 -0.0775158 0.08991189
-0.08012832 0.008746755 0.0017596667 1.0975481 2.2012944 3.4604535 -0.6459316 -0.7591835
-2.1476748 0.5599592 0.5516131 0.4278918 0.4034148 0.38755247 0.17498568 0.14619596
0.26520815 0.3912871 0.10387182 0.23073886 -0.110462956 0.65457034 0.21777363 0.108889446
0.2499219 -0.030219112 0.38752145 0.09625221 0.20461144 0.0754093 0.23457901 0.018399129
0.36442578 0.3566478 0.32661724 0.3456131 0.09341886 0.026665661 -0.044173885 0.4134242
0.2310852 -0.0061842375 0.25180808 0.23318775 0.14086626 0.50146466 0.6018158 0.67531073
0.23538959 0.32992268 0.07629324 0.53280383 0.30610517 0.34085175 -0.10153973 -0.5578271
-1.817445 0.24674362 0.4867115 0.49210018 -0.06913042 0.3004439 0.36904737 -0.12104534
0.021744499 -0.21644518 -1.6227791 -4.6783714 -6.540907 0.33366016 0.32927683 0.58022934
0.48567075 0.27554002 0.44003198 0.10134643 0.13672568 0.3544665 0.09372013 0.17159061
0.021407843 -0.50618756 -0.031999674 -0.06284372 -0.2328471 -0.2173606 -0.12883428 -0.040407214
-0.32761258 -0.4089192 0.23294243 0.37467274 0.052535146 0.048455153 0.10763424 0.5817171
-0.69887674 -0.43391234 -0.16629544 -0.49302176 -0.69172823 -0.39964718 0.31773737 0.53983605
0.14429948 0.040438868 0.071024165 0.30227894 0.00655777 -0.052257072 0.03476083 -0.3147089
-0.627396 -0.5579562 0.25568727 0.16195513 0.1968197 -0.13970354 0.2015041 0.404404
-0.23781785 -0.30552146 -0.11785378 -1.3830165 -1.0487267 -0.57956296 -1.0309575 -0.98358166
-0.757867 0.19558372 0.29615906 0.40724444 0.1393253 0.33100495 -0.07667312 0.086212605
-0.2969687 -1.3493209 -0.46702826 1.3380573 3.8287053 2.0617805 3.396332 4.0974765
0.41704077 0.44039455 0.11274854 0.37688768 0.323075 0.47807354 0.328898 0.59154725
0.1290946 -0.80228925 -3.3112662 -6.434538 0.43681785 0.87686336 0.4573274 2.238444
2.8701324 3.212166 0.74840635 0.7781231 0.8613631 1.1542761 0.6361903 0.011577604
1.3458922 1.7953252 2.0785718 2.0288568 2.3996265 1.8238313 1.1130089 0.6222048
0.21864195 0.21842714 -0.7938045 -2.2163258 0.7499309 0.81900597 0.31430754 0.308003
1.7415549 3.2137573 0.4652959 0.05450232 -0.10922085 0.34858453 0.46753255 0.15108666

lstm.weight_hh_l0 f4 [80, 20]
00000000: 80c7 96bd c3fb 07bf 1918 653a b15a 74bf
00000010: dfc6 05bf f5c2 14be 3a28 b3bd 6889 b9bc
00000020: 5b53 ac3e d224 0ebf 5e55 a53c 528c 023d
00000030: 3121 88bf b2dd 293f 65ca eabd 2ec5 6fbb
00000040: 2573 0ebe d648 da3c 1b01 fa3d 76ec 46be
00000050: f088 bb3e 6ab0 cb3e 69f0 1a3d f515 143e
00000060: 2264 e2bd 9d41 163d 30dd b1bc 08df bcbe
00000070: 5da4 0a3d 6b46 2f3f 4a6c 38be 5916 4abd
00000080: 77fa 10c0 59db 6dbf a951 fb3e 2251 443f
00000090: ccc2 44be 3938 253f d616 63bf b540 4c3f
000000a0: 0e86 6bbe 96a4 ddbd 69f7 493e 5500 0ebf
000000b0: ac14 d5be 2d65 f03c 8427 d73c ffe9 5abd
000000c0: e67d 17be c954 2cbe 0103 c3bc c9f8 84bd
000000d0: 2c10 83bf 97d1 b43e b050 1a3f 7b2b 623e
000000e0: 19b2 b4be ec26 7cbe 341e b0bd 918c 4dbd
000000f0: 0455 9a3e 2c5b 273f 2b5f b53e f0de 72bd
00000100: ad40 03bf 017a 11bf 03bb 023f 139c 3e3f
00000110: a3fb d3be 43bb 9bbe b1ca 093f 08fb 9d3e
00000120: feda d63d bf19 d1be 28cd 3c3f 5362 123f
00000130: 64ba 11bf 8770 4ebf 5d73 353e 579b e13e
00000140: 2123 e23e 6ccc 753f b922 573e f701 3cbe
00000150: 0beb f3be aaaf f6bd 1895 353e fd23 dc3c
00000160: 0da7 1dbf 5d43 7dbe 50cc 053f 583a 063f
00000170: 3446 87be 5fcb 2ebf b829 5d3f ca1b 253e
00000180: 2f30 cdbe 73c1 e6be e9c0 ebbd 8a47 1d3f
00000190: 0e3e 373e 11e5 ce3e 689b e13d 5606 71be
000001a0: 6ce2 e2bc e687 26be bb34 943e f828 053e
000001b0: eb1d d5be d589 80be 73c9 bc3d 78e6 ec3c
000001c0: e2a4 15be d6b0 96be f122 acbe 3ce0 443e
000001d0: 2067 bdbd 7db2 0abe a05c a43d 8fb2 db3e
000001e0: 5bdd f83e a5b1 2d3f 1052 eb3e 65e9 27ba
000001f0: a2da a2be e222 15bf ef7f df3e 6bef 083f
00000200: 3a3e ecbe 7de7 5a3e 2dab 133f 8b0b 103e
00000210: 40b5 c03d a2a6 06bf 674e 753f d7d8 a93e
00000220: 187d dabd 7c78 2dbe 88d6 c53d 1a8d 203e
00000230: 6075 71bf 5cc8 133e 42fc abbe 5928 c8bf
00000240: cc88 b73e af59 2a3e 33f4 42bf 47d6 2e3f
00000250: 6020 fe3e b607 a2bf 0470 d43d e072 9ebf
00000260: 8104 cf3d 0d4b 123e f20b 06bf 49c3 47bf
00000270: 835f 803f 7983 b93f 97b0 fdbe 0ef1 c2be
00000280: 73de dd3e f39f 43bf fcaa ac3d 31df 6a3e
00000290: 1947 e2be ed76 3fbe 97e8 8ebe 176d 243d
000002a0: 39fe 2d3e 0342 7dbe fcce 753d 1adf 9b3e
000002b0: 419e 923e 874d 95bd 4dba 15bf e2e5 08bf
000002c0: 719e d13d ef74 0abf 54a4 eebb 8c29 f93e
000002d0: 93ce 423e e15b 0b3f e69d e53e d5a6 2bbf
000002e0: 3500 57bf 168b 0cbf 1da1 313e e52f 553e
000002f0: 52ee c9be e087 713e a300 fb3e baf6 26ba
00000300: cfde debe 6689 16bf 1050 4040 6c3a 303f
00000310: 644e 80be f9ae f83f 89e2 af3e 7b99 4a3f
00000320: 9039 d03e b12b 35bd 6a89 153e 4d24 60be
00000330: 5221 3dbf fbb7 d9be cd58 a53e 39b6 28bd
00000340: 456f d63d d999 bbbd 6dbf b83e a7fd 333e
00000350: 337d acbe ca82 0b3d 867f a7bd 6c21 af3d
00000360: 097b e73d d0e5 d93e e063 0b3e 40f6 f63e
00000370: 7117 f33e 252a 2e3f b863 213f ab06 dbbf
00000380: cb52 4fbf eade 77bf ea21 a83f ba60 563f
00000390: 6160 06bf 88da 69bf c4b7 3b3f 9942 983f
000003a0: c3fd 60bf c217 6bbe d177 8d3f 8623 543f
000003b0: cb73 b4bf 6c41 a4bf 7c5e cb3f 3d60 02be
000003c0: 69da 7f3f 459b 903f 572f 2e3f c83b 0bbf
000003d0: 9c44 babe c111 5abf cc74 653f 5469 143f
000003e0: fe3e 83bf f2be 42be 6752 303f c899 663f
000003f0: 639e 893f 6f83 93bf 8d02 8f3f 49f1 e83e
-0.0736227 -0.5311853 0.00087392476 -0.95450884 -0.5225658 -0.14527495 -0.08747907 -0.022648528
0.33657345 -0.55524933 0.020182308 0.0318721 -1.0635129 0.66353905 -0.11464385 -0.0036586034
-0.13911112 0.026646059 0.12207242 -0.1942614 0.36627913 0.3978303 0.03782693 0.14461501
-0.11054255 0.036683667 -0.021711916 -0.3688891 0.033848155 0.68466824 -0.18010059 -0.04933772
-2.2652872 -0.9291282 0.4908574 0.766863 -0.19214934 0.64538914 -0.8870672 0.79786235
-0.23000357 -0.10822408 0.19723286 -0.55469257 -0.41617334 0.02934512 0.02626396 -0.053445812
-0.1479412 -0.16829218 -0.023805143 -0.064927645 -1.023931 0.35316154 0.6027937 0.22086899
-0.35292128 -0.24624223 -0.08599511 -0.050182883 0.30142987 0.6537349 0.3542417 -0.05929464
-0.5127056 -0.5682679 0.5106661 0.744569 -0.4140292 -0.30416307 0.5382491 0.30855584
0.10490988 -0.40839955 0.73750544 0.5718128 -0.56925035 -0.80640453 0.17719789 0.44063827
0.44167426 0.9601505 0.2100934 -0.18360125 -0.4764026 -0.12045224 0.17732656 0.02687263
-0.61583024 -0.24732728 0.5226488 0.52432775 -0.26420748 -0.6827907 0.8639178 0.16123882
-0.40075824 -0.45069465 -0.11511404 0.61437285 0.17894766 0.4040914 0.110159695 -0.23537573
-0.027695857 -0.16262779 0.2894648 0.1300391 -0.41624388 -0.25105157 0.09218111 0.02891849
-0.14613679 -0.2943179 -0.33620408 0.19226164 -0.09248185 -0.1354465 0.08025479 0.42909667
0.4860638 0.6784919 0.45961046 -0.0006405323 -0.3180743 -0.5825635 0.43652293 0.5349032
-0.46141225 0.21377368 0.5768307 0.14066903 0.09409571 -0.5259801 0.9582276 0.33173248
-0.10668391 -0.16940492 0.09660059 0.15678826 -0.94319725 0.144319 -0.33590895 -1.5637313
0.35846555 0.16635774 -0.7615387 0.6829571 0.49634075 -1.2658603 0.10372928 -1.2378807
0.10108281 0.14286442 -0.5236198 -0.78032357 1.0029148 1.4493247 -0.4954879 -0.38074535
0.43333778 -0.7641594 0.0843105 0.22936703 -0.44194868 -0.1869771 -0.27911827 0.0401431
0.1699151 -0.24732213 0.06001185 0.3044365 0.28636363 -0.07290178 -0.584874 -0.53475773
0.102352984 -0.54084677 -0.007282773 0.4866451 0.19024114 0.5443707 0.4484703 -0.6705144
-0.8398469 -0.5489973 0.17346616 0.20819052 -0.39439636 0.23586988 0.49023923 -0.00063691626
-0.43529364 -0.58803403 3.0048866 0.68839145 -0.25059807 1.9428397 0.3435252 0.7914044
0.40668917 -0.04423112 0.146032 -0.21888848 -0.7387897 -0.42523178 0.32294312 -0.041189406
0.10470442 -0.091602035 0.36083546 0.1757723 -0.3368927 0.034060277 -0.0817862 0.085512966
0.11302764 0.42558146 0.13612318 0.4823475 0.47478822 0.6803306 0.63042784 -1.711141
-0.8098571 -0.96824515 1.313535 0.83741343 -0.5249081 -0.9134908 0.7332728 1.1895324
-0.8788721 -0.22958282 1.105219 0.82866704 -1.4097837 -1.2832465 1.5888209 -0.12732024
0.9994264 1.1297385 0.68040985 -0.54388094 -0.3638047 -0.8518334 0.8963134 0.5797322
-1.0253599 -0.19018152 0.68875736 0.900784 1.0751461 -1.1524485 1.1172653 0.45496586

lstm.bias_ih_l0 f4 [80]
00000000: b18d 673f 3f62 5a3e a16d 8f3e d26d af3e
00000010: c514 613d 08eb 4f3e ed32 723e 5a6d d6bd
00000020: 18cb 453f de1a 053f f2a2 893e 889e 653f
00000030: dc9a cbbb 122a c83f 49e4 0abf e8e2 01be
00000040: 2916 963e ad74 e03e c6a2 e23e dbe5 683f
00000050: 951c 3dbe 6b6a d73c 3075 793e cb7a 493e
00000060: 5577 c13d 3c19 763e 7687 de3e ee3e bc3e
00000070: 0a79 aa3e 34eb 303e e870 073e 5492 353e
00000080: 8085 f63e 4648 02bd 0089 033e 024a 513d
00000090: f731 52bd 6f44 fdbe 6b92 053e 386c 49bd
000000a0: 08fd 263f 08ae f03e 5da2 fb3e 13e2 903e
000000b0: 30f4 c73d 9589 83be 50c0 8a3e e05b 903e
000000c0: 7f34 4cbf 295d 02bd 7f78 c93d 105c d73e
000000d0: e5d8 c03e 8e9d 1bbf 15d9 c63d 4f83 263e
000000e0: ee92 03be 3976 0c3d d239 b33d d9ec cf3e
000000f0: af51 893d f163 a3bd f94e e43d 3788 05bf
00000100: 9981 ef3e d360 483d 2dab 13be 2987 bc3e
00000110: 5a14 ae3d 2eb9 fcbe 7e92 513e bc97 e1bd
00000120: 78c6 8cbe 363e 82be 164f 43be 9993 0d3e
00000130: 8479 403e d5fa 26bc c8a3 4c3e 4979 90bd
0.9045058 0.2132654 0.28013328 0.34263474 0.054951448 0.20304501 0.23652239 -0.10470076
0.7726302 0.5199412 0.2688213 0.89695024 -0.006213529 1.5637839 -0.54254586 -0.12684214
0.29313782 0.43839017 0.4426481 0.9097573 -0.18467934 0.026295861 0.2436111 0.19675748
0.09446589 0.24033064 0.43462723 0.36766762 0.3329547 0.17277223 0.13226664 0.17731601
0.48148727 -0.031807207 0.1284523 0.05109597 -0.05131718 -0.49466273 0.13044135 -0.04917547
0.65229845 0.47007775 0.4914731 0.2829748 0.09763372 -0.25690904 0.27099848 0.28195095
-0.797676 -0.031827126 0.09837436 0.42062426 0.37665477 -0.60787284 0.09709374 0.16261028
-0.12849018 0.034292433 0.08751263 0.40610388 0.06705033 -0.07978047 0.11147875 -0.5216097
0.46778563 0.048920464 -0.14420767 0.3682187 0.084999755 -0.4936003 0.20466039 -0.11015269
-0.2749517 -0.25438088 -0.19073138 0.13825835 0.18796355 -0.010191639 0.19984353 -0.07054383

lstm.bias_hh_l0 f4 [80]
00000000: a23d 143f 0697 c93e 978c 1a3f 7ed3 053f
00000010: 5a30 983e bcde dc3e eec4 cd3d 902e cfbd
00000020: c219 6c3f be92 363f 2902 cf3d 069b 123f
00000030: 6e09 b93d a80d bf3f 215e 79be a13b 0f3e
00000040: 15c4 e33d f472 be3d 9f5e a93e 01f0 3b3f
00000050: e4f0 c7bd 1eff 3ebe 3917 943d 655d dfbc
00000060: d011 c53d ad2a d03d 2c6c 0d3f 20af 473f
00000070: ace6 973e 7634 c23e cb1a 863e 2e9e 4f3e
00000080: c08c 2b3f db65 45be 6a26 35be a988 453e
00000090: 9a56 933d 42e5 acbe 7d61 6b3d fe3f 183e
000000a0: 0fa6 203f c195 f83e 0911 da3e f26c 6c3e
000000b0: 9ed9 25bd 534a f9bd c4fe 0e3e f67d 213e
000000c0: 469c 6ebf b95a 273e 8d96 e53c bd14 f83e
000000d0: 806b 873e b9a8 aebe f655 343e ea0a 8a3d
000000e0: 23ed c03d 79bb b1bd cff9 e13d 52b0 be3e
000000f0: c450 c93c 7eac 12be bc7f 2d3e c905 53be
00000100: fb00 ae3e e1dd e03d ad2e 9ebd dfb6 143e
00000110: da23 8a3d 65e4 fabe 6a92 3b3e 6ea2 72be
00000120: 01c3 91be 6732 99be 15a7 d7bc 5fe6 813c
00000130: 0276 5e3c 2cb4 983e 7f77 dc3c f357 f3bd
0.57906544 0.39373034 0.60370773 0.52275836 0.2972439 0.43138683 0.10047327 -0.10116303
0.92226803 0.7131766 0.10107834 0.57267797 0.09035002 1.4926043 -0.24352314 0.1398759
0.11121384 0.09299269 0.33080003 0.7341309 -0.09762743 -0.18652007 0.07230992 -0.027266214
0.09622538 0.1016439 0.5524318 0.78001595 0.29668176 0.3793065 0.26192316 0.20275185
0.6701164 -0.19277136 -0.17690435 0.19290413 0.07194252 -0.3376866 0.05746602 0.14868161
0.62753385 0.48551753 0.42591122 0.23088434 -0.04049074 -0.12172379 0.13964373 0.15770707
-0.93207204 0.16343202 0.02802589 0.48453322 0.26449203 -0.341131 0.17610916 0.06740363
0.0942023 -0.08678336 0.11033975 0.37243897 0.024574645 -0.14323613 0.16943258 -0.20607676
0.33985123 0.1097982 -0.077237464 0.14522885 0.067451194 -0.49002376 0.18317571 -0.23694775
-0.2846909 -0.29921266 -0.026324788 0.01585692 0.01357794 0.2982496 0.026912449 -0.11882009

add_trend.weight f4 [3, 20]
00000000: 06ab 983e 2eb5 96be 5255 6f3e 5811 7240
00000010: 9b7d 783f 0007 423f bcaf dc3e 6b24 0040
00000020: c3b5 e0be dd05 2d40 f1ff 9dbd 603c 343f
00000030: fe7b 0240 341f 91bf 0299 81c0 6630 823f
00000040: 5e34 7cbd 7fcf 13c1 bff1 b1bf 271d e33f
00000050: 5f77 ac3f 01bc 5140 e678 3a40 8830 8740
00000060: 3aa7 7c3e 421c adbe b7c9 af3e 2a67 c8bd
00000070: f6db 07bf 7ac3 9040 90db b33e b615 c53b
00000080: ed23 ca3d d6a0 0cc0 1132 f4be 6983 3540
00000090: 1702 22bf e227 a13e d2a6 f33e e34a 2a3f
000000a0: 9ddf 0f3f 11a7 cc3f e102 ca40 5de3 d1bf
000000b0: af0e 0abf cde1 cbbe 3a8d 063f 203a eb3f
000000c0: 036c 85be 5302 3640 796b 813e 925d 6b40
000000d0: deb7 a7bf 6c9a 253f c654 903f 9c2b 85be
000000e0: ac5c c1be b25b 9340 88ee 64c0 3378 403f
0.2981798 -0.29435104 0.23372391 3.7823086 0.9706666 0.7579193 0.43102825 2.0022228
-0.43888673 2.7034829 -0.077148326 0.70404625 2.038818 -1.1337647 -4.0499277 1.017102
-0.06157338 -9.238158 -1.39019 1.7743272 1.3473929 3.2770998 2.913629 4.224674
0.24673167 -0.33810622 0.34333584 -0.09785302 -0.5307001 4.523862 0.3512845 0.006014551
0.098701335 -2.1973166 -0.47694448 2.8361456 -0.6328444 0.3147574 0.4758821 0.6652052
0.5620058 1.5988485 6.3128514 -1.6397511 -0.53928655 -0.3982071 0.52559245 1.8377113
-0.2605897 2.8438919 0.25277308 3.677586 -1.3102987 0.64688754 1.1275871 -0.26009834
-0.37766016 4.6049433 -3.5770588 0.7518341

add_trend.bias f4 [3]
00000000: eb6e 933e dca8 073d d773 cbbd
0.2879556 0.03312002 -0.09934204
