forecast-res/section_12/pretrained_model/7999_pretrained_model.pkl (torch, 10767 bytes, 8 tensors)

init_ar_parameters f4 [36]
000000 f4 23 9d 3f bb 5d 09 3d a7 c7 75 bd f7 17 e1 bd
       1.2276597 0.033536654 -0.060004856 -0.10990899
000010 3a e3 82 bc 22 3e ce bd 00 ee 37 3c e4 d0 1c bd
       -0.01597749 -0.10070445 0.011226177 -0.03828515
000020 f9 ff cd be 86 de ef be ec c0 72 bd 45 fb b7 be
       -0.40234354 -0.4684946 -0.059266016 -0.3593389
000030 de 97 1a 3e 47 73 1f 3e 44 5c ae 3e b9 ea 52 3e
       0.15096995 0.15571319 0.34054768 0.20597352
000040 6e 6c f0 3d 11 49 36 be c7 37 72 bd 6c 6a 67 3e
       0.11739431 -0.1780131 -0.059135225 0.2259919
000050 98 09 86 3e f7 f6 d9 bd b3 81 98 bc 07 17 c5 3b
       0.26179194 -0.10642808 -0.018616533 0.006014708
000060 18 5e 1a 3f 7a d6 99 3c d9 8c c0 bb 10 ac 97 bd
       0.60299826 0.018779028 -0.0058761653 -0.07405865
000070 ca c9 16 3f 6b e1 0d 3f d2 22 eb 3e 54 93 89 3e
       0.58901656 0.55422086 0.45925003 0.26870215
000080 ab 19 5b 3f d6 1d 36 be 2a 45 b7 3e b2 41 8b 3e
       0.8558604 -0.17784819 0.35794955 0.2719856

init_residual_params f4 [6]
000000 66 c7 01 3f c1 37 69 bd bc 37 30 3f 7f 02 35 3e
       0.5069488 -0.056937937 0.68835044 0.17676733
000010 4b 9b 53 3e 88 d5 02 bf
       0.20664708 -0.5110707

lstm.weight_ih_l0 f4 [80, 3]
000000 84 ed a3 3e 7d c0 4b 3e a8 18 4f 3e a5 31 7a 3e
       0.32017148 0.19897647 0.2022425 0.24433
000010 82 d6 9f 3e dd e6 35 3d e4 ff ca 3e 7c 29 c2 3d
       0.31218344 0.04440962 0.39648354 0.09480569
000020 db bf 45 3d b0 2d d2 bf 53 9a 12 c0 a4 f5 1c c0
       0.04827867 -1.6420193 -2.2906692 -2.4524927
000030 e0 41 ef 3e 90 2e 16 3f 05 96 52 3f e5 6f c4 3d
       0.46729946 0.586648 0.8226016 0.09591655
000040 20 e4 fa 3e 34 79 18 3f 0a a6 b1 bd 01 9a da bd
       0.4900217 0.5955994 -0.086742476 -0.10673905
000050 1c 1b 4f 3e 21 c6 56 3e af 42 d2 3e 8a 7b b4 3d
       0.20225185 0.20974018 0.410665 0.08812626
000060 08 ac 88 3e 75 a5 e9 3e 78 25 2a 3f 6e b9 eb 3e
       0.2669375 0.45634046 0.6646342 0.4603991
000070 08 2e 10 3f f0 e1 1c 3e ef 63 1c 3e c4 24 27 3e
       0.5632024 0.15320563 0.15272497 0.16322619
000080 fc c1 26 3f 0c d6 ba 3e c9 30 2d 3e 1a 86 9d 3e
       0.65139747 0.3649143 0.16913141 0.30766374
000090 79 47 e6 3d 7a d8 81 3d fe f0 75 3e 83 f6 16 3d
       0.11244101 0.06340118 0.24017712 0.036856186
0000a0 61 41 76 3e f5 01 20 3e 5f d0 fc 3e d8 b9 62 3f
       0.24048378 0.15625747 0.49377725 0.88564825
0000b0 5d ff 3f 3f 71 c6 a4 3e f9 22 33 3e 0e 8e a5 bd
       0.7499903 0.3218265 0.1749381 -0.080837354
0000c0 88 bd fd 3e 8d a9 29 3f e7 c2 f0 3e f4 f9 09 be
       0.49558663 0.6627434 0.470237 -0.13474256
0000d0 9d eb 25 be d2 0f 0c 3e be 9e ae 3e 91 21 8a 3d
       -0.1620316 0.1367791 0.34105486 0.067446835
0000e0 c4 3d a3 bd c7 20 a1 3e 34 74 a9 3e 5c f5 8b 3e
       -0.07970765 0.3147032 0.33096468 0.27335632
0000f0 1a 55 f4 3e 9f 5f 53 3e 8f 1a 41 3e 6e e8 9a 3e
       0.47721177 0.20641945 0.18857788 0.30255455
000100 11 7f 7c 3e 90 f1 59 3e 54 0e 8a 3f 7f fa 27 3f
       0.24657847 0.21283555 1.0785623 0.656166
000110 1a 3d dc 3e 2a 3b 9e bf 49 6b d9 bf 85 cd 03 c0
       0.43015367 -1.2361805 -1.6985866 -2.059419
000120 2c 74 25 3f 41 48 32 3f cb 67 3a 3f 06 6e 97 3e
       0.6463039 0.696415 0.72814626 0.2957613
000130 7a b7 29 3f 2d 80 4b 3f fc 26 9e bd 6c 5a 10 be
       0.6629559 0.79492456 -0.077222794 -0.14096993
000140 b5 52 ad bd 2f 1e 9c 3e 6f a9 a5 3e 08 0c 9e 3e
       -0.08463041 0.30491778 0.3235583 0.30868554
000150 0b 22 c1 3e 55 cd c1 3e 91 c7 ed 3e 35 a1 27 3f
       0.37721285 0.37851968 0.4644132 0.6548036
000160 a3 bf e5 3e a6 35 89 3e 22 4b b4 3e 4f ee 15 3f
       0.4487277 0.26798743 0.35213572 0.58566755
000170 30 08 31 3f ea 38 b8 3e b8 e9 fa 3e 12 b7 26 3e
       0.6915312 0.35980922 0.49006438 0.16280773
000180 8c 3c f8 3e 7f fc 17 3f f1 29 38 3f 98 7c 9e 3e
       0.48483694 0.59369653 0.71939 0.30954432
000190 f2 49 ac 3d f9 ac f7 ba 4a 23 a5 3e 4a 80 14 3f
       0.084125414 -0.0018896154 0.32253486 0.58008254
0001a0 3c 35 01 3f 3f a1 8b 3c 9e d6 ba 3d 6c ea 3c 3d
       0.50471854 0.017044662 0.09122966 0.046122
0001b0 b2 6e 02 3f d6 62 1b 3f 09 02 cf 3e 03 e0 cf be
       0.5095016 0.60697687 0.4043124 -0.40600595
0001c0 9a 42 40 bf b9 8b 37 bf 99 b8 11 3e 27 ec ec bd
       -0.75101626 -0.71697575 0.14230575 -0.1156848
0001d0 aa 25 5f be c6 c6 65 3e 73 41 a9 3d de ad da 3d
       -0.21791711 0.22439107 0.082644366 0.10677694
0001e0 53 6c 06 3d 3c d6 c5 3e 05 45 52 3e eb 91 b5 3d
       0.03281815 0.3864001 0.20534141 0.08865722
0001f0 02 48 b1 3d 87 ed f7 3d 8d 7f 99 3f 22 70 71 3f
       0.086563125 0.121058516 1.199205 0.94311726
000200 d5 18 f4 3e 42 68 80 3f ee 59 d9 3f 72 8b d8 3f
       0.47675195 1.0031817 1.6980569 1.6917555
000210 4b b1 fb 3e d6 47 4c 3f ec 9a 94 3f a7 49 ce 3e
       0.491587 0.7979711 1.1609778 0.40290567
000220 e4 83 94 3d f3 af 36 3b 6a 8a ec 3d cf 55 ed 3e
       0.07251719 0.002787587 0.11549838 0.4635453
000230 47 7b a4 3e 7f a0 d5 3e 01 9d dc 3e a9 9b 3f 3d
       0.32125303 0.4172401 0.43088534 0.04677931
000240 3c bb 11 3e 2a 2a 45 3f da ce 2a 3f 0c 53 3b bf
       0.1423158 0.7701746 0.6672188 -0.73173594
000250 9a 41 da be 7a b9 63 be 01 af f7 be 21 35 b5 be
       -0.42628175 -0.22238722 -0.48375705 -0.35392097
000260 17 d4 b7 be ab 17 5c 3e b1 14 91 3e 94 51 37 3f
       -0.35904 0.21493404 0.283361 0.71608853
000270 ac f9 c2 be 88 2c 29 be 01 2f eb be f5 90 8e bd
       -0.3808111 -0.16520894 -0.459343 -0.06961242
000280 0e c4 47 be 1a 41 94 be e1 40 ae be 38 fa 47 bf
       -0.19508383 -0.2895592 -0.34033874 -0.7811618
000290 e6 f5 87 bf 99 b3 8b be a6 7b 94 bd 87 45 9b 3d
       -1.0621917 -0.2728546 -0.072501466 0.07581621
0002a0 57 81 48 bd d6 20 a0 3e 57 87 f6 3e c7 ac d7 be
       -0.048951473 0.31275052 0.4815013 -0.42124006
0002b0 0f 63 45 bf 9d b3 7f bf 7a b9 98 3c f3 7b 3e bf
       -0.77104276 -0.99883443 0.01864313 -0.7440788
0002c0 d9 e1 89 bf f3 cd 9b 3d 8b 53 5e 3c c6 25 97 3e
       -1.0772048 0.07607641 0.013569723 0.29521006
0002d0 32 af 6c bf 66 cc ea bf c8 9b 31 c0 5d 35 e1 3e
       -0.92454827 -1.8343627 -2.7751331 0.43986025
0002e0 0b 87 af 3c 0d cc d8 bd e3 8a 42 bf 8f f5 2e c0
       0.021426698 -0.105857946 -0.75993174 -2.7337377
0002f0 e2 07 6c c0 29 8d a4 bf 7e b6 f4 bf 41 1d 19 c0
       -3.6879811 -1.2855579 -1.9118192 -2.3924105
000300 f6 f7 d8 3e be 9f b3 3d 4c 76 82 bf 03 eb e8 bd
       0.4237668 0.08770703 -1.0192351 -0.1137295
000310 74 7a aa bf 9a 09 75 c0 c6 40 08 c0 7b 90 82 c0
       -1.331862 -3.828711 -2.1289535 -4.080137
000320 a6 0d a5 c0 f1 4f e0 3d 1b 3c e4 3b eb c4 fd be
       -5.157916 0.109527476 0.006965173 -0.495643
000330 f9 10 64 3e a2 41 19 3f 41 ae 08 3f a4 5f 9b 3f
       0.222721 0.5986577 0.5339089 1.2138562
000340 de df 33 3f d5 fd 28 3d 74 88 06 bf d6 0b 67 bf
       0.7026347 0.041257698 -0.5255196 -0.90252435
000350 ae 10 cd bf 06 eb 44 bf 4e 33 2c c0 eb 14 86 c0
       -1.6020715 -0.7692112 -2.6906314 -4.1900535
000360 d5 2e ea bd c9 65 bf bc b6 cc 39 3e c9 6d 8b 3e
       -0.11434714 -0.023363965 0.18144497 0.27232197
000370 84 6c 1a 3f 01 d5 25 3f 60 61 87 3e c4 9a 50 be
       0.6032183 0.64778143 0.2644148 -0.20371538
000380 c0 f6 be bf cc de ca be 5f 6c 26 bf 8a f9 b1 bf
       -1.4919052 -0.39623106 -0.6500911 -1.3904278
000390 d5 fa 29 3f e2 59 b8 3f 86 0d ba 3f 99 c1 5a bf
       0.66398364 1.440243 1.4535377 -0.85451657
0003a0 b8 94 ee bf ab 4a 3a c0 c3 ba 9f 3e 9e a1 18 3f
       -1.8639135 -2.9108074 0.31197175 0.5962161
0003b0 0f e9 c2 3f 35 fa 11 3f f2 08 c5 3e 80 d4 11 3f
       1.5227374 0.5702241 0.38483387 0.56964874

lstm.weight_hh_l0 f4 [80, 20]
000000 5e 82 01 3f 09 97 09 bf d7 b4 41 3f d1 e8 1b bf
       0.5058955 -0.53746086 0.75666565 -0.60902125
000010 75 f3 4a 3e dd 52 f2 3e 7b c4 25 3d fd 85 c2 3e
       0.19819434 0.47328845 0.04047058 0.3799285
000020 7c 90 d6 3e 01 23 10 3e 6e e5 a6 bd 67 2c f2 3e
       0.41907108 0.14075853 -0.08149229 0.472995
000030 44 52 ab be 5a 6f b3 bd f5 98 82 be 40 59 4c be
       -0.334612 -0.08761473 -0.25507322 -0.19955921
000040 53 61 de 3e 32 67 70 bd 71 c4 a0 3e 03 bd 91 3e
       0.43433627 -0.058692165 0.31399873 0.28464517
000050 d2 8d ef 3d f3 d8 31 bd 1b ca c6 3d e6 3d 97 3d
       0.11696972 -0.04341979 0.09706517 0.07384853
000060 dc 85 63 3e c8 f3 93 3e 6d fc 63 bd 1c 61 d1 3d
       0.22219032 0.28896928 -0.055660654 0.102236
000070 8a d0 af 3e ac 65 a6 be 06 77 2c 3e 11 47 36 be
       0.3433879 -0.32499444 0.16842279 -0.17800547
000080 07 bd 8e be 92 8e ac be 86 6a 9c be 54 84 01 bd
       -0.2787859 -0.33702523 -0.3055002 -0.03162034
000090 10 be 31 3e 6e 98 1c be dc 40 ce 3e 95 78 87 3e
       0.1735766 -0.15292522 0.4028386 0.26459184
0000a0 05 9c 61 3f ba 05 7b bf 26 8a 0e be a0 1d 18 be
       0.8812869 -0.98055613 -0.13919887 -0.14855051
0000b0 bc a8 5a 3f b3 54 88 3f db a2 86 3f ce 9f 81 3f
       0.8541372 1.0650848 1.051845 1.0126894
0000c0 0d 5a 5f 3f d2 c7 39 bf 97 a3 61 bf a3 12 6e 3f
       0.8724678 -0.72570527 -0.88140243 0.9299719
0000d0 39 a1 4c bf 03 9e 68 bf 5e fe 8b bf d7 16 0b bf
       -0.79933506 -0.90866107 -1.0937002 -0.54331726
0000e0 dd 92 0f 3f 5c ce 4a bf 01 06 1c 3f 94 a2 67 3f
       0.5608347 -0.7922113 0.6094666 0.9048245
0000f0 17 b6 f9 3e 4a 37 26 3e b2 07 26 3f a1 42 ce 3e
       0.48771736 0.16232029 0.6485549 0.4028521
000100 9d 15 b2 bd b0 e5 7f be 26 9a c3 3f a5 cb 89 3d
       -0.08695529 -0.24989963 1.5281417 0.06728295
000110 c1 7b 6e 3e 2d df b6 3c f4 a8 ab bd 19 e8 10 3e
       0.23289396 0.022323215 -0.083818346 0.14151038
000120 da 3f 67 bf 7c 8e 90 be 04 c6 05 bf d6 01 a2 bd
       -0.90331805 -0.28233707 -0.5225527 -0.079105064
000130 56 45 d4 3e 26 72 d1 be 97 76 8b bd fd 3f f8 3c
       0.4145915 -0.409074 -0.068097286 0.03030395
000140 cc 86 86 3e f4 2d 15 bf ce 17 7c 3e 4f 0e 04 be
       0.26274717 -0.58273244 0.24618456 -0.12896083
000150 06 5e 16 bc 2f 4f 80 3e fd 70 ec 3d 64 1b 26 3d
       -0.00917769 0.25060412 0.11544988 0.040553465
000160 8d 3c 1d 3d 59 e6 6f be 1b 7d 84 be 9e 0a 92 3e
       0.038387824 -0.23427714 -0.25876698 0.28523725
000170 1a 24 ff bd f0 10 c7 3b 92 e5 e0 be 65 6b 88 be
       -0.12458058 0.006075017 -0.43925148 -0.26644436
000180 e0 49 d6 3d 90 ec 80 3e 66 0b 9c 3d 11 32 d4 3e
       0.10463309 0.25180483 0.076193616 0.41444448
000190 a5 00 30 bf 82 65 9f 3e 2f 4f 0a 3f 8c 03 0e 3f
       -0.68750983 0.31132132 0.54027075 0.5547416
0001a0 03 7b b1 3d 97 4c 10 3e 1b 38 4a be 4f 57 f7 3e
       0.08666041 0.14091717 -0.19747965 0.483088
0001b0 c0 12 75 be 97 85 e5 be 75 d4 d2 bd 10 13 5b be
       -0.23932934 -0.44828483 -0.10294429 -0.2139399
0001c0 a3 92 0f 3e 3a 62 f1 be 9c c0 af 3e 8f 8b 7d 3d
       0.14020781 -0.47145253 0.34326637 0.06190067
0001d0 e3 5a 4b 3e 04 d9 8c 3d cb f6 03 bf 6e 21 81 bd
       0.1985889 0.0687733 -0.5154845 -0.06305204
0001e0 2d 55 7b 3b 89 5e 08 be 2e 4b 09 be a8 f3 21 3f
       0.003835033 -0.13317312 -0.13407585 0.63262415
0001f0 a2 00 1d bf c1 7e 5f 3d b8 78 a4 3e 1e fe 7b be
       -0.6132909 0.05456424 0.3212335 -0.24608657
000200 e4 76 39 3d b2 39 03 bf 1a e2 3a be c2 a6 b6 3d
       0.0452794 -0.5125991 -0.18250313 0.08918525
000210 53 15 8d 3d 5a bf 84 3e 8e bf be be 2e a2 c4 bd
       0.06888833 0.2592724 -0.3725552 -0.09601246
000220 70 b5 85 bc f8 d1 60 be 27 58 8e 3b f0 0c 1a 3e
       -0.016321868 -0.21955097 0.0043440047 0.15043998
000230 fe cd 16 bd d3 61 6b be c7 5c 31 3f 78 00 89 3f
       -0.036817543 -0.22986536 0.6928219 1.0703268
000240 21 7d 04 be 8f 97 67 3e d0 e8 c2 be 83 5f 32 3f
       -0.12938358 0.22616409 -0.38068247 0.6967699
000250 d9 dd a1 bd 81 08 0c be 65 dd 4a 3e fb 92 a1 be
       -0.07903642 -0.13675119 0.19811018 -0.3155745
000260 79 4a 95 3e 96 67 b5 be 11 f6 57 be a2 af 94 3e
       0.2915838 -0.35430592 -0.2108996 0.29040247
000270 f5 1d 8e 3d 5a 3b a9 be 74 0e 16 3e b3 56 db bd
       0.069393076 -0.33053094 0.14653951 -0.10709896
000280 0a fe 47 3e 2f 43 e0 be 30 d7 34 be 34 02 46 be
       0.19530502 -0.43801257 -0.17660213 -0.19336778
000290 ae 67 ba 3d d3 1f 80 bd 65 cc 68 3e 3d 76 8c 3e
       0.091018066 -0.0625607 0.2273422 0.2743396
0002a0 db 77 6e 3e 40 45 3e be b3 81 c9 3a bd f5 5a 3e
       0.23287909 -0.18581104 0.0015373736 0.21382804
0002b0 fa 13 83 be 1b b5 ea bd 6b f1 87 bd 0d 67 93 be
       -0.25601178 -0.114603244 -0.06637844 -0.2878956
0002c0 57 fe e3 bc 6c f1 a3 be d8 64 cc 3e b1 bd f5 3e
       -0.02783124 -0.32020128 0.39920688 0.47996286
0002d0 ab 9e 7e 3e 2b 1a 6a be 82 9a 32 be ff 56 37 3f
       0.24865215 -0.22861545 -0.17441753 0.7161712
0002e0 c6 3d 83 3e cb 62 14 bc 3c 85 4d bd 3c 2b 00 3e
       0.25633067 -0.009056757 -0.05017589 0.12516493
0002f0 16 22 4a 3e 95 40 89 be 9f df f6 3c 28 19 cc bd
       0.19739565 -0.26807085 0.030135928 -0.09965736
000300 9b 4c 80 be 4c c4 d9 bd 17 27 bc bd 25 b7 30 3e
       -0.25058445 -0.10633144 -0.09187143 0.17257364
000310 c8 cd 50 3e af 3f 87 3b 0f ef e5 3d 4b 2b c4 3e
       0.20391 0.0041274647 0.112272374 0.3831428
000320 68 78 9e be f4 b6 b5 3d 40 29 0e be 5c 1f d7 3e
       -0.30951238 0.08872786 -0.13882923 0.42016113
000330 9a ef d8 3d e7 1b a8 3d 74 0c a7 3e 35 b5 03 3e
       0.10592575 0.08208447 0.32626688 0.12862094
000340 e1 30 5e bd 28 ac a7 be 83 18 a4 be 2d ab 86 bd
       -0.054245833 -0.32748532 -0.3204995 -0.06575618
000350 bc 56 b7 be 3a be 95 be 4f f5 34 be ee fb 72 be
       -0.3580836 -0.29246694 -0.17671703 -0.23728916
000360 3c d4 a6 3e 68 32 91 3e f0 04 37 3e 7a fa c3 3d
       0.32583797 0.2835877 0.17872977 0.09569259
000370 68 a0 a7 3d 5b 83 d6 be cd 0e 89 be ca 9c d4 3f
       0.08184892 -0.4189709 -0.26769105 1.6610348
000380 32 61 3f 3e fa db 81 3e f6 2e ba 3e 41 3b 9b 3d
       0.18689421 0.2536314 0.36363953 0.07579661
000390 da 90 8c 3d 2a 32 02 bf 2a 3d 30 be ff 1c ca 3b
       0.06863566 -0.50857794 -0.17210832 0.0061680074
0003a0 52 e7 33 bd 51 6b 8b 3c 31 60 34 bf 9d e5 1f bd
       -0.043921776 0.017018946 -0.70459276 -0.039037336
0003b0 c4 fd 5f 3e 50 d2 cd 3e 6a c1 2c 3e b5 09 b1 3e
       0.21874148 0.40199518 0.16870657 0.34577718
0003c0 2f d0 38 3f 28 1a 46 bd 13 28 e3 3d c5 2f 32 bf
       0.7219266 -0.04836479 0.11091628 -0.6960414
0003d0 d4 f3 55 3e 58 41 3b 3d 9f ab 7e 3d 1f a1 04 be
       0.20893794 0.045716614 0.06217539 -0.12952088
0003e0 60 87 ee bc 9c 5c 89 3d 89 2c 01 be 34 2a b3 3e
       -0.029117286 0.06707117 -0.12614645 0.34993136
0003f0 2d 39 04 3d f1 59 4f bd 56 9d 7c be 5e 65 3e be
       0.03228109 -0.050622884 -0.24669394 -0.18593356

lstm.bias_ih_l0 f4 [80]
000000 ab ed 9c 3d ed d8 d0 bc 2b f1 a7 3f fc 80 32 be
       0.07662519 -0.025494063 1.3120474 -0.17432016
000010 ac 62 59 3f f5 2e 79 3e c1 1d e8 3e 3d eb 1f 3c
       0.84916186 0.24334319 0.453352 0.009760675
000020 74 f7 a9 3e d7 ce 04 bc ab 7f 2d 3f 63 f0 a5 3e
       0.33196604 -0.008105955 0.6777293 0.32409963
000030 bb 68 3e 3f cb 22 5e 3a 26 28 b6 3e 03 29 8f 3e
       0.74378556 0.00084738125 0.35577506 0.27960977
000040 9a 77 ba 3e e8 c6 2e be e4 c6 c5 3e 0b 40 73 3e
       0.36419374 -0.17068064 0.38628304 0.23754899
000050 40 a5 f1 3e f5 17 4b 3e 64 96 59 3e 7f 31 31 be
       0.47196388 0.19833358 0.21248776 -0.17304038
000060 98 b8 09 3e 1c 6c 44 be d9 a4 2c 3e 91 04 92 3e
       0.13449323 -0.19181865 0.1685976 0.2851911
000070 0e 54 2d 3e c2 f5 a6 3d da 7e 9c 3c d0 8b 47 3e
       0.16926596 0.08152343 0.019103456 0.19486928
000080 ab f5 3a be 5e 07 15 be ba 4b f5 3d 79 6e 36 3e
       -0.18257777 -0.14553592 0.11977334 0.1781558
000090 9d d1 26 3f 16 ef 8b 3e bb 28 ae 3d 57 31 93 bc
       0.65163594 0.27330846 0.085038625 -0.017967863
0000a0 35 9e 04 3e 91 e6 e7 bd 72 1c 8b bd af d8 c9 bc
       0.12950976 -0.11323274 -0.06792535 -0.024639456
0000b0 44 2c bf 3e 22 b8 29 3f 6d ce 5e 3e 73 67 c4 3d
       0.3733846 0.6629659 0.21758433 0.09590044
0000c0 7a dc 3f 3e ae f4 ba 3d 6f 12 1f bf 93 9a 77 3e
       0.18736449 0.091287 -0.621375 0.24180059
0000d0 60 d0 c1 be 55 b5 c5 be 0a 04 57 be 40 0e 8a be
       -0.3785429 -0.38614908 -0.20997635 -0.26963997
0000e0 4d 57 36 bd 33 7c 88 3e 4e 12 58 3e 56 59 b3 3c
       -0.04451685 0.26657256 0.21100733 0.021893185
0000f0 4a 15 87 bb 81 cc 8f 3e cf 07 ea 3e ee 9f 3a be
       -0.004122411 0.28085712 0.45709082 -0.18225071
000100 8c f6 e7 bd 45 11 e9 3d 1a 07 d7 bd 73 5b 8a bd
       -0.11326322 0.11380247 -0.104994014 -0.06755724
000110 c8 55 b0 3e 24 59 6b 3d c1 6e 17 bf d4 3b 14 be
       0.34440446 0.057458058 -0.5915337 -0.14475948
000120 8d f9 00 be db 17 9f be b2 7a 48 bd 94 50 21 3b
       -0.12595196 -0.31072888 -0.048945136 0.0024614679
000130 df 5c 39 3d 60 1e 73 be 07 a9 95 3e 5c d0 3c 3e
       0.045254584 -0.23742056 0.2923052 0.18438858

lstm.bias_hh_l0 f4 [80]
000000 16 2a 83 3d 45 d9 a5 3d ee b8 b8 3f 4d 50 3b 3e
       0.06404512 0.080980815 1.4431436 0.18292351
000010 48 a6 81 3f e2 dc 0d 3f 47 65 ec 3e 86 0a 4e 3e
       1.012887 0.55415165 0.46171018 0.20121202
000020 03 88 97 3e 1a 7f 94 3d 68 28 26 3f 8a 5b a8 3e
       0.29595956 0.07250805 0.64905405 0.3288234
000030 28 d9 2e 3f 13 ba 46 3d da d3 0b 3f ff ed 9b 3e
       0.68300104 0.048517298 0.54620135 0.30455014
000040 b4 01 dd 3d 00 f1 dd bd c6 cb 92 3e b5 1d 1b 3d
       0.107913405 -0.10836983 0.28671092 0.037870128
000050 f7 27 fa 3e 44 76 db 3e 46 2e bc 3d 9d 11 1c be
       0.48858616 0.42863667 0.091885135 -0.15241094
000060 05 8f 80 3d 46 92 bb bd 08 3b 0c 3d 9f 40 3f bd
       0.06277279 -0.09158759 0.034235984 -0.046692487
000070 92 75 8a 3e ab 70 8c 3e ea 56 5d 3d 55 bd 6b 3e
       0.27042824 0.2742971 0.054037966 0.23021443
000080 d5 3d 9f 3d 77 3b 75 3e 76 c5 9e 3e 46 fb 05 3e
       0.077754654 0.23948465 0.31010026 0.13084134
000090 a2 72 28 3f fd 98 01 3d bc 00 b4 3e 01 fc a5 3e
       0.65799916 0.03164004 0.3515681 0.32418826
0000a0 0f 78 80 be 4a 55 61 bd 35 8d 54 bd 84 fc a8 3c
       -0.25091597 -0.05501298 -0.051892478 0.020628221
0000b0 9c b6 00 3f bd e4 27 3f 02 a1 8b 3e 4e 0d 98 3e
       0.5027864 0.655834 0.27271277 0.2969765
0000c0 7c 4a cb 3e f0 5b 8c 3e c3 bb 46 bf be 4e c0 bd
       0.39705265 0.27413893 -0.7763025 -0.09390019
0000d0 ad 53 8e be 71 13 12 bf bf 39 3b 3e c7 c6 d7 be
       -0.27798215 -0.57060915 0.18283747 -0.42143843
0000e0 c9 20 0b be bd 40 d4 3e 4e 74 a8 3c 2e af 49 3d
       -0.13586725 0.4145564 0.02056327 0.04923933
0000f0 25 8c 62 3e 49 ca 81 3e c5 18 1a 3f c9 7a 17 3e
       0.22123773 0.25349644 0.60194045 0.14792933
000100 c9 dc f8 bd e3 fa a5 bd f7 18 9e 3e fa 42 d1 3d
       -0.121514864 -0.081044935 0.30878422 0.10217853
000110 20 53 f2 3e f8 92 ce 3d f7 2c 86 be 92 e2 02 3e
       0.47329044 0.10086626 -0.2620618 0.12781742
000120 0e 20 14 be 59 3c 82 bd b9 59 88 3e fc 2d 41 3d
       -0.14465353 -0.06359167 0.26630953 0.047162995
000130 4e cd a3 3d fd 86 94 bd 2c 2d 21 3e 67 b5 26 3c
       0.07998143 -0.072523095 0.15739888 0.010175086

add_trend.weight f4 [3, 20]
000000 62 5f 5c 3f c7 2b 8b be d1 d6 6a 40 6b 5b 4d bf
       0.8608304 -0.27181837 3.6693614 -0.8021762
000010 35 a2 89 bf 7b 5e 4d c0 0e 47 c2 3e ef 5e d7 bf
       -1.0752627 -3.2088916 0.37944835 -1.6825846
000020 89 8b c0 be 5f e9 a9 3d 68 cf 38 40 e4 e4 8d 3f
       -0.37606457 0.08296465 2.887659 1.1085477
000030 e2 cc 52 3f d4 d1 a9 3f f4 a8 20 c0 13 59 02 3f
       0.82343876 1.326716 -2.510312 0.50917166
000040 31 e1 40 40 fa 78 94 be 73 f5 e3 be fa 32 35 3d
       3.0137446 -0.28998548 -0.445232 0.04423807
000050 c8 d9 04 be 37 ce 0a 3f 4d 67 94 3f f1 10 36 3f
       -0.12973702 0.5422091 1.1594025 0.711196
000060 69 0a 99 3f 3e f5 22 be 62 f6 86 40 64 6f a3 3f
       1.1956302 -0.15913865 4.217576 1.2768369
000070 00 78 22 be f1 8c f9 3e 61 29 2c 3f 3a 68 a2 be
       -0.15866089 0.48740342 0.6725064 -0.31720144
000080 57 6c 00 bf 78 8c 95 bf 95 0f 3b bf 67 e3 9b 3e
       -0.50165313 -1.1683493 -0.7307065 0.30446932
000090 af 37 5b 3f 6c 6f 46 c0 c3 a7 09 bc 68 94 5b bf
       0.8563184 -3.1005507 -0.008401814 -0.85773325
0000a0 b3 8d 04 40 37 3b 20 bf fa f8 79 be e2 24 42 40
       2.0711486 -0.62590355 -0.24411383 3.0335011
0000b0 79 23 42 bf b4 59 3a bf 37 e2 54 bf 2f 37 36 3f
       -0.75835377 -0.72793126 -0.83157676 0.71177953
0000c0 2f 6a 2d 3f a8 5f f5 be 6a 81 3e 3f 78 7d dd 3f
       0.6774015 -0.47924542 0.7441622 1.7303915
0000d0 cb 93 a2 bf 57 cb 3f bf ca c4 2e bf aa e2 cf bf
       -1.2701353 -0.74919647 -0.68269026 -1.6241047
0000e0 73 67 25 3f 10 0b a7 bf b9 7a 05 3f d5 ee 36 3f
       0.64610976 -1.3050251 0.52140385 0.7145818

add_trend.bias f4 [3]
000000 ce 68 6a bf 05 a2 9c 3e eb bb e1 3e
       -0.9156617 0.3059236 0.44088683
