real-data-forecast-res/section_12/pretrained_model/9699_pretrained_model.pkl (torch, 10703 bytes, 8 tensors)

init_ar_parameters f4 [18]
000000 0f c6 37 bf 25 5c 5e 3f e8 d7 ce bf a2 b5 24 3f
       -0.7178659 0.8685935 -1.6159639 0.6433965
000010 a2 cf 13 be 39 08 8d be 82 5b 61 c0 4f 80 2e 3f
       -0.14434674 -0.27545336 -3.5212102 0.68164533
000020 58 2b 02 c0 7a 6c 02 3e fc 5b 5c bc 31 3f e0 3c
       -2.0338955 0.12736693 -0.013449665 0.027373882
000030 e8 d9 f8 3e 1a 67 5e 3f 50 e7 6b bf 65 2e 10 3f
       0.4860375 0.8687607 -0.9214983 0.5632079
000040 bd a0 1b 3f 42 c5 68 be
       0.6079214 -0.22731498

init_redusial_params f4 [6]
000000 7e 6d 25 3f 57 53 f9 3e 34 b5 51 bf 8b 90 39 3e
       0.64620197 0.48696396 -0.8191712 0.18121545
000010 eb a8 97 3c de 82 0c bf
       0.018513164 -0.5488719

lstm.weight_ih_l0 f4 [80, 3]
000000 af 2a 0b 3f c5 75 9f 3f 50 07 d1 3f 5d 57 73 3e
       0.54362005 1.2457815 1.6330357 0.23763795
000010 b7 51 c0 3e 40 1a 7b 3c 56 e6 8d 3e 47 25 c0 3e
       0.37562343 0.015326083 0.27714795 0.3752844
000020 a1 2c b6 3e e1 b7 ca 3d 67 c1 e9 bd 3c dd 3d 3c
       0.35580924 0.09898353 -0.11413842 0.011588391
000030 cf e1 7d 3e 15 73 bc 3e dc d7 c8 3e 71 2f 19 3f
       0.2479317 0.3680655 0.39227188 0.59838015
000040 9d 7d 89 3f 7e ef b6 3f 1c d1 2a 3e 3a 28 83 3e
       1.0741459 1.4291837 0.16681331 0.25616628
000050 99 88 66 3e 12 dd e3 3e 1e f7 cd 3d fc 26 e0 3d
       0.22513045 0.445046 0.100568995 0.10944936
000060 a9 ae 36 3e 61 29 d6 3e 72 3f b1 3d 09 01 3e 3f
       0.17840065 0.41828445 0.08654679 0.7422033
000070 df 77 2b 3f f3 7d b7 3e 17 b1 45 3f 3f 8b 80 3e
       0.66979784 0.3583828 0.7722334 0.25106236
000080 03 39 e5 3e e0 cd 7f 3e 04 71 ff 3e 53 ea a9 3d
       0.4477006 0.24980879 0.49890912 0.08296647
000090 57 04 ad 3d dd 17 ad 3e b5 ff 63 3e 9e 0c 7f 3e
       0.084480934 0.3380727 0.22265513 0.24907157
0000a0 a7 40 24 3e 57 4b 20 3e d3 ad 47 3e 14 4d bb 3e
       0.16040288 0.1565374 0.19499902 0.36582243
0000b0 a0 88 5e 3e fb b2 bd 3e 32 b1 01 3f af 0e d8 3e
       0.21731806 0.37050614 0.50661004 0.42198703
0000c0 2f 15 9d bd 88 0c a5 3d f6 f1 98 be 80 ed 0d be
       -0.07670056 0.08059031 -0.29872102 -0.1386013
0000d0 ad 95 ec b9 36 0b 12 be 19 ad 27 3f cd 39 72 3f
       -0.00045124945 -0.14262089 0.654985 0.94619447
0000e0 ea f9 00 40 d1 85 5d 3e 96 cd cf bd 90 be 30 be
       2.0152535 0.21633078 -0.10146634 -0.17260194
0000f0 c8 c5 93 3e e8 30 25 3f 31 4c 58 3f 0a b5 2c 3e
       0.28861833 0.6452775 0.8449126 0.16865936
000100 af b3 fb 3d c8 32 34 3d bd 70 90 3e 9f 26 cc 3e
       0.12290131 0.04399374 0.28211012 0.39873216
000110 66 e3 b7 3e 8c f9 43 3e 40 9a 5c be f6 60 e2 be
       0.3591568 0.19138163 -0.21543217 -0.442146
000120 1b fb 82 3e 1f 83 34 3e 37 21 8d 3d 01 14 a7 3e
       0.25582203 0.17628144 0.06891101 0.3263245
000130 59 74 bc 3e da c1 20 3f 5b 91 c9 3e c0 45 15 3f
       0.36807516 0.62795794 0.3936871 0.58309555
000140 aa 02 25 3f 6f 2a 21 3e a3 d6 2b 3e 85 87 3f 3e
       0.6445719 0.15738843 0.16781096 0.1870404
000150 6e 1e 4a 3e 1a 08 78 3e 9e 40 88 3e 6d 3f d6 3e
       0.1973817 0.2422184 0.266118 0.41845265
000160 00 ff aa 3e 60 6c b1 3e c7 03 e6 3e e9 3e f8 3e
       0.33397675 0.34652996 0.44924757 0.48485497
000170 e1 fe b8 3e b7 98 5b bd 54 6a 9b 3e 7f 7c a6 3d
       0.36131957 -0.053612437 0.3035456 0.081292145
000180 80 cb 86 3e ed 64 20 be aa de 02 be f2 0a 6f 3e
       0.26327133 -0.156635 -0.12780252 0.23344019
000190 07 02 41 3e 2b bf af 3e 1e d3 54 3e 7f 34 fd 3e
       0.1884843 0.34325537 0.2078366 0.49454114
0001a0 ff f6 aa 3e ae 5f e2 3d 75 46 cf bd 8d 86 45 3e
       0.33391568 0.11053406 -0.101208605 0.19289608
0001b0 d5 1b cc 3d 4c 9f ea 3e ad 98 5f be db de 6c 3e
       0.09966246 0.4582466 -0.21835585 0.23131888
0001c0 58 8e 14 be f9 08 1b be bd bb f9 3e 9a a9 2e 3f
       -0.14507425 -0.15140142 0.48776045 0.6822754
0001d0 3a 84 9e 3f ac d9 6d 3e 7e b1 be 3e 8d 9f 84 3d
       1.2384102 0.23227566 0.3724479 0.064757444
0001e0 8c fd 87 3e b9 36 15 3e b9 3e cc 3e f8 1c c1 bd
       0.26560628 0.14571656 0.39891604 -0.094293535
0001f0 4f 74 3e be d6 ba 21 bf db e2 cd 3d da 23 8c 3e
       -0.18599056 -0.63175714 0.10053035 0.27371103
000200 4e 1e ad 3e 87 19 d2 3d 4f c5 82 3e 63 8f 0c 3f
       0.33812183 0.10258775 0.2554116 0.5490629
000210 c3 c8 ab be 47 b9 9b be 77 04 f2 bd 80 da 8d 3e
       -0.33551607 -0.30414793 -0.11817258 0.27705765
000220 7d fc 5a 3f 93 48 64 3f f5 21 d8 3e 6c 44 92 3e
       0.85541517 0.8917324 0.42213407 0.28567827
000230 61 ae b6 3e d2 67 9e be 68 c2 ae be ec 37 ce be
       0.35679916 -0.30938584 -0.34132695 -0.4027704
000240 6a 02 98 3e 9c dd bd 3e ce f0 66 3e 8c 3e 1c bf
       0.29689342 0.37083137 0.22552797 -0.6103294
000250 1b b6 c8 be d9 04 0f bf 3a fc 24 bf 77 c2 db be
       -0.39201435 -0.5586677 -0.6444737 -0.42921802
000260 91 0c 3e be 96 e8 c4 be a3 d8 f1 be a7 de d1 be
       -0.18559481 -0.384587 -0.47235593 -0.40990183
000270 77 b4 98 be a7 93 1a bf 0c f4 ec be 7c cb dd 3e
       -0.29825184 -0.6038155 -0.46279943 0.4331931
000280 43 f4 9d 3e f5 e7 0c 3f 95 3d 8e be 74 de 0a be
       0.3085042 0.5504144 -0.27781358 -0.13561422
000290 3b 32 9e be cf 65 09 bf 75 0a 65 bf 27 9b 78 bf
       -0.30897698 -0.5367097 -0.8946908 -0.97111744
0002a0 c9 7c 92 3e f9 f3 1a 3f 1c 26 1b 3f 02 05 89 3e
       0.2861083 0.6052852 0.60605025 0.26761633
0002b0 db dc 67 3e fa 7b 68 3e c7 a7 0d bf 1f 22 49 bf
       0.22642843 0.22703543 -0.5533413 -0.7856769
0002c0 78 ab d7 bf 61 00 2d bc 09 a0 18 be 26 3d 1f 3e
       -1.6849203 -0.010559172 -0.14904799 0.1555067
0002d0 49 1b 29 3f 15 f6 91 3f 57 ca b6 3f 73 89 98 bf
       0.6605726 1.1403223 1.4280499 -1.1916946
0002e0 bd a6 0e c0 57 53 43 c0 ca ce a1 bf 66 70 5c c0
       -2.228927 -3.0519617 -1.2641232 -3.4443603
0002f0 95 48 bf c0 84 b2 f8 bf 93 06 62 c0 5c 65 87 c0
       -5.97761 -1.9429479 -3.5316513 -4.231123
000300 da b7 89 3e 59 83 9c 3e 74 a2 ce bd 0e 4b 12 c0
       0.2689808 0.3056896 -0.10089579 -2.285831
000310 48 1c 7e c0 21 f8 95 c0 d3 a7 b9 bf aa 9b 70 c0
       -3.9704762 -4.686539 -1.4504341 -3.759501
000320 05 d3 d5 c0 0d ec 01 bd b5 3b c4 bf 09 26 8f c0
       -6.682009 -0.031719256 -1.5330721 -4.473393
000330 12 8d a2 3f 1c b7 d9 3f cd 0c c3 3f b8 57 eb 3e
       1.2699301 1.7009006 1.5238281 0.45965362
000340 09 24 dd 3d 22 64 68 3d ee 0f 93 3f 0f f6 d3 3e
       0.10797889 0.05673612 1.1489236 0.41398665
000350 b1 a0 a1 be da 54 75 bf 28 63 fa bf d4 1f 1f c0
       -0.3156791 -0.958326 -1.956151 -2.4863176
000360 bb 1b 6f 3f 79 eb 04 3f 34 97 3a 3e 1b 5f 1e 40
       0.9340169 0.519218 0.18221742 2.4745548
000370 14 69 2d 40 63 76 4d 40 bf 7b 29 3f 71 5f 34 3f
       2.7095385 3.2103508 0.66204447 0.7045813
000380 9c fe f0 3e 3c 40 aa 3f 25 13 17 3f 7b 1c 91 bc
       0.47069252 1.3300853 0.5901359 -0.017713776
000390 51 23 88 3e b0 10 8b bf b0 e2 99 bf 36 cf 50 c0
       0.26589444 -1.0864468 -1.2022305 -3.2626472
0003a0 03 2a 81 c0 11 20 91 c0 c7 0f a7 be b5 a5 81 bf
       -4.0363784 -4.5351644 -0.32629225 -1.0128695
0003b0 a1 c7 1a c0 34 2b af 3e bc 06 a9 3e ba 57 1a be
       -2.4184344 0.3421265 0.3301295 -0.15072528

lstm.weight_hh_l0 f4 [80, 20]
000000 46 b6 2a 3e 80 ea 02 bf 10 91 a7 3e 0c ca 8f 3e
       0.16671094 -0.5113907 0.3272786 0.28083837
000010 a1 f0 79 be cd ea 91 3e a1 5f b3 3e 49 0f b1 bd
       -0.24408199 0.2849945 0.35033897 -0.086454935
000020 0e d6 c5 3e 53 ba 84 bd 4d c1 cf be ad 19 8a be
       0.38639873 -0.06480851 -0.40577164 -0.26972714
000030 0e fe 26 be 6c 25 5f 3f b8 8f b5 be 3c 0f e1 be
       -0.16307852 0.87166476 -0.3546121 -0.43956935
000040 f1 de 3d 3e bf ae ee bd bc 8c 62 be 80 06 d7 be
       0.18542077 -0.11654424 -0.22123998 -0.41997147
000050 fa b6 9e 3e 78 58 bd be 9b ae d1 3e 48 2c 55 3e
       0.30998975 -0.3698156 0.40953526 0.20817673
000060 25 6c 1e be 34 c3 af 3e c8 02 42 3e 0d 6a f1 bd
       -0.15470941 0.34328616 0.18946373 -0.11787806
000070 3b 3c cf 3e 2d 83 84 be 2b 82 c9 3c c9 9e 05 3d
       0.4047564 -0.2588133 0.024598202 0.032622132
000080 4d 39 85 bc 44 f9 c0 3d 3c 61 83 be b7 b2 63 be
       -0.016262675 0.09422544 -0.2566012 -0.22236143
000090 94 cc ee 3e 58 25 2c bf 87 65 79 be 2f 82 7f be
       0.46640456 -0.6724448 -0.24355136 -0.24952005
0000a0 77 5e 8a 3f 96 3e 47 be 76 95 8d 3e 0e 51 87 bd
       1.0810078 -0.19457468 0.27653092 -0.06607257
0000b0 21 a6 2a 3e 38 73 a6 bd 6b bb 0e 3f 9a 71 ba be
       0.16664936 -0.08127445 0.5575473 -0.36414796
0000c0 22 9d eb 3e fe ed 52 be d9 44 f3 3d d1 04 3a bf
       0.4601832 -0.205986 0.11878366 -0.726636
0000d0 fb 18 13 bc 1f b0 a1 3f 16 61 fd 3d 74 4b 29 3e
       -0.008978124 1.2631873 0.12372033 0.1653269
0000e0 51 24 76 3e bc 3c 94 3e 9a fd c8 be b6 a2 20 be
       0.24037291 0.28952587 -0.39255983 -0.1568707
0000f0 38 1c ae 3c 89 2c 5e be 15 9e d4 3e 3d 0c 81 3e
       0.02125369 -0.21696676 0.41526857 0.2520465
000100 c1 bd 84 bd d1 c6 14 3f b5 96 6e be a1 93 1e 3f
       -0.06481505 0.5811587 -0.23299678 0.61944014
000110 5e 2e fb 3d 0b cc 3d be 18 2b 9c 3e d3 a1 d6 3e
       0.12264703 -0.18534867 0.30501628 0.41920337
000120 e6 66 ae be c1 21 d5 3c 4b 7c 46 bd d0 7b 93 be
       -0.3406288 0.026017072 -0.04845838 -0.288054
000130 a9 d0 74 3e 9e a6 e8 bc 5e 75 35 be 5d 6c bf be
       0.23907723 -0.028399762 -0.17720553 -0.37387362
000140 f5 91 32 3e 6c 38 43 be 0c 2f 0c 3e c5 16 30 3d
       0.1743849 -0.19064492 0.13689822 0.042990465
000150 74 88 ce be 35 10 0b 3d 2f 8f 93 3d c1 69 44 be
       -0.4033848 0.033951003 0.072050445 -0.19180967
000160 3a e6 af 3d ae bc ec be f2 3d 87 be b2 09 a9 bd
       0.08588834 -0.462377 -0.26414448 -0.08253802
000170 25 28 24 bf a3 ee 32 3e 98 05 ba be 1f 21 30 be
       -0.64123756 0.17473845 -0.36332393 -0.17200135
000180 eb f6 5c be 2d 80 f6 3e f9 9a 40 be aa c7 8f be
       -0.21578567 0.48144665 -0.18809117 -0.2808202
000190 21 90 13 3e 3f 17 df be 81 13 a2 bd 0e ae 23 be
       0.1441045 -0.43572423 -0.07913876 -0.15984365
0001a0 dd c4 7c 3d e3 0a 40 3f a2 68 b8 bc 0a 9e 5d be
       0.06171118 0.7501661 -0.02251083 -0.21642318
0001b0 6e d2 06 3f 0c b9 a2 be 7e 39 df be d9 b4 5b bf
       0.5266484 -0.31781805 -0.4359855 -0.85822827
0001c0 dc b6 f5 be 4c fa a2 3f f9 91 05 be f6 57 16 bf
       -0.47991073 1.2732635 -0.13043965 -0.5872797
0001d0 38 43 1e be 18 13 db 3e 32 fb 55 3e 4c f4 7b be
       -0.1545533 0.42788005 0.20896605 -0.2460491
0001e0 1d 71 40 be ca 43 1d be a9 87 48 bd 30 92 ab 3d
       -0.1879315 -0.1535789 -0.0489575 0.083774924
0001f0 3a 61 9a 3e 1a 75 ed 3e 8b 3a bf bd 7d 04 c7 bc
       0.30152303 0.46378404 -0.09337338 -0.024294132
000200 b5 2a 2f 3e 21 6e 1d 3e 28 8e 59 bd 78 36 12 be
       0.17106135 0.15374042 -0.053114086 -0.1427859
000210 16 60 ee be 56 3f 01 3f 4f 82 85 bc 89 bb 94 bf
       -0.46557683 0.5048727 -0.016297488 -1.1619731
000220 93 cd 14 3e b0 7d 01 3f 35 e9 3e bc b7 76 dd bc
       0.14531545 0.5058241 -0.011652281 -0.027034147
000230 1f b1 f6 3e 32 7c 6e be 22 74 1a 3f 7d 49 8e 3e
       0.48182008 -0.23289564 0.60333455 0.27790442
000240 f5 3b 8a bd d9 c8 86 3e ee 8a bd 3e 45 a7 81 be
       -0.06749717 0.2632511 0.37020057 -0.2532293
000250 5b c5 35 3d 0f 3c a9 be 21 94 e4 3d c3 15 89 bd
       0.044377666 -0.33053634 0.11161066 -0.06693604
000260 4f 2c 20 3c 55 0c 68 3e ee be f7 bd be 8b 7e bc
       0.009776189 0.22660954 -0.12096964 -0.015536247
000270 14 bd 7e bd 9d 9b ec 3d bd 5d ef be 59 d9 36 be
       -0.062192038 0.115531184 -0.46751204 -0.17856349
000280 a0 30 56 3e de 29 cb 3d 0d 30 63 3e b2 15 d3 bd
       0.20916986 0.09920095 0.22186299 -0.103068724
000290 72 80 29 bd f4 91 af 3e b1 55 c0 3d 90 78 9b be
       -0.04138226 0.3429104 0.09391344 -0.3036542
0002a0 e8 64 d7 3e 59 6a 9d bd 96 b5 4f bf 6a 74 85 be
       0.42069173 -0.076863 -0.81136453 -0.2606538
0002b0 50 28 96 be 6c 66 9e 3e e3 40 6c be 0c 97 08 be
       -0.2932763 0.30937517 -0.23071627 -0.1333887
0002c0 6a ba 28 bd 71 fb f5 3d b2 1e 43 3d 12 ea 9c be
       -0.041193403 0.12010849 0.047636695 -0.3064733
0002d0 c8 21 55 3f 40 bb 5b be 7e d7 ff 3e 0a 40 40 3e
       0.8325467 -0.21458149 0.49969095 0.18774429
0002e0 5d 14 9d 3f 2f 6f b3 bd fd f9 05 3f c6 93 d3 be
       1.2271839 -0.08761441 0.52334577 -0.4132368
0002f0 f8 18 22 3d ed 63 e4 bd d8 00 16 be 73 25 60 be
       0.039574593 -0.11151872 -0.1464876 -0.21889286
000300 71 42 84 3e 14 3e 05 3f 23 ab c7 3e 22 6f c6 3e
       0.2583194 0.5204785 0.38997754 0.38756663
000310 a2 68 4e 3e c0 62 08 3e 1b 2c be be ab b9 b9 be
       0.20157102 0.1331892 -0.37143025 -0.36274466
000320 0c 4a 1a 3f 85 3a 47 bf d6 05 27 3f 84 d3 2b 3e
       0.60269237 -0.7782367 0.6524328 0.16779906
000330 98 64 98 3e ee 4c 46 be 2a 57 3b 3f 99 8d d1 be
       0.29764247 -0.19365284 0.73179877 -0.40928343
000340 43 a6 87 bd 2d 16 0a bf 82 a8 4f bf c6 a4 7b bf
       -0.06623509 -0.5394009 -0.811165 -0.982983
000350 70 71 de 3d 24 8b 6a 3f 90 27 29 3e 46 f4 15 3f
       0.1086148 0.9161856 0.16518998 0.58575857
000360 22 5d 8b 3f d9 cc 8b be e5 2b 1c bf 14 9c 52 bf
       1.0887797 -0.27304724 -0.6100448 -0.82269406
000370 28 39 9e 3d a8 a1 1a bf b0 b2 12 3f 56 fa 97 bd
       0.077257454 -0.6040292 0.57303905 -0.07420795
000380 73 68 c7 be 24 16 75 3e 33 ba 4a 3b d0 ab 8c be
       -0.38946876 0.23934227 0.0030933737 -0.27474833
000390 5b 8c a4 3e af a4 b6 be 37 aa 4d bd 0d 92 25 be
       0.32138333 -0.3567252 -0.050211158 -0.16168995
0003a0 e5 f0 a4 be dd 5f 64 3e d8 a6 71 be d8 31 39 be
       -0.32215038 0.22302194 -0.23598802 -0.1808542
0003b0 99 ff 3c 3e 9e ae 83 bd 23 fd 3a 3d 50 b7 98 bd
       0.18456878 -0.0642979 0.045651566 -0.07456839
0003c0 15 14 ac 3d 56 21 6f bd 56 84 52 3e 79 43 a6 3d
       0.08402268 -0.0583814 0.20558295 0.08118338
0003d0 36 74 53 bd c5 0b 0b 3f 72 79 79 3e 8c d8 19 3e
       -0.0516245 0.54314834 0.24362734 0.15024012
0003e0 e0 62 16 be 20 73 c8 bd 54 e6 f6 3d f1 a2 65 bf
       -0.14686155 -0.09787583 0.1205565 -0.89701754
0003f0 8d d1 30 bf 19 b6 74 3e 80 3c 3f bb 1d af 8d be
       -0.6906975 0.2389759 -0.0029180348 -0.27672663

lstm.bias_ih_l0 f4 [80]
000000 08 08 83 3e 6d 4d 6f 3e 1e 90 84 3e 32 90 cb 3e
       0.25592065 0.2336938 0.25891203 0.3975845
000010 1a 44 83 3e 5b 34 9d 3d 3e e8 51 3d ce fd ad 3f
       0.25637895 0.07676002 0.051246874 1.359308
000020 3f 0e 30 3e 77 13 5a 3e 8b 54 06 3f 32 2b b6 3e
       0.17192934 0.21296488 0.5247275 0.3557983
000030 ba 21 77 3e ed b5 10 3f e7 17 9c 3e f1 a9 d1 3d
       0.2413396 0.56527597 0.30486986 0.10237492
000040 5e 2c f9 3e 33 5a 43 3f 8b df 05 3e 45 76 c8 3d
       0.48666662 0.7630951 0.13073556 0.09788183
000050 9f f9 58 3e b6 b2 cd 3d 83 f9 c0 3e 01 a3 47 bd
       0.21188973 0.10043852 0.37690362 -0.048739437
000060 73 ec e2 bc 13 96 bf 3e fc eb 23 3e 37 38 d8 3e
       -0.027700638 0.37419185 0.1600799 0.4223039
000070 fc 0a 47 3e dc 12 13 3f d0 ca 9a 3e 65 98 91 3e
       0.19437784 0.5745065 0.3023286 0.2843658
000080 fa b9 af 3d 6f 5c 90 3e 3d 2a 97 3e 59 a6 89 3d
       0.08580394 0.2819552 0.29524413 0.067211814
000090 46 df 9c 3e bf b4 20 3f 70 9b d5 3e d5 99 2b 3e
       0.30639094 0.62775797 0.41720152 0.16757901
0000a0 27 46 a2 3e 5f 1f b8 be df 35 9c be 78 68 93 3e
       0.31694147 -0.35961434 -0.3050985 0.2879064
0000b0 e5 94 12 3d 4b 6d 51 3e 45 1a 96 3e 83 c7 cd be
       0.03578653 0.20451848 0.29316917 -0.40191278
0000c0 69 c2 fe bd 00 39 a6 3d 95 f6 f2 3d e1 89 09 bf
       -0.124394245 0.08116341 0.11863438 -0.5372601
0000d0 a6 c0 d0 bd 6e 06 b7 be cb 46 72 bc ab 18 85 3d
       -0.10192995 -0.35747093 -0.014787386 0.06498846
0000e0 e1 ef 1f 3f 18 5f 69 be 1a 03 08 be 27 8e 41 bd
       0.624754 -0.22790182 -0.13282433 -0.047254708
0000f0 6c 26 8a 3e 3c 8f 06 3e 33 5f 62 3d dc e2 c4 be
       0.2698244 0.13140577 0.05526657 -0.3845433
000100 5b 32 87 3c d3 cd 98 be a0 3b 65 3e 9b c8 3e be
       0.016503504 -0.2984453 0.22386026 -0.18631212
000110 19 2a 9b 3e ee 9d ee 3b e7 c3 52 3e 12 5d ba bd
       0.30305555 0.0072820103 0.20582543 -0.09099783
000120 93 06 d4 3e 35 18 99 3e b2 d8 73 3e 71 26 98 3e
       0.41411266 0.2990128 0.23813131 0.29716828
000130 48 43 7e 3f 05 bb 6b bd e8 4d 27 3e 87 e6 0b 3e
       0.99321413 -0.057551403 0.16338313 0.13662158

lstm.bias_hh_l0 f4 [80]
000000 a9 e2 c0 3e ae a3 d2 3e 11 43 93 3e 4d 9b c0 3e
       0.37672928 0.41140503 0.28762105 0.37618485
000010 5d c0 15 be 34 31 d8 3c 80 85 3d be 80 9d c1 3f
       -0.14624162 0.02639065 -0.18507957 1.512619
000020 b8 79 1f be 7b 40 db 3e ed 45 b3 3e a2 ec dc 3e
       -0.15573776 0.42822632 0.35014287 0.43149287
000030 7f 1d 5a bc 31 1f df 3e 05 37 6d 3e fb 83 33 3d
       -0.0133126965 0.43578485 0.2316552 0.04382704
000040 7d 02 12 3f ea 0c 47 3f c8 69 ad 3d 16 1e 83 3e
       0.57035047 0.7775408 0.08467442 0.2560889
000050 bc be 66 3e 5a c0 a2 3d cd 39 18 3f 05 c7 05 bc
       0.22533697 0.079468444 0.59463197 -0.008165126
000060 28 15 23 3e 47 6f fb 3e 8d 11 05 be d1 2f a3 3e
       0.15926039 0.49108335 -0.12994976 0.3187242
000070 52 96 80 3d 18 70 c7 3e a7 22 16 3f 01 69 32 3e
       0.06278671 0.38952708 0.58646625 0.17422868
000080 cf 3a ff 3e 09 43 1b 3f 5d ff 07 3e d2 ac ac 3e
       0.49849555 0.6064916 0.13281007 0.337256
000090 86 dd bf 3e 53 69 12 3f 6c 4a af 3e 35 fd 55 3e
       0.37473696 0.5719196 0.34236467 0.20897372
0000a0 f5 d0 8f 3e 37 8b dd be 00 d1 f9 bc 12 5f f8 3e
       0.2808911 -0.43270275 -0.030495167 0.48510033
0000b0 59 37 c6 bd c2 f3 18 3d 27 67 c9 3d 6f cf 94 bd
       -0.096785255 0.03734184 0.09834128 -0.07266127
0000c0 ce 36 c3 bd 29 cc a0 3d 8c ba 8a be 7b 02 ac be
       -0.095319375 0.078514405 -0.2709545 -0.33595642
0000d0 78 c6 22 3e d5 af 41 3c f7 2a 22 be a4 e7 b0 3b
       0.15896022 0.011821707 -0.15836702 0.0053987075
0000e0 33 56 c9 3e 2b 02 d8 be 81 a7 fb 3c 45 c8 55 3d
       0.39323577 -0.42189154 0.03071952 0.052192945
0000f0 09 74 8a 3e 31 8d 93 3e 60 94 f4 bd 44 37 f4 be
       0.27041653 0.28818658 -0.11942363 -0.47698414
000100 30 d4 8b 3d 3d 9a aa be 4a b2 23 3e f2 7a 17 bd
       0.06827581 -0.333208 0.1598598 -0.036982484
000110 60 43 84 3e 5b 2e ec 3d fb 4d 8e 3e 3e 37 e6 bd
       0.25832653 0.11532279 0.2779387 -0.11241005
000120 84 17 f0 3e bc 75 70 3e d6 40 38 3e bb 7d 7a 3e
       0.4689294 0.23482412 0.17993483 0.24462025
000130 9d aa 35 3f 79 15 a8 3e c9 d2 7b 3e fc 44 a7 3e
       0.7096346 0.32828882 0.24592127 0.32669818

add_trend.weight f4 [3, 20]
000000 fb 3b 66 3f 6c 72 98 40 55 62 f2 3f bc f6 a5 3e
       0.8993527 4.7639675 1.8936259 0.32414806
000010 9e f3 4e bf 70 36 1f be a2 5d 16 40 9e f7 39 40
       -0.8084048 -0.1554811 2.349465 2.9057384
000020 79 67 63 40 25 56 29 bf 0b f0 b2 bf b7 52 07 40
       3.5531905 -0.6614707 -1.3979505 2.1144235
000030 ff ff a9 be da cf 09 bf 3d 7d 91 be 81 b0 b4 3f
       -0.33203122 -0.5383278 -0.28415862 1.4116365
000040 aa 94 12 c0 b0 8d 8c c0 e1 25 40 40 c0 a0 7f bf
       -2.2903237 -4.392296 3.002312 -0.9985466
000050 3f 7e d1 3e 1b 81 fa 3f 5b 99 f7 bf f4 23 70 40
       0.4091663 1.957065 -1.9343675 3.7521944
000060 36 06 cc 3e 24 7b e1 3f 6e a7 8b 40 26 06 04 3f
       0.3984849 1.7615705 4.364188 0.5157188
000070 01 db f9 bf be 3e 14 40 db 16 0d c0 d4 a9 8e bf
       -1.951996 2.3163295 -2.20452 -1.1145577
000080 fd 52 0d bf fd 81 22 bf 60 9e 26 3f 3d 4b 08 3f
       -0.55204755 -0.63479596 0.6508541 0.53239805
000090 8d ce 31 bf d6 ba 62 3f 4a 30 f1 3d 94 f4 29 c0
       -0.69455796 0.8856634 0.117767885 -2.6555529
0000a0 49 6d 58 3f c5 73 0a bf ee 64 00 3f ec 36 f2 3f
       0.84541756 -0.540829 0.50154006 1.8923011
0000b0 00 49 2a bf ce 3b 8c 3f 45 b3 94 40 06 5d 08 40
       -0.6651764 1.0955751 4.6468835 2.1306777
0000c0 ad 4a c6 3e bc 8d 1b bf f2 d5 80 be 3f ed 16 c0
       0.38728848 -0.60763144 -0.25163227 -2.3582304
0000d0 45 da 44 be 13 25 51 3f 6d 1d c5 be f5 69 41 3e
       -0.19223888 0.81697196 -0.38499013 0.18888076
0000e0 ee ac 15 3f 35 47 da 3f 17 1b 34 3f 6c ae c8 bd
       0.58466995 1.7052981 0.70353836 -0.09798893

add_trend.bias f4 [3]
000000 3d 90 f9 bf 80 7d 29 40 81 2f 59 3f
       -1.9497143 2.648285 0.8483811
